Results/transformer/split_1/checkpoint.pt (torch, 832610 bytes, 46 tensors)

attn_layers.layers.0.0.0.weight f4 [74]
00000000: c364 803f 1456 803f 414a 803f ac68 7d3f
00000010: d9d7 803f 247b 7f3f 3280 803f 56c5 803f
00000020: f056 803f 19b5 803f aeb1 7e3f ea99 803f
00000030: aa56 803f 748b 813f d6f9 7f3f 9292 803f
00000040: 7e97 803f 6730 803f 94ff 803f c9cc 813f
00000050: d01c 803f 2f94 7f3f 34d5 803f c59e 813f
00000060: d4a5 7f3f 2bb3 803f 8006 813f 14a0 803f
00000070: 932f 803f 44af 813f a09f 7f3f 9e0d 7f3f
00000080: a189 803f 0fe9 803f fd11 813f 3486 7f3f
00000090: 8057 813f 0c7a 803f 2702 803f 0d79 7f3f
000000a0: a0f1 803f e264 803f f291 803f 4d3b 803f
000000b0: 387a 7f3f 84bd 7e3f 9f6b 7f3f d3c3 803f
000000c0: 0e2b 803f 773b 803f 4b85 7d3f bf7b 803f
000000d0: e6bb 7f3f 14dd 813f b8e9 7f3f d62f 813f
000000e0: 2c82 803f 0537 7f3f b521 803f 5d12 813f
000000f0: 7ad5 7e3f 4b46 803f 0ae1 7b3f 913f 7f3f
00000100: 4109 7f3f 2c68 803f ae06 803f 0aa3 7d3f
00000110: 4862 7f3f e64a 7e3f 41d7 7f3f 1f66 7e3f
00000120: 2600 813f 7b9c 813f
1.003075 1.0026269 1.002266 0.9898784 1.0065871 0.9979727 1.0039122 1.0060222
1.0026531 1.0055267 0.9948987 1.0046971 1.0026448 1.0120683 0.99990594 1.004473
1.0046232 1.0014771 1.0077996 1.014062 1.0008793 0.99835485 1.0065064 1.0126578
0.9986241 1.0054678 1.0080109 1.0048852 1.0014518 1.0131612 0.99852943 0.99630153
1.0042001 1.0071124 1.0083615 0.9981415 1.0104828 1.0037246 1.0000657 0.99794084
1.0073738 1.0030787 1.0044539 1.0018097 0.99795866 0.9950793 0.9977359 1.0059761
1.0013139 1.0018147 0.99031514 1.0037764 0.99896085 1.0145593 0.99966 1.0092723
1.0039725 0.9969333 1.0010287 1.0083729 0.9954449 1.0021452 0.9839026 0.9970637
0.99623495 1.0031791 1.0002038 0.990769 0.9975934 0.99333036 0.99937826 0.99374574
1.007817 1.0125879

attn_layers.layers.0.0.0.bias f4 [74]
00000000: d4bf 643b f0fd 9c3b ade2 293b 94a8 a83b
00000010: 6d69 41bb 4476 573b ed62 caba 357b 48bb
00000020: dc52 6f3b 5afa 653c b8e9 c93b 6b69 a63b
00000030: 36be bfbb 6d2c 0e3c 4b67 04bb b1d4 313b
00000040: 4a7f 253b f572 2bbb 6b59 a73a dc3e a1bb
00000050: 01f8 7b3b 8d24 55ba 5d03 3c3b 32a0 da39
00000060: 479c 8f3b 883c 743b cd42 15bb 03bf d2b9
00000070: 025c 873b ca61 9c3a 5cf9 9e3a 1c75 9b3b
00000080: 98c2 653b 162f 283a 8af5 8e3a d3aa e33a
00000090: 8eb0 d2bb 7dbe aa3a f458 6c3b 5ce7 ff39
000000a0: 4d02 0639 7407 a13b 871d 013b a3c9 943b
000000b0: b844 d33b 4461 d23b 4a4e 223b 2eb1 3d39
000000c0: 41c9 e93b d4dd aa3b 5f85 cb3b 3a11 a6ba
000000d0: 65db b23b 1bd2 3eb8 2e17 bf3b 4559 513b
000000e0: eef8 bfba 3de5 03bb f5be 17bb 6064 abbb
000000f0: a558 c2bb 980c 18bb 560e 6dbc 95ec 8ebb
00000100: 885d 4fbb 399f a3ba c65f 00bb f465 efbb
00000110: 6c01 02bc bb06 b8bb f4ff 62bb 6955 97bb
00000120: ac5d 1f3b 581e 173c
0.0034904378 0.004791014 0.0025922463 0.005147049 -0.0029512302 0.0032876888 -0.0015440859 -0.0030591015
0.0036517894 0.014036739 0.0061618946 0.005078485 -0.0058515323 0.008677584 -0.002020317 0.002713483
0.0025252872 -0.002616105 0.0012767737 -0.0049208235 0.0038447382 -0.00081307517 0.0028688528 0.00041699555
0.0043826434 0.0037267525 -0.0022775412 -0.00040196636 0.0041308412 0.0011930999 0.0012128758 0.004744185
0.0035058614 0.0006415708 0.0010906917 0.0017369635 -0.0064297384 0.0013026741 0.0036063762 0.00048809766
0.00012780093 0.0049142186 0.0019701438 0.0045406385 0.006447401 0.0064202864 0.0024765902 0.00018090449
0.007134587 0.0052144323 0.0062109674 -0.0012669929 0.005458283 -4.5495206e-05 0.0058316207 0.0031944078
-0.001464633 -0.002012565 -0.002315459 -0.0052304715 -0.0059309774 -0.0023200866 -0.01446875 -0.004361699
-0.0031641442 -0.0012483365 -0.0019588335 -0.007305855 -0.007934909 -0.0056160367 -0.0034637423 -0.004618336
0.0024317307 0.009223543

attn_layers.layers.0.1.to_q.weight f4 [64, 74]
00000000: aa6d 00bd a122 f23c d5d3 3a3c fb08 be3d
00000010: ae4b 15bc d04f d53c fcec 29bd 07b8 15bd
00000020: 6b41 d3bd b755 73bd e0cd 21bd ae1c 963b
00000030: 17e4 643d 63ce a13d 266b a8bd 4d53 76bd
00000040: 6646 843c ab04 ca3d 89d6 15bd 73ad 973d
00000050: 047f 02bd bf44 1b3b 53fb cc3d 5399 e6bd
00000060: 9652 96bd 24dd 0ebd 0b93 8bbd aced 993d
00000070: 8f31 9ebd 2fb1 60bd 1999 abbd 623a e1bd
00000080: 30ce a3bd 4fc6 df3d a92b 283d 085d 663d
00000090: a118 6c3b 0415 41bd 3b34 053d 0dff d7bd
000000a0: c81e a4bd dc5b 2ebd 4761 be3d d54b 8b3d
000000b0: 6546 29bd 92ec 4139 1671 a93d 4c2c d13d
000000c0: 1bb6 143d 9dfa c23c 2483 b13d b54f 64bd
000000d0: 1e58 e73c 6fd9 b5bd efdf a3bd 5fcc 73bd
000000e0: 6c13 973d f7d9 423d cd17 a1bd de1b d83c
000000f0: 1316 783d 9c9f 8cbc be37 39bb fdd8 ab3c
00000100: b04d 8a3d 2800 e63d aeaf c5bd 9894 40bd
00000110: 5c8a 233d 5820 c43d a30f c93d b13d c93d
00000120: f93b a93c ca6f ddbd 1284 2f3d f65d 60bd
00000130: b260 8ebd caf2 073e 9024 db3d ecaf bbbd
00000140: c496 073d e06b 0cbd c66f 883c c9ca cbbc
00000150: 377c 7d3d 687a 8fbd cd11 9d3d d14f c23d
00000160: 3b7a e53d 83c2 323d f961 10be 5c67 cfbd
00000170: b833 e63c 9faa 29bc 832d 01be 613c cdbd
00000180: f63f 983d e4c1 3e3d cfc2 36bd 64d1 63bd
00000190: 728d f2bd 39d3 7dbc c57c 6dbd df7c bdbd
000001a0: cb91 f638 4d80 c93c e427 f2bc 40f0 c63d
000001b0: d43c 63bd bb53 093e 8ca9 cc3d 839d 9fbd
000001c0: b9d6 f0bb b536 003d 01b8 083d 86ce 973d
000001d0: 5ec2 683d 7467 233d efe6 47bd 4286 bf3d
000001e0: 645b 9cbd 791d aebd acda 46bd d4c1 4cbd
000001f0: 5060 3fbc 4e5b 76bd 7851 d83b f0e1 423d
00000200: 5c9f 58bd 8d46 723c ebb7 a13d b924 16bd
00000210: b777 f0bc 25a6 23bd 510f 1ebb 3045 323d
00000220: 9d24 af3d 1bc5 2a3d 0c0f a93d 7c9a 07bd
00000230: 0820 10be 93b8 b0bd 92bc 433d e731 eabc
00000240: 85d2 b3bd c569 f3bd cefb 0cbe 0861 03be
00000250: a68b d2bc b9ac 813d 6d81 6f3d 2cee f1bd
00000260: 3f38 a03d c4c9 b8bd 9bbc 99bc 6afa 4fbd
00000270: a930 b1bc ad39 efbc b20a f4bd fc45 f5bd
00000280: 08ca aebc 31d8 0f3b 82f5 3ebd ffa7 7f3d
00000290: 1303 c6bd 3e7b 2dbc 523f d23d e47e 5dbd
000002a0: a0fa d43d 5435 383d 0b35 e8bd a56e 923d
000002b0: 1fed d4bc e429 43bd 4dc9 cd3d df31 afbd
000002c0: 1638 04bc 7b00 d9bc 9d0c b53d a3ca d13c
000002d0: 9db4 2d3d 7f5c ac3c eb4a 8abc 62ed e2bc
000002e0: a431 bdbd e8fb 6f3d 0340 ac3d 5643 9c3d
000002f0: bcb8 acbd 59ce 46ba 7741 cabd 2691 77bd
00000300: 2c46 9ebd 6aed 053d 004e 84bd 579f c73c
00000310: a673 403c 60b4 7b3d 00e0 b5bd b27f a8bd
00000320: 272a 80bd a949 ba3d 041d 0abd 311f dc3d
00000330: 6a52 163d 7a01 da3c fcfc 0f3c 2bf1 4cbc
00000340: 8560 8c3c 8596 bfbc bde9 ce3a 40e2 883c
00000350: d169 b9bd 696b 87bd 6dc5 cd3d 785f c1bd
00000360: d3f8 b1bb 0f18 e03d 517b 423d 0d32 c0b9
00000370: 3fa2 d5bd b682 7f3d 164b c3bd a10e 16bd
00000380: ec6e 5fbd 60b7 bdbc cf2c b0bb 0946 b53d
00000390: 4e9b 723c 6b09 e53d 381e 813d dba9 a4bd
000003a0: d8f7 2c3d 702c b7bd 6e4e 83bd 3eaf ab3c
000003b0: 2d66 073d 023e ca3d 121b 65bc e5cb 3cba
000003c0: bbbe 963d 2e02 d4bd 5d3c cb3d 1424 a4bd
000003d0: 2388 993c 0676 edbb a4cd 86bd 5bc7 e83c
000003e0: ae68 f53d 6650 38bc 47fd 97bd 3ece 21bd
000003f0: ea95 cdbd 7ff2 7d3d e3ec 85bd 0586 b6bd
-0.031354584 0.029557528 0.011403044 0.09279057 -0.009112282 0.026039034 -0.04148577 -0.036552455
-0.10315212 -0.059407916 -0.03950298 0.0045810556 0.055881586 0.07900693 -0.08223562 -0.060138036
0.01614685 0.098641716 -0.03658155 0.0740613 -0.031859413 0.00236921 0.10008874 -0.11259713
-0.07339971 -0.034878865 -0.068151556 0.075160354 -0.07724296 -0.054856475 -0.083788104 -0.10997464
-0.079983115 0.10926496 0.041057263 0.056241065 0.0036025422 -0.047139183 0.032520514 -0.10546694
-0.080136836 -0.042568073 0.09295898 0.06801573 -0.0413269 0.00018494044 0.082735226 0.10213527
0.03630648 0.023801142 0.08667591 -0.055740077 0.02824026 -0.08879363 -0.08001696 -0.059521075
0.07376751 0.04757115 -0.07865868 0.026380476 0.060567927 -0.017165951 -0.0028261985 0.020977492
0.06753099 0.112304986 -0.09652649 -0.04701671 0.03992687 0.095764816 0.098174356 0.0982622
0.02065848 -0.10812338 0.04285056 -0.054777108 -0.06952037 0.1327621 0.10700333 -0.09164414
0.033102766 -0.034282565 0.01665486 -0.024876969 0.06188604 -0.07005769 0.07669411 0.0948788
0.11204954 0.043642532 -0.14099874 -0.10127136 0.028100833 -0.010355621 -0.12615018 -0.10021282
0.074340746 0.046571627 -0.044619378 -0.055619612 -0.11843385 -0.015492254 -0.057980318 -0.09252333
0.0001175735 0.024597311 -0.029560037 0.09713793 -0.055477932 0.13410847 0.09993276 -0.07793715
-0.0073498157 0.031302173 0.033378605 0.07412438 0.056825988 0.039893582 -0.04880422 0.093517795
-0.07634619 -0.08501715 -0.048548386 -0.049989536 -0.0116806775 -0.06014567 0.0066015087 0.047578752
-0.052886352 0.014787328 0.07896408 -0.036656115 -0.02935396 -0.03995337 -0.0024118016 0.043523014
0.08551905 0.04169188 0.08254823 -0.033106312 -0.14074719 -0.08628955 0.047787257 -0.028588248
-0.08780388 -0.11885408 -0.13767931 -0.12829983 -0.025701355 0.06331772 0.05847304 -0.11813006
0.07823228 -0.09022859 -0.018766692 -0.050775923 -0.021629648 -0.029202307 -0.119161025 -0.11976239
-0.02133657 0.0021948928 -0.046620853 0.062416073 -0.09668555 -0.010588465 0.10265984 -0.05407609
0.103993654 0.044972733 -0.11338242 0.0715001 -0.025991974 -0.047647372 0.10048161 -0.08554434
-0.008070013 -0.026489487 0.088402964 0.02560932 0.042408574 0.0210402 -0.016881427 -0.027701084
-0.09237984 0.058589846 0.08410647 0.07630031 -0.08433673 -0.0007583849 -0.09875768 -0.06044116
-0.07728228 0.03269712 -0.0646019 0.024367971 0.011746323 0.061451316 -0.08880615 -0.08227481
-0.0625804 0.09096081 -0.033719078 0.10748137 0.03669969 0.026612032 0.0087883435 -0.012508671
0.017135868 -0.023387203 0.0015786212 0.016709447 -0.09053386 -0.06612284 0.100474216 -0.09442037
-0.0054312735 0.10942089 0.047480885 -0.00036658384 -0.104313366 0.062380515 -0.09535806 -0.036635045
-0.054549143 -0.02315873 -0.0053764354 0.08851249 0.014807535 0.11183437 0.06304592 -0.0804021
0.04222855 -0.08944023 -0.06411444 0.020957585 0.033056427 0.09875108 -0.013983505 -0.00072020135
0.07360598 -0.10351978 0.09923623 -0.08014694 0.018741673 -0.0072467355 -0.065821916 0.028415373
0.11982857 -0.011249637 -0.07421356 -0.03950333 -0.100383595 0.06199884 -0.06539323 -0.08912281

attn_layers.layers.0.1.to_k.weight f4 [64, 74]
00000000: c983 a7bc a627 9fbd cac2 883d 524c 773d
00000010: 87b7 bdbd e540 ca3c 0a4d 5bbd d882 9dbd
00000020: c8db 57bc ea8a a1bc 3a7e 80bd e894 b13b
00000030: e865 663d f462 efbc 457e c1bb 121f 693b
00000040: da4b 08bd eb38 7c3d 693e d33d 57c2 37ba
00000050: eec7 413c 72e2 ba3d acbc cb3d 0abe acbd
00000060: a8cd 5fbd b4dc debd 5ed5 ab3d d904 b23d
00000070: 19a7 08bd 676c d93c 851c 503d f0f5 bbbd
00000080: f108 2c3d 9c57 b43d f963 103c bfc7 a23c
00000090: 6dee 593c 45e6 aa3d 1bf3 e63d bb6f 803c
000000a0: ad27 903d 9fa1 c7bc 4606 8b3d 7e88 24bd
000000b0: a87c bbbd 3fed 403d fed9 443d 3ea2 983c
000000c0: 8b2d 513d 5ed8 413c ea04 063d 7a72 303d
000000d0: de1c 88bd ea34 49bc d53f 4c3c fcb5 a6bc
000000e0: 31a5 b9bd 7ce9 853a be38 783d 5b88 a3bd
000000f0: 4f78 d53d b7b6 483d f0ce 053d d49d 26bd
00000100: aa2f 9dbd 52a6 37bd 3328 a1bb f79f f2bc
00000110: 899b b83d a516 49bd ef79 9dbd 5fb8 15bd
00000120: dd00 213e aa0d 88bd d117 e73d d038 a03d
00000130: 1849 b0bc e5d2 913d 463c 483d 094b 72bd
00000140: 273b d1bc 982b e63d 58dc 7d3d ccde 8fbd
00000150: baff 22bd 4d23 923d 38c9 6a3d dbc0 a53c
00000160: 0454 97bd 5b97 8dbd 7767 ccbc 21a2 463d
00000170: dc43 1a3b d57b d1bd cd95 bcbc da18 ff3d
00000180: d504 bcbd 40bc aebd 7f5c a93d c6a9 ef3d
00000190: 9022 e3bd a529 b4bd 8888 17bd bb7c 0a3e
000001a0: c438 97bd 091a 6a3c 9ad5 e13d 0804 80bd
000001b0: b263 cabc 5777 b0bd d726 ca3c 7ac7 e53d
000001c0: 1ecc 2a3d b032 b93d 77ab dfbc fe65 b0bc
000001d0: cabd aebc 4de7 723d b52d 0fbd 3f2c e4bd
000001e0: 6181 47bd ec6a 5f3d 8c74 e63d 646e 0dbd
000001f0: 8105 dbbd 1e07 bfbd c6a1 c2bd a4df 3b3d
00000200: 2028 b03d 75aa 003d 6308 d63c b67a a83d
00000210: 2f91 ad3d 3b0d b33d f2cc 763d 2ecc 353c
00000220: aeb1 843d 06f6 95bd 7b5f c2bd 9536 bd3c
00000230: c6ee 2c3d 1af0 ebbd 5f13 7bbd ae9b ffbd
00000240: e845 bc3d 6bb8 a53d 315c f8bd f2e5 193d
00000250: c38d eabc e8b5 c23d ea1d c1bd 6106 a0bd
00000260: 9e59 ccbd 6156 8e3d d985 86bd 0ec6 903d
00000270: 9262 2a3d 6d4c 2abd 1f40 a9bc 8e8d 3ebd
00000280: 018b 6c3d 178b 7abd 10a5 0a3d 7c6a a8bc
00000290: 9224 d0bd 9370 b4bd a6c5 c6bd 2210 893d
000002a0: 1ad2 ac3c c3b5 49bc 20d0 95bd 38b5 f8bd
000002b0: 3e7b 4ebd 67e7 b1bd 4910 f3bd 6505 05be
000002c0: 6a81 9dbd 501c 0dbe 91df 353d e831 263d
000002d0: c9a6 033d 9d6a c8bd 0881 7b3d 7dd3 fb3c
000002e0: 5970 0d3d 9b15 09bd b307 843d 5663 e9bd
000002f0: f32d 633d c19f cb3d 1853 6b3d 4e68 d1bd
00000300: 9655 57bc a823 113a 7a10 8b3d 7b89 56bd
00000310: 99c4 b73c 6409 9fbc f05d 06bc f6cb f33b
00000320: e348 83bd 7fcf a3bd 6ba3 c23d 6901 c73d
00000330: ab0e 223c a263 bf3d d096 a53d 8caf b1bd
00000340: a38c 41bd 0834 7ebd 7128 0a3d a903 0dbc
00000350: 339f 21bb 138d b03d 55b5 74bd fe50 37bd
00000360: 21f8 dbbd 9bac d9bc 7873 ce3d 196f 7bbd
00000370: 89f4 a03c 6c8a eb3c 2f4b 9dbd fcd6 95bd
00000380: 583d dc3d 94d3 48bd e7c2 81bd 9555 b7bb
00000390: 2405 94bc 912d 1f3d 5843 5c3d 0a79 a9bd
000003a0: f980 f93d 0f38 ddbd bf04 413d e36e 10bd
000003b0: 3819 2abd 33ce 9f3d 2012 0bbe 3286 babc
000003c0: 011e 4a3d e24d c03d ef1e f7bd 818e 29bc
000003d0: ee19 cd3d 36f3 02be 9251 1d3a 2379 c9bd
000003e0: f201 6e3b 0709 10be 2a28 5a3d d5f1 6cbd
000003f0: 0816 723d f4af 62bc 8641 4abd ece2 b1bc
-0.020448582 -0.07771234 0.06677778 0.06037552 -0.09263521 0.024689147 -0.053540267 -0.07690972
-0.0131749585 -0.01971956 -0.06274076 0.0054193623 0.05624953 -0.02922199 -0.005904945 0.0035571498
-0.033275463 0.06157772 0.10314638 -0.0007009855 0.011827452 0.09125222 0.09948096 -0.084346846
-0.05463949 -0.108819395 0.08390306 0.08692331 -0.03336248 0.026540948 0.05080845 -0.09177768
0.042000715 0.08805773 0.008812898 0.019870637 0.013301474 0.08344702 0.112768374 0.015678277
0.070388176 -0.02436906 0.06788306 -0.04016923 -0.09154636 0.047101256 0.048059456 0.01863205
0.051068824 0.011831371 0.03271953 0.043077923 -0.06646131 -0.012280682 0.012466391 -0.020350449
-0.09064711 0.0010216678 0.06060099 -0.07984992 0.10423338 0.049002375 0.032668054 -0.04067786
-0.07675107 -0.04483635 -0.004918122 -0.029617293 0.09014041 -0.04909386 -0.076892726 -0.036552783
0.15722986 -0.06643231 0.112838395 0.07823336 -0.021519229 0.07120303 0.048885606 -0.05915359
-0.025540901 0.112387836 0.061977714 -0.07024917 -0.03979466 0.07135639 0.057320803 0.020233562
-0.073890716 -0.069136344 -0.02495168 0.048494462 0.0023538982 -0.10228697 -0.02302065 0.12455912
-0.09180609 -0.085319996 0.08269595 0.117023036 -0.11090577 -0.087970056 -0.03699544 0.13524143
-0.07383874 0.014288434 0.110270694 -0.06250769 -0.024705742 -0.08616512 0.024676723 0.11219688
0.041698568 0.09042871 -0.02730344 -0.021533009 -0.021330733 0.059302617 -0.0349557 -0.11141252
-0.04870737 0.054545328 0.11252698 -0.034529105 -0.10694409 -0.09327529 -0.09503512 0.045867577
0.08601403 0.03141256 0.026127046 0.0822653 0.08474957 0.08742758 0.060254045 0.0110960435
0.06479202 -0.07322316 -0.09490868 0.023097316 0.0422199 -0.11520405 -0.06129777 -0.124808654
0.09193021 0.080918156 -0.12126959 0.03757281 -0.02863205 0.09507352 -0.09429534 -0.07813717
-0.099780306 0.06950069 -0.06568498 0.07069026 0.04159791 -0.04157679 -0.020660458 -0.046521716
0.057749752 -0.061167803 0.033848822 -0.020558588 -0.10163225 -0.08810534 -0.09705667 0.0669253
0.021096278 -0.012311402 -0.07315087 -0.1214394 -0.0504105 -0.086867146 -0.118683405 -0.12990339
-0.076906994 -0.13780332 0.044402663 0.040574938 0.03214148 -0.0978596 0.06140235 0.030740494
0.03453097 -0.03346787 0.06446781 -0.113959 0.055463742 0.0994258 0.05745229 -0.10224973
-0.013142964 0.0005536624 0.06790252 -0.052377205 0.022432612 -0.019413657 -0.008201107 0.0074400855
-0.064103864 -0.07998561 0.09503826 0.09717066 0.009891192 0.09345175 0.08085406 -0.08676061
-0.047253262 -0.06206134 0.033729974 -0.00860683 -0.002466154 0.08620658 -0.059743244 -0.044754975
-0.10740686 -0.026571563 0.10080618 -0.061385248 0.019647853 0.028752528 -0.07680356 -0.07316396
0.10753888 -0.0490299 -0.06336003 -0.005594919 -0.018068857 0.038861815 0.05377516 -0.082750395
0.12182803 -0.10801708 0.047123667 -0.035262 -0.041527957 0.07803001 -0.13581133 -0.022769067
0.04934502 0.09389855 -0.12066447 -0.010348917 0.10014711 -0.1278809 0.00060012296 -0.09837558
0.0036317077 -0.14065944 0.05326096 -0.057847816 0.059103042 -0.013835896 -0.049378894 -0.02171465

attn_layers.layers.0.1.to_v.weight f4 [64, 74]
00000000: f786 023d b0e8 3a3d 3976 97bd 88be 1abd
00000010: 2d0e c6bd 9925 c4bd b7e8 983d 36a5 d13d
00000020: 48a1 94bd cddd d4bd 305c b8bd e24c 643d
00000030: 2fc0 cc3d 877f 58bb 354b 35bd 49e9 c3bd
00000040: 9f60 d6bb b73b 7e3d 418b 6c3d 1dc0 58bd
00000050: 3109 63bd ea25 353c 8e1e 433d 8f34 b83d
00000060: a908 c83c 8657 973d 2e12 c73d 8da7 47bc
00000070: 9565 b1bc b9ab 973d b0b2 753c 737c fd3d
00000080: 3e95 9f3d 1cf8 f63c ead9 d4bd a11b 8d3d
00000090: c68c 2bbd 778c 8ebc 3ff9 673d 77ab 213d
000000a0: d38c c8bc 7e18 8b3a a464 8bbd 975d 49bd
000000b0: e799 d5bc 80f1 363c 5163 8ebc 5d91 593d
000000c0: 8a8b 45b9 55f2 8abd ac97 093d 22dd 05bd
000000d0: 51cb b13d edfa b5bb 6415 cb3d 0c8f ae3d
000000e0: c4fc fb3d dd89 383c c018 9e3d b411 29bc
000000f0: add9 ca3c cf03 7dbd 7346 cdbd 3e7c c3bd
00000100: a002 f1bd 6fb4 dcbc b4c5 d3bd f455 b03d
00000110: acbb cbbd bc60 af3d 067b a03c 10e6 b6bd
00000120: cf56 c13d c883 1a3d e895 31bc a6bb c73d
00000130: 0a73 cbbd f4ef a33d c415 67bc ae28 8a3b
00000140: 0a34 2d3d 08a1 40bd 8a7c 2fbc f63a a73d
00000150: f0e6 323d 838b 4e3d 719c b83d c5c0 a9bd
00000160: edaf 9abc ce24 dd3d ce45 03bd c57b 0d3d
00000170: 67c7 3f3d 2d71 c4bd 1be4 de3b 83b3 d53d
00000180: 9baa 8fbc f14e fabd bfcb ddbd 8ae7 fe3c
00000190: 27eb babc 5e04 8ebd c1e8 b33d 9ee0 a0bd
000001a0: 2f02 a3bd d428 9b3d 7acc ab3d 8565 153d
000001b0: 3147 fe3d bec5 ba3a 8fa3 b33d 79a5 97bd
000001c0: 65bc c2bd ccfc 253c 09af 94bd f427 36bc
000001d0: 0532 ecbc 15ac 9c3c 9ff9 00bd de35 46bc
000001e0: b287 d5bd f0e3 48bd 2767 813d 4f0e ca3d
000001f0: 6d3c c13d 325e 723c 84fc c2bc a445 cd3d
00000200: 0786 1a3c c93f 1639 4226 cb3a 95f1 93bd
00000210: e9f8 f9bc 0499 d8bd ec57 19bc 75c6 d4bd
00000220: 274b 883c 7c86 053b 4f66 2d3d 5cfb 9dbd
00000230: 37ab 593b d072 ebbc 779e 8cbd fc52 b83d
00000240: d28e e7bd c8be a83d d8fb e5bc c846 7dbd
00000250: 4bf9 dfbd 82a1 d2bd 38d8 4bbd d46c 963d
00000260: 773e 093c e783 b3bd be09 b63d cfaa b93d
00000270: 8535 383d ba07 b83d c58a 843d 6227 8f3c
00000280: 7f82 963d 3dfe a6bd ecb4 90bc 01e5 84bd
00000290: 6810 95bc 1edb c5bd bb48 ab3d a925 47bd
000002a0: 4c35 e03c 4816 ee3d 388b 223d 3acf 5abb
000002b0: f080 bb3d 1e76 0dbe 33ee de3d a48e e6bd
000002c0: c2d6 ce3d cdea c93b bb3d 9ebd bf06 44bd
000002d0: 0984 95bd 8962 833d 0e04 cd3d 30a4 7a3d
000002e0: 8993 a43d 8ba2 da3d 02e5 d0bd 2143 4b3d
000002f0: 1429 fb3b 2ea8 913d a087 e93c 7039 0f3c
00000300: 68fb 8f3d 214b 5bbd 3bf3 b0bd ed80 c8bd
00000310: 88ef 9a3d 2607 2c3c ae56 bebd 60e6 1a3d
00000320: 5823 99bb d8a1 8cbd 1630 e23d 7dd0 9c3d
00000330: e6ad ce3d c38a 48bc 4629 80bd 38e7 b2bd
00000340: 2316 eb3c 0c39 a0bd eb5d 913d ad82 c6bd
00000350: 2f1c 8ebd d924 b73c e7e2 013d 2b20 1fbc
00000360: 868d 47bc e7c1 5abd 0882 f6bc 5f8d b93c
00000370: ce60 cbbd ffc7 96bc 9a7a 66bc 6a5a 07bb
00000380: d7bd a73d e55e c8bd 76f6 4b3d 19b3 2d3d
00000390: b8c4 0d3d 163a 30bd ccd1 913d bb40 a5bd
000003a0: f1e8 2abd 8b84 503c faf1 86bb 2bd2 e7bd
000003b0: 3de2 673d 67ab 623d cfb4 f2bd aa65 84bb
000003c0: 8d62 d2bd 7350 07bd 4caa d13b 303e d73d
000003d0: 873d 9a3d 9e98 833d c6e2 353c 6ebd f4bd
000003e0: dc35 5abd 8d90 bc3d ad0e 4c3c b239 97bc
000003f0: 39da 37bd 5d1b 653d 8b9a 943d 04e6 f9bb
0.031866994 0.045632064 -0.07395596 -0.03777936 -0.096706726 -0.09577484 0.07466262 0.102365896
-0.072573245 -0.10393868 -0.09001958 0.055737384 0.099975936 -0.0033034997 -0.044261176 -0.0956598
-0.00654228 0.062068667 0.05774999 -0.05291759 -0.055428687 0.011056403 0.04763656 0.089944
0.024418192 0.07389741 0.097202644 -0.012185943 -0.021654883 0.074058 0.014996216 0.123772524
0.077921376 0.030147605 -0.10393126 0.068900354 -0.0418823 -0.017400963 0.056634184 0.039470162
-0.024481213 0.0010612158 -0.06806305 -0.04916152 -0.026074363 0.0111659765 -0.017381342 0.053117145
-0.00018839366 -0.067845024 0.03359191 -0.03268159 0.08681358 -0.0055535943 0.09916189 0.08523378
0.123040706 0.011263338 0.077195644 -0.010319162 0.024761999 -0.06177121 -0.10023203 -0.09545182
-0.11768079 -0.026941506 -0.10340443 0.08610144 -0.09947905 0.085633725 0.019589912 -0.089306
0.094403856 0.037723333 -0.010838963 0.09752588 -0.09934051 0.08004752 -0.01410431 0.004216275
0.042285956 -0.04702857 -0.010710845 0.08165543 0.04367727 0.050426017 0.09014214 -0.08288721
-0.018882716 0.107980356 -0.032048993 0.034541864 0.046821024 -0.09591899 0.0068020946 0.1043463
-0.017537406 -0.12222088 -0.10829877 0.031116266 -0.022817208 -0.06934427 0.08784629 -0.07855342
-0.07959401 0.07576147 0.0838861 0.03647377 0.124159224 0.0014249606 0.08771431 -0.07404608
-0.0950859 0.010131072 -0.07259948 -0.011117924 -0.028832445 0.019125024 -0.031488057 -0.012097804
-0.104262725 -0.049045503 0.06318503 0.098660104 0.094353534 0.014792966 -0.02380205 0.100230485
0.009431369 0.00014328877 0.0015499073 -0.072238125 -0.030514197 -0.105760604 -0.009359341 -0.10389415
0.016637398 0.0020374348 0.042333897 -0.077139586 0.0033213624 -0.02874127 -0.06866162 0.09000203
-0.11306538 0.08239514 -0.02807419 -0.06183508 -0.10936221 -0.102847114 -0.04976675 0.07344976
0.008376709 -0.08765393 0.08888577 0.09065782 0.044972915 0.08985849 0.06471781 0.017474834
0.07349109 -0.08153961 -0.017664395 -0.064889915 -0.0181963 -0.09660934 0.083634816 -0.0486199
0.027369164 0.116253436 0.03968355 -0.0033387677 0.09155452 -0.1381459 0.10885277 -0.11257675
0.100995556 0.0061620236 -0.07726618 -0.047857996 -0.07300574 0.064152785 0.10010539 0.061191738
0.080359526 0.10675534 -0.1019993 0.049624566 0.007664809 0.07112156 0.028507054 0.0087417215
0.07030374 -0.053538445 -0.086401425 -0.09790216 0.07565218 0.010499751 -0.092938766 0.03781736
-0.0046734028 -0.06866807 0.11044328 0.076569535 0.10091762 -0.012240115 -0.06257872 -0.08735508
0.028697079 -0.07823381 0.070979916 -0.09692893 -0.06938969 0.022356438 0.03171053 -0.009712259
-0.012179738 -0.053407576 -0.0300913 0.022650419 -0.099305734 -0.018405912 -0.014067316 -0.0020653256
0.08190506 -0.09783725 0.04979559 0.04240713 0.034611434 -0.043024145 0.07120094 -0.08068987
-0.041726056 0.012726913 -0.0041182013 -0.11319383 0.056612242 0.055339243 -0.11850893 -0.0040404396
-0.10272703 -0.033035707 0.006398475 0.10509908 0.07531267 0.06425594 0.01110143 -0.11950193
-0.05327402 0.092072584 0.012454671 -0.018460128 -0.044885848 0.0559343 0.07256039 -0.007626297

attn_layers.layers.0.1.to_out.weight f4 [74, 64]
00000000: 632d a73d ef4f 7a3d d21d 4e3d eb57 b6bd
00000010: 722d fd3d 6b2a e5bc decb 883d 2ebb e03d
00000020: 2fd5 093d ea22 c9bd dc7c e2bb 7def 9abd
00000030: 0c18 dcbd 1361 c33d bd25 3ebd 0199 c03d
00000040: 8c64 a4bd f744 693d e617 fabb 2c79 09bc
00000050: b4bd 983d 52d1 ecbd 94ea e53d abd0 01bd
00000060: 7c8f 7b3d 8c07 9fbd 17ed 7ebd a8fe 86ba
00000070: 7b11 02bd df4d 43bd cdb7 883d b8c4 0abc
00000080: 99ed 6abd ec15 66bc 6338 e43d e0a3 d9bd
00000090: 57da adbc 66eb 0ebd 51bb 663d 198e cd3d
000000a0: 13f2 aabd 3ca3 e6bc f0ec e3bd 6a5e e6bd
000000b0: 30fd 3c3d 14b5 1fbc d07a c73d 3655 6bbc
000000c0: 3661 7ebd f554 1fbd fd80 343c 4583 a73d
000000d0: e08b 793c 24b6 e73c db16 4abd 6274 4d3d
000000e0: 5907 a9bd fead 833d 8e7a d7bb a302 cc3d
000000f0: 03c6 83bd a6a3 043e 6133 9c3d b8e1 cdbd
00000100: d667 32bd d314 dd3d 3fb5 343d 8e7b da3d
00000110: 6bcc a7bc ca2f 54bd de92 a93d 53a9 3fbd
00000120: 374c 013e e1a8 8e3d ce80 043e 1457 bd3d
00000130: 622e 36bd e645 d53d 8b8d bfbd 83e3 013e
00000140: 2796 a239 dc0b 64bd 7f1a 2c3d 51cd 903d
00000150: ae5d a13a ff3e b33d aa4b c8bb 848c 0abe
00000160: fa90 a43d db79 bb36 8895 913d 4efe 5bbd
00000170: 50af a73d acce 363d d151 8ebd 6b31 dfbd
00000180: 3c20 2bbc 780b d33c 7ef1 a6bd 0122 34bd
00000190: 8aec e1bc 57b0 f4bd 094b 5cbd dc11 7bbd
000001a0: e216 6f3a 6d81 003e 2be8 a13d a9c4 513d
000001b0: bb7d e13d 1368 033c a4d9 173d 0dc3 8ebd
000001c0: f7fb 843d 3941 8a3d 1623 e53c 34b4 9bbd
000001d0: 9241 223d d256 ae3c 41dc 9f3d 7947 89bb
000001e0: e485 e63d dabc fbbc 21e7 833d cdc2 b93c
000001f0: 0564 c9bd dc4e 6b3d 7a95 e4bd 3a1a debd
00000200: f71e cd3d a6d9 99bd b8bf 9fbd 39cf 01bd
00000210: f986 c83d 7e32 fd3d 473e 48bd 6029 90bd
00000220: a91e 96bd b034 59bd d53e f3bd 9c90 59bd
00000230: 6cc6 da3c f9ff 0cbd 24ef f9bd de70 5ebc
00000240: 2776 f23d d4e0 ef3c 8fd5 183d c7e2 cabd
00000250: 8cea cabd 3e1c a6bd 3a67 32bd 98e3 d2bc
00000260: 94f8 77bd 7395 383d e34b 9b3d 2420 ebbc
00000270: 6baa debd 00cd 56bd 209b e13d 583f c2bd
00000280: 87d0 59bd a1e6 553d c435 f3bc adc5 e23d
00000290: 7b6f 20bd a963 ad3d 0b84 8c3d d858 f8bd
000002a0: 113d 073e cb77 9dbd 44ab a73d 326c 96bd
000002b0: 6db4 38bd 3594 4b3d 90a8 7dbc be35 afbd
000002c0: 81c8 a73d daff 1b3d bdba 21bb 98fc d43d
000002d0: 7063 493d ff47 eb3d bd3d 81ba 6b90 d1bd
000002e0: 622f 973d 4bce ddbd ffad 3a3d 30b7 c139
000002f0: e00d e9bb 1557 76bd 8e4f 9fbd 0f7d dabd
00000300: 8874 063d 57dd 92bc 4839 9abd de5c e43d
00000310: 2dad b23d 2c02 ce3c 190d 023d 939e adbc
00000320: 4bc3 c33d dcfe 00be 6d79 abbd ee03 ab3d
00000330: 3322 b13d 8e18 9e3b b031 24bd 2e11 583d
00000340: 4347 ad3d 9658 21bd 40b5 703d a565 883d
00000350: 2755 e23c e217 a0bd abcb e43c aa59 87bc
00000360: a8d3 213d 6185 c1bd 1f8f 4d3d 0404 de3d
00000370: f08a 73bd 5618 ca3d 88fb 4d3d 3246 b8bb
00000380: cc19 96bd 54a8 863d 7937 bebd 9320 903d
00000390: e1d7 ccbd 37ce 8cbd fd94 1f3c 3a66 743d
000003a0: 70e2 eabd c626 123d df8f ccba 0693 abbd
000003b0: f29e 0abd 9dcf c53d 6e0e afbd ad99 6abd
000003c0: 331e a13c aa67 cdbd ed85 5d3c 770e 0c3d
000003d0: c65f 343d efa0 3b3d 2fab dd3d fa8c 213c
000003e0: 9774 e83d fb5e 86bd 6f92 8a3c 1095 aabd
000003f0: 91db fcbd 4913 bf3c 9554 43bc e172 86bd
0.08162954 0.061111387 0.050321408 -0.08903488 0.12362184 -0.027974328 0.066795096 0.10973202
0.033650573 -0.098211125 -0.006911857 -0.0756521 -0.10746774 0.0954 -0.04642271 0.09404183
-0.0802699 0.056950536 -0.0076322434 -0.008390706 0.07458058 -0.11563362 0.11226383 -0.031693142
0.061416134 -0.07765111 -0.062237825 -0.0010299282 -0.031754952 -0.047681686 0.06675682 -0.008469753
-0.057355497 -0.0140433125 0.111435674 -0.1062696 -0.021222277 -0.034892462 0.056330983 0.100368686
-0.08346953 -0.028154008 -0.111291766 -0.11248477 0.046139896 -0.009747762 0.097402215 -0.014363578
-0.062104426 -0.03889938 0.011017081 0.081793346 0.015231103 0.028285094 -0.049338203 0.05015982
-0.082533546 0.06429671 -0.006575889 0.099614404 -0.06434252 0.12953052 0.07626987 -0.10052818
-0.043556057 0.107949875 0.044118162 0.106680974 -0.020483216 -0.051803388 0.08279966 -0.04679234
0.1262673 0.06965805 0.1293976 0.092451245 -0.044477828 0.10413723 -0.09353169 0.12684445
0.0003101092 -0.055675372 0.042017456 0.07070411 0.0012311244 0.0875225 -0.0061125355 -0.13530165
0.080354646 5.58722e-06 0.07108599 -0.05370932 0.08187735 0.04463069 -0.06949199 -0.108980976
-0.010444697 0.025762305 -0.0815153 -0.04397774 -0.02757861 -0.11947697 -0.053782497 -0.06129633
0.0009120536 0.12549372 0.07905611 0.05121294 0.11010309 0.008020419 0.037072793 -0.06970797
0.06493371 0.067507215 0.027970832 -0.076027304 0.039613314 0.021281634 0.07805682 -0.0041894284
0.11256006 -0.0307297 0.06440569 0.022675896 -0.0983353 0.057448253 -0.11161323 -0.10844846
0.10015672 -0.07512216 -0.07800239 -0.031691764 0.09791369 0.12363146 -0.048887517 -0.07039142
-0.07330067 -0.053028762 -0.11877219 -0.053116426 0.026705943 -0.034423802 -0.122038156 -0.013576714
0.11838942 0.029282011 0.03731304 -0.099065356 -0.099080175 -0.081108555 -0.043555476 -0.02574329
-0.060539797 0.0450644 0.075828336 -0.02870185 -0.108723484 -0.052441597 0.11015916 -0.09484738
-0.053177383 0.052221898 -0.029688723 0.1107286 -0.039168816 0.08466274 0.06861123 -0.121263206
0.13206889 -0.07688864 0.08186963 -0.07344855 -0.045093942 0.049701888 -0.015482083 -0.085551724
0.0819254 0.038085796 -0.0024677955 0.10399741 0.049167097 0.114883415 -0.0009860318 -0.10232624
0.073820844 -0.10830363 0.04557609 0.00036948314 -0.0071122497 -0.06014164 -0.07778846 -0.10668384
0.032825977 -0.017927809 -0.07530457 0.111505255 0.08724437 0.02514752 0.031750772 -0.021193778
0.095587336 -0.12597221 -0.083727695 0.08350359 0.08649101 0.0048247045 -0.04008645 0.05275076
0.08460858 -0.039391123 0.058766603 0.06660012 0.027628494 -0.07817055 0.027929148 -0.016522247
0.03950849 -0.09449268 0.05018532 0.1084061 -0.059458673 0.09867923 0.050288707 -0.0056236023
-0.07329139 0.06575075 -0.09287924 0.07037463 -0.10002113 -0.0687527 0.009740111 0.059667803
-0.11468971 0.03568151 -0.0015606842 -0.08377652 -0.03384299 0.0965874 -0.08547674 -0.057275463
0.01966772 -0.10029538 0.0135207 0.034193482 0.04403665 0.045807775 0.10823666 0.009860272
0.11350363 -0.06561085 0.016915528 -0.08329213 -0.123465665 0.023324626 -0.011922021 -0.0656488

attn_layers.layers.1.0.0.weight f4 [74]
00000000: 958d 7d3f 74bc 7e3f 7eca 803f c32d 7e3f
00000010: 86a4 7f3f 7ec9 7d3f 51cb 7b3f 7b5b 7b3f
00000020: 7776 803f b548 813f 3b52 813f 982a 7c3f
00000030: 3d41 7d3f e3f7 7f3f 63ad 7e3f 1c40 813f
00000040: c9e5 803f 4bb9 7e3f f1b9 7e3f b39d 803f
00000050: 3915 7e3f 78da 7f3f 7ca1 7f3f 652e 813f
00000060: 76ac 7f3f 521b 803f 0fe2 803f 0b61 803f
00000070: 271d 803f a579 813f 1d1b 7f3f c7ab 823f
00000080: d23e 7f3f 2222 803f 3c3b 803f f4b5 803f
00000090: 9d20 7f3f 6287 7e3f d502 7f3f 5957 7d3f
000000a0: e49d 7f3f 01d3 803f e3d7 7c3f 235a 7c3f
000000b0: 2c1a 803f 66b5 7a3f 1586 7d3f 3ae5 813f
000000c0: 8ce3 803f 645a 7e3f 0630 7e3f ad36 7e3f
000000d0: 6337 813f c62c 7f3f c15e 7a3f 2d17 803f
000000e0: 8dbf 813f 9b7d 803f d0dd 803f a597 7e3f
000000f0: d18b 7f3f d4ef 803f a56a 803f 82a7 803f
00000100: 74cb 7f3f 4f1d 803f d7fd 7e3f 4934 803f
00000110: 300d 803f 0fef 803f adb3 7e3f 28c0 7f3f
00000120: ce04 813f 3f65 803f
0.9904416 0.99506307 1.0061796 0.99288577 0.9986042 0.9913558 0.9835711 0.98186463
1.0036153 1.0100313 1.010322 0.9850249 0.9892767 0.9998762 0.9948332 1.009769
1.0070125 0.99501485 0.99502474 1.0048126 0.99251133 0.9994273 0.9985578 1.0092283
0.9987253 1.0008337 1.0068988 1.0029615 1.0008897 1.0115248 0.99650747 1.0208672
0.9970523 1.0010417 1.0018077 1.0055528 0.9965914 0.9942533 0.99613696 0.98961407
0.99850297 1.0064393 0.98766917 0.9857504 1.0007987 0.9793304 0.9903272 1.0148079
1.0069442 0.99356675 0.9929203 0.9930218 1.0095028 0.99677694 0.97800833 1.0007073
1.0136582 1.0038332 1.0067692 0.9945014 0.9982272 1.007319 1.0032545 1.0051119
0.9991982 1.0008944 0.9960608 1.0015956 1.0004025 1.0072955 0.99492913 0.9990258
1.0079591 1.0030898

attn_layers.layers.1.0.0.bias f4 [74]
00000000: c187 f63a adba 96bb 6a55 9bb9 5f05 283a
00000010: c959 b73b 321c e5ba 65f7 193c 4851 6b3b
00000020: 9cd8 1b3b faab 9e3a 6bc5 81ba 3610 c43b
00000030: df1d 493c 991f ef38 86b0 323b 93ba 803b
00000040: 5b91 e4ba 5ace 92bb c5e2 b9b8 eb4c 07bb
00000050: a0aa 03bc e9da cfbb f884 83bb 6a44 81bb
00000060: c337 01bb 92ac 39bb a740 3e3b 9dc8 bf3b
00000070: befd 133c d34c b5bb a4c4 17ba 576c d437
00000080: a6b4 c03b 0825 903a febe 6cbb d7fe ea3b
00000090: b91e acba 6a88 3c3b 6be2 d03b 0b9e b9bb
000000a0: 9084 d13a 8ed4 74bb 3340 863b 7e3f 01bb
000000b0: fd60 1a3a c015 0a3c 9a9a d43b d234 a1bb
000000c0: e81f 5ebb 7be5 983b bf91 d3b9 b2e2 133c
000000d0: 19f4 4bbb 316f 753c 1b8d 8f3c 1e78 893a
000000e0: a200 9aba bfb9 82bb 94c2 67bb e7ac e2bb
000000f0: a04a 51bc 4642 eabb 24ef d2bb 9ca3 fbbb
00000100: faa7 d4bb 0f4a 81bb 9212 0abc 9fed eabb
00000110: 08e8 53bc 2567 a039 8c1d 17bc ec30 23bc
00000120: 80d8 80ba 2135 20bc
0.0018808768 -0.00459989 -0.00029627542 0.0006409492 0.00559542 -0.0017479716 0.009397362 0.0035906602
0.0023780232 0.0012105696 -0.0009900754 0.005983378 0.012275188 0.000114022936 0.002726586 0.0039284914
-0.0017438339 -0.0044801654 -8.8637265e-05 -0.0020645212 -0.008036286 -0.006343235 -0.004013654 -0.003944923
-0.0019717074 -0.002833162 0.0029030235 0.0058527724 0.009032665 -0.00553284 -0.00057894946 2.5322819e-05
0.00588091 0.0010997364 -0.0036124582 0.0071714926 -0.0013131715 0.0028767833 0.0063746474 -0.005664592
0.0015984941 -0.0037358138 0.0040970086 -0.0019721682 0.0005889086 0.008428037 0.0064881565 -0.0049196268
-0.003389353 0.004666028 -0.00040353645 0.009026216 -0.0031120835 0.014980123 0.017523339 0.0010488068
-0.0011749456 -0.003989428 -0.003536378 -0.006917584 -0.01277414 -0.0071490137 -0.006437199 -0.007679416
-0.006489751 -0.003945596 -0.008427279 -0.00716944 -0.0129337385 0.00030594427 -0.009223353 -0.009960394
-0.0009830147 -0.009778292

attn_layers.layers.1.1.ff.0.0.weight f4 [296, 74]
00000000: d03f 533c 3d39 8abd cd15 893d 3f37 08bd
00000010: 2e69 00bc 0130 c13d db28 8bbd 9c09 e33d
00000020: 2774 893d 0e37 8dbd 649e a4bd 6952 c6bd
00000030: fdb7 ab3d 581f 753c 7019 42bb 71cf e83d
00000040: df7c 9cbc eae3 393d 4de0 e53c b9c1 4dbc
00000050: e59b 55bd e202 9abd f286 e5bd 489e cf3d
00000060: 77be da3d 2725 dd3d e55d 793d 4e24 99bc
00000070: 947c 5fbd 5a21 e3bd de2c 10bd 83f2 9fbd
00000080: d32d d3bc 8080 9bbd 3e43 a5bd 399b fc3b
00000090: 7f85 92bd 9f5c 413c 885d fe3a 5776 b83d
000000a0: c213 7f3d f197 4c3d 231f acbd 15e9 9a3c
000000b0: 64a2 8cbd 7ee1 883d 9709 d43d acb7 d5bd
000000c0: f5d8 b93d 50c7 a2bd 7e40 54bd ef94 87bd
000000d0: 22b6 da3c 6444 e2bd 1ebb 8bbd 234f 943c
000000e0: 460c 7bbd 5ade a83d deb5 84bc a0c4 1b3d
000000f0: 3b7f 423d b411 abbd ebdc d33d fdeb 8c3d
00000100: cfd9 2c3d ece3 e4bd f95d c63d 96bb b4bd
00000110: 4590 c63d b9b5 da3d 63df ba3a 1146 3b3d
00000120: e9dc c6bd 2650 9a3d 51e2 3f3c c5cd ac3c
00000130: f202 a3bc 6884 993d dab9 bfbd 0e6c fd3b
00000140: 6918 3a3d cd02 7d3d 1996 7bbd dced 8a3c
00000150: 7ba6 263d fbbf 78bd 6bed 60bd 50d9 963c
00000160: 49fa 4cbd 4f01 f93d bb90 b43c 3e26 12bd
00000170: 3892 0c3d 4af6 43bd d7eb afbb aaf0 e63c
00000180: 5299 2c3d e4a9 be3c c10c 553b 9ad5 62bd
00000190: 964d e1bd 9a1f 9b3d 8a62 b4bc 97a1 e9bd
000001a0: 2aac ab3d 9e3f df3d 933b 9abc 7f1b f13a
000001b0: 9ec4 b2bd e3ff 963d a074 d4bd 255d a33d
000001c0: c4da 193d fcc5 c93d 9207 87bd 2dce 3b3b
000001d0: 3e92 033b e6e6 363d 68ee 0f3d a488 063d
000001e0: 1205 f23d d060 ac3c 314a a3bd ca46 72bd
000001f0: e221 7b3d 43a6 df3d a445 e8bd 540f d3bd
00000200: 34f8 c4bd 9bc4 ba3d ad7e 82bd a5b7 7a3d
00000210: b303 4cbd b548 8a3d 3351 b7ba 50a0 24bd
00000220: eb43 be3d 2127 de3d 2829 30bd 0da0 bc3d
00000230: 101d c8bd 4393 b9bd e4b2 d73b 8773 db3d
00000240: 16c7 493c eecf b83d d894 983d 46da 9d3d
00000250: 9e4b 2c3d a52f d5bd 20c0 a7bd fb7e c3bd
00000260: 7683 bd3c f1c7 873c b6f6 d53c 13a8 debd
00000270: 6b04 063d 629b 90bd 050b fabd 4c97 c93c
00000280: 4104 aa3b 9b8a a0bd bf99 273c e101 443d
00000290: 5e4e f9bd e405 23bc a61c b53d 0d24 b53d
000002a0: b5a3 48bd ed59 3bbd 651b 8dbd afda d0bd
000002b0: 7c67 5fbd f02e 9f3d f31d d53d feeb 14bd
000002c0: 57ef 253c 60cd 9fbd 64cb 44bc 8059 8b3d
000002d0: 6c77 ab3d d114 15bc b25a 9ebd 04eb 3e3c
000002e0: f594 3dbd 60c2 e33c 080a e03d 0d03 b43b
000002f0: dc26 71bc 0749 36bc 0d96 d8bb 3beb 0c3d
00000300: e8ff 8fbb c439 cbbd 32df e53d 3187 8dbd
00000310: 5505 e13d 7fc9 14bc f0a8 29bc c56c 7c3d
00000320: 9345 6fbd d2c2 273c f50b 11bd 56ae b5bd
00000330: 0561 913d d8e3 963d b884 443d c4e7 e13d
00000340: c041 553d c69a ca3d 6913 c4bc 2e4f ac3d
00000350: ee8e c33c 5d0c 4cbc b3cb a53d d51b c6bd
00000360: 607c 29bc f53d 6cbd 473c d73d 0285 94bc
00000370: c967 dd3c 6423 973d fdf3 653d 1615 48bd
00000380: 0e83 26bc 4788 713d 2fc0 81bd 452a a13b
00000390: e6fd b6bd f7f0 c43c b69a c53d a8c4 8b3c
000003a0: 9a3c 853c 7d71 c83d 7423 8c3c 835f 22bd
000003b0: 2c7d be3d 3f36 b4bd 5d45 423d 3702 953d
000003c0: 543f b0bc e1fa f7bd 7c18 293d c8db c23d
000003d0: 034a 78bc 3df2 6a3d e467 e83c 17df cf3c
000003e0: 6cb9 f13d 3ecc 97bd 1006 423c acd1 c0bd
000003f0: 3b25 c93d 1871 dd3c 16d4 c13d d35a ddbd
0.012893632 -0.067491986 0.06693611 -0.03325581 -0.007837577 0.09432984 -0.06794902 0.11085817
0.067116074 -0.068952665 -0.08038023 -0.09683687 0.08384702 0.014961086 -0.0029617213 0.11367691
-0.019102512 0.04538337 0.028061057 -0.012558394 -0.052150626 -0.07520081 -0.112073794 0.10137612
0.106808595 0.10798102 0.06088056 -0.01869407 -0.054562166 -0.11090346 -0.03519904 -0.07809927
-0.025778687 -0.07592869 -0.08069466 0.0077089337 -0.071543686 0.011801868 0.0019406537 0.090069465
0.062274702 0.04994959 -0.08404376 0.01890997 -0.06866911 0.06683634 0.103533916 -0.10435423
0.090745844 -0.07948172 -0.051819317 -0.06620204 0.026698176 -0.11048201 -0.06822799 0.018104142
-0.061291 0.08245535 -0.016200002 0.038029313 0.047484618 -0.08352986 0.10344871 0.06880949
0.042199906 -0.11176285 0.096858926 -0.08824842 0.09695486 0.10679192 0.0014257248 0.045721117
-0.09710104 0.07534818 0.011711673 0.021094212 -0.019898865 0.074959576 -0.0936162 0.0077338284
0.045433436 0.06177025 -0.06142244 0.016959123 0.040686112 -0.06072996 -0.05491392 0.01841417
-0.050043378 0.12158453 0.02204167 -0.035681 0.034319133 -0.0478423 -0.0053686905 0.02819093
0.042138405 0.02327437 0.0032508823 -0.055379488 -0.110011265 0.07574387 -0.022019643 -0.11407774
0.08382447 0.10900806 -0.018827235 0.0018395035 -0.08728908 0.07373025 -0.10373807 0.0797675
0.037562147 0.09852216 -0.06593241 0.0028656826 0.002007618 0.044653796 0.03513947 0.032845154
0.11817373 0.021042258 -0.07973135 -0.05914954 0.06131161 0.10920384 -0.11341408 -0.10305658
-0.096176535 0.09119531 -0.06371818 0.061210293 -0.049808215 0.06752149 -0.0013985991 -0.04019195
0.09290298 0.10847307 -0.043008 0.09210215 -0.09771168 -0.09061291 0.0065826047 0.107153945
0.012315532 0.090240344 0.07450265 0.07707648 0.0420643 -0.10409478 -0.08190942 -0.09545704
0.023133975 0.016574832 0.026118618 -0.10871901 0.032719057 -0.07060887 -0.12209133 0.024608277
0.0051884954 -0.07838937 0.010229527 0.047853354 -0.121731505 -0.009950135 0.08843355 0.08844767
-0.04898425 -0.045740057 -0.06889991 -0.101979606 -0.05454205 0.077726245 0.10406103 -0.036357872
0.010127864 -0.07802844 -0.012011383 0.0680418 0.08372387 -0.009099201 -0.077321425 0.011652712
-0.046284635 0.027802646 0.10939413 0.0054935277 -0.014718737 -0.0111258095 -0.0066096843 0.03440402
-0.00439452 -0.09923127 0.11224212 -0.06910551 0.10987345 -0.009081244 -0.010355219 0.06162717
-0.05841596 0.01023932 -0.035411794 -0.088711426 0.07098583 0.073676765 0.047978133 0.11030534
0.052064657 0.09892802 -0.023935037 0.0841354 0.023871865 -0.0124541195 0.08095493 -0.09673277
-0.010344595 -0.057676274 0.10509544 -0.01812983 0.027027028 0.07379797 0.05614089 -0.048848234
-0.010163082 0.058967855 -0.06335484 0.004918369 -0.08935146 0.024040682 0.096486494 0.017061546
0.016264249 0.09787271 0.01710675 -0.03964187 0.093012184 -0.08799409 0.04742943 0.07275813
-0.021514572 -0.12108398 0.041283116 0.09514576 -0.0151543645 0.057359923 0.028369851 0.025374932
0.118029445 -0.07412003 0.011842266 -0.09414992 0.09821554 0.027031466 0.0946428 -0.10808339

attn_layers.layers.1.1.ff.0.0.bias f4 [296]
00000000: f33d 923d 38c9 a13c 5a0d a33d 296d acbd
00000010: 5a8c be3d e2f8 edbd d4ca cd3c f52c b3bd
00000020: cfe0 86bd 3dfe a1bd 5337 dbbc b8de aa3c
00000030: 8201 ecbb e0fd e6bd e7d5 73bd 3d3b b2bd
00000040: 48bf dcbd 1df1 d53d 5493 b63d a0dd 1abc
00000050: 830a 42bd fa35 0d3d 9409 f23d f414 113c
00000060: d717 633d e129 903d 3ede 743d 2e0c edbd
00000070: d1fa ecbd c1e1 cf3d 514a 9b3b e360 353b
00000080: 5f42 bb3c e631 b83d 9ab7 c23c 09e0 c5bd
00000090: fc4b 4abd dc6e cc3d 723b 70bd a96a 033d
000000a0: 7257 e6bd 0196 1b3d 9aac fc3c 112f a93c
000000b0: a918 433c dee0 b1bd 0319 b93d 2b87 87bd
000000c0: 649c cb3d ad74 94bc 961f 99bd 7ee7 883d
000000d0: 3a30 033d a93b e83d f6c1 3e3d 223d e0bd
000000e0: c4b6 e73c f648 5d3d a309 78bd 417a 9b3c
000000f0: 44da bbbd 1468 91bd 8801 9bbd 41c6 cb3c
00000100: a1e1 abbd 3d73 d1bd 7afe b63d fa23 95bd
00000110: 3651 36bb 2df2 6a3d 1ebc af3c 1fbc c9bd
00000120: 69dc b0bd b84b 993b b1e5 33bd 96f8 83bd
00000130: f3b4 373d d8d5 e93b 94d2 ecbd a2e5 96bd
00000140: 0938 f2bc 3752 203d 5bfa f8bd 204d 54bc
00000150: 0fb5 bebb 27db 85bd 3760 443d 0673 94bc
00000160: f169 96bd 4375 cbbd b2e8 c2bd 4c99 a33b
00000170: 11fc 0dbd e4fb bc3c a241 c03d e7a4 b83d
00000180: 6137 afbc 1957 ce3b c64d 7bbd 291f 453d
00000190: 08cc b73d b361 0abd cc54 8ebd 8952 e8bd
000001a0: e932 093c cc28 103d 1a6d 84bd 71f6 41bc
000001b0: 893a 82bd d8b5 68bd 8f55 c5bd d3d9 cdbd
000001c0: c5e9 44bd b9c5 a53d 11b4 90bd 2772 703d
000001d0: 8628 04bc 818d a0bd 83b3 41bd ef0b 1abc
000001e0: 0d7a cf3d a2c5 a8bd 4753 cbbc 7c21 963c
000001f0: 100e ce3d c2a5 143b 9472 bb3d 6d49 7f3d
00000200: 350a 5b3d a913 49bc f427 c73d 9fd8 173d
00000210: a986 8f3d 057c 2ebd ce0d 8d3c 80cb e43b
00000220: 67fa 0c3d 2a99 d33c 4a97 fdbc 104a 03bd
00000230: 1ff7 7c3d 2469 d03d 9946 883b 936f bfbd
00000240: 07d0 21bb a220 a4bd 75a9 873d 7d9f b83c
00000250: 22d7 e1bc db52 c73c 3c46 473d 5c1c d93d
00000260: 9cd4 023d 465c 9b3d ab2b a93d 7630 9b3d
00000270: db85 a53d 2c5e 8f3d 5dd3 8e3d 9cdc 03bd
00000280: 0417 22bb c62d 2d3d 716c 823d e004 d8bd
00000290: 0299 463d 8762 7e3d dc53 193d eceb ac3d
000002a0: eaa0 d3bd 0ae6 8ebd bd92 b33d 1314 75bd
000002b0: fd1a d7bd 46ba c43b b307 3b3c 586e 8cbd
000002c0: ed92 833c def4 e0bd 8dba a53b ac30 1ebc
000002d0: 6b06 063c 6944 233d 4af5 d63d 7820 25bd
000002e0: ae79 71bd 93d3 df3d d18d af3c 7967 d5bd
000002f0: ae5f 013d 9902 c9bd 5a9f c33d 5894 88bd
00000300: 0f0b afbd 6d35 6f3d e045 693b 2408 5c3c
00000310: f1a1 1bbc ffca aebd a893 d5bd da4f c23c
00000320: 5fa2 d6bd 5038 0bbc 5c56 11bd 999e 14bd
00000330: 965e 2f3d ec0b b4bc 0397 1fbd e80e 52bd
00000340: 21bc b83b 9520 643d 3941 41bd 71fa ec3d
00000350: aded edbc 5d2e b3bd 4aed b83d 3cee c63d
00000360: 242c f53c 9dd0 e0bd ce14 0b3c 3700 b23d
00000370: 9703 413d 17eb abbd 9ab0 59bd e2a5 39bd
00000380: cf0d 8abd 3d9c 123d 2220 e0bd 8e81 d6bc
00000390: db8f e0bd a002 33bd 1484 c53d 24a7 d53d
000003a0: 9495 473c 6e0e b7bd f59b af3d 28be 963d
000003b0: c8db 0b3d c001 1bbd 2e33 58bd d22e 483c
000003c0: 46dc 28bd f2d9 b2bd 934f dabc 7307 f8bc
000003d0: 1c1f b93c 6ef4 bebd 4779 1dba 12e2 d3bd
000003e0: da9b 2dbd eed5 b13d 88a1 b03b 9111 2c3d
000003f0: 4e32 e03b 5650 65bd e4b1 b6bd 9ef4 cdbd
0.07140722 0.019749269 0.07961531 -0.08419258 0.09304114 -0.11619736 0.02512113 -0.08748809
-0.065858476 -0.0790982 -0.02675978 0.020858154 -0.007202328 -0.112788916 -0.059530165 -0.08702705
-0.107786715 0.10446379 0.08914819 -0.009452254 -0.047373306 0.034475304 0.11818233 0.008855093
0.055442657 0.07039238 0.05978226 -0.11574589 -0.11571277 0.10150481 0.004739084 0.0027676157
0.022858797 0.08993892 0.023769189 -0.09661872 -0.04938887 0.09982082 -0.05865044 0.03208414
-0.112471476 0.03798485 0.030844022 0.020652326 0.011907735 -0.08685468 0.09037974 -0.06617578
0.099419385 -0.018122042 -0.07476728 0.06684779 0.032028414 0.11339504 0.046571694 -0.1094916
0.028285392 0.05402466 -0.060556065 0.018979194 -0.0917249 -0.070999295 -0.075686514 0.024874808
-0.08392645 -0.10227058 0.08935256 -0.072822526 -0.0027819402 0.057359863 0.021452006 -0.098503344
-0.0863579 0.004678216 -0.043920223 -0.064438984 0.0448503 0.007136088 -0.11563602 -0.07368018
-0.029567735 0.039140906 -0.121571265 -0.012957841 -0.0058199237 -0.065359406 0.04794332 -0.018121254
-0.073444255 -0.09934475 -0.09517039 0.0049926396 -0.034664217 0.02306933 0.093875185 0.090158276
-0.021388711 0.006297004 -0.061353467 0.04812542 0.08974463 -0.03378458 -0.069497675 -0.11343867
0.008373954 0.035195157 -0.06466122 -0.011838541 -0.06358821 -0.056814045 -0.0963546 -0.10051312
-0.048074502 0.08094353 -0.07065595 0.058702614 -0.008066302 -0.0783949 -0.047290336 -0.009402259
0.10130701 -0.082408205 -0.024819983 0.018326513 0.10061276 0.0022681807 0.091527134 0.062325884
0.05347653 -0.012272754 0.09724417 0.03707182 0.07008106 -0.042598743 0.017218497 0.006982267
0.03441849 0.02582987 -0.03095593 -0.032053053 0.06175911 0.10176304 0.0041588065 -0.09347453
-0.0024690644 -0.08014037 0.06624118 0.022536987 -0.027568404 0.0243315 0.048650965 0.10601112
0.03194104 0.07585959 0.08260282 0.075776026 0.080821715 0.07000384 0.06973908 -0.03219281
-0.0024732957 0.04227998 0.0636834 -0.10547805 0.048485763 0.06210568 0.03743349 0.08443436
-0.10333426 -0.0697747 0.087682225 -0.059833597 -0.105031945 0.006003651 0.01141541 -0.06856984
0.01606127 -0.10984205 0.005057639 -0.009655159 0.008180241 0.039860163 0.10496004 -0.040314168
-0.058953933 0.109290265 0.021429928 -0.104201265 0.031585388 -0.098149486 0.09551878 -0.06668919
-0.08547031 0.05840056 0.0035594627 0.013429675 -0.009499059 -0.08534812 -0.10428554 0.023719717
-0.104801886 -0.008497313 -0.03548275 -0.036284063 0.042814814 -0.021978341 -0.038962375 -0.051283747
0.005637661 0.055695135 -0.04718134 0.115712054 -0.029043997 -0.087490775 0.09029634 0.09713408
0.029928274 -0.1097729 0.008488847 0.08691447 0.047122564 -0.08394449 -0.053146936 -0.045324214
-0.06740915 0.03579353 -0.10943629 -0.026184823 -0.10964938 -0.043703675 0.096443325 0.1043227
0.012181658 -0.08938299 0.08574668 0.07360488 0.034145147 -0.037843466 -0.052783184 0.012218194
-0.041225694 -0.08732976 -0.026649272 -0.03027699 0.022597842 -0.09323965 -0.00060071464 -0.10345854
-0.04238496 0.08683382 0.00539035 0.04200894 0.0068419343 -0.055984817 -0.08920649 -0.10056423
