Results/transformer/split_2/checkpoint.pt (torch, 832610 bytes, 46 tensors)

attn_layers.layers.0.0.0.weight f4 [74]
0.9997146 0.9974123 1.0083606 0.99996126 1.0026217 1.0067451 0.9834389 0.99675214
0.9869171 1.0055759 0.99806446 1.0025762 1.0063188 0.99649125 1.0034273 1.0098813
1.005265 1.005205 1.0022379 0.9937483 1.0078998 1.0125873 0.99358654 1.0060165
1.0014217 1.0025439 0.9990951 1.0185034 0.99953395 1.0075535 1.0026354 1.0026994
0.9976404 0.9944396 0.9948167 1.0079136 1.0078943 0.99441636 0.99863094 1.0066881
1.0089813 1.002905 0.9965168 1.0082108 1.0067987 0.999104 1.0026349 1.007308
1.0003098 1.0086942 1.0040034 0.99981004 0.99961835 0.9966257 1.0063264 1.0071315
1.0021276 1.0056214 0.9995743 1.0031224 1.0013942 1.0070869 0.99466366 0.9993153
1.0020835 0.99521184 0.9877254 0.9957389 1.0007001 1.0009044 0.9968609 0.99978095
0.998356 1.0020202
00000000: 4ced 7f3f 6a56 7f3f f611 813f 76fd 7f3f
00000010: e855 803f 06dd 803f a7c2 7b3f 262b 7f3f
00000020: 99a6 7c3f b6b6 803f 2781 7f3f 6b54 803f
00000030: 0ecf 803f 0d1a 7f3f 4e70 803f ca43 813f
00000040: 86ac 803f 8faa 803f 5549 803f 4a66 7e3f
00000050: dc02 813f 769c 813f b05b 7e3f 26c5 803f
00000060: 962e 803f 5c53 803f b2c4 7f3f 525e 823f
00000070: 75e1 7f3f 83f7 803f 5b56 803f 7458 803f
00000080: 5c65 7f3f 9893 7e3f 4fac 7e3f 5003 813f
00000090: ae02 813f 1292 7e3f 47a6 7f3f 28db 803f
000000a0: 4d26 813f 315f 803f ba1b 7f3f 0d0d 813f
000000b0: c8de 803f 48c5 7f3f 5756 803f 78ef 803f
000000c0: 270a 803f e41c 813f 2f83 803f 8df3 7f3f
000000d0: fde6 7f3f dd22 7f3f 4ecf 803f afe9 803f
000000e0: b845 803f 34b8 803f 1ae4 7f3f 5166 803f
000000f0: af2d 803f 39e8 803f 47a2 7e3f 21d3 7f3f
00000100: 4644 803f 34c6 7e3f 92db 7c3f bfe8 7e3f
00000110: f116 803f a31d 803f 4732 7f3f a5f1 7f3f
00000120: 4294 7f3f 3342 803f

attn_layers.layers.0.0.0.bias f4 [74]
0.0038539856 0.0036785328 -0.00536425 0.0028691937 0.0032505393 0.0030081943 0.014708423 0.002746093
0.005373392 -0.005700136 -0.0037472858 -0.005634921 0.0047287536 -0.0005310036 0.0024234357 -0.0014110045
0.003259675 -0.0018581444 -0.005592071 -0.0060625197 -0.0024695382 0.00354058 -0.0062716496 -0.00967313
0.00086711807 -0.0016557182 0.003391535 -0.0023534633 0.001391136 0.0016577737 -0.0014776529 -0.0015398288
-0.00817205 0.0052952254 0.0027267071 -0.00014420127 -0.0007130282 0.0074002813 0.0049284482 0.0019558428
0.00056683784 0.0039733998 0.003706244 -0.0011376343 -0.0013407496 -0.0015994329 0.0009844125 -0.003919482
-0.00035891123 -0.0050875596 0.002898416 0.0049085463 0.0010586203 0.017152533 -0.0056299595 0.0010842325
-0.0014777508 -0.00064259785 -0.0008326332 -0.0025464923 0.0009631985 0.0047740545 -0.0022321746 0.0006003737
-0.0053659063 -0.003892508 -0.013302129 -0.004759598 -0.0040597515 -0.005812022 -0.0046092584 -0.003817275
0.0008202193 0.0003149785
00000000: 2693 7c3b 8a13 713b 97c6 afbb 1509 3c3b
00000010: 0007 553b 2025 453b 99fb 703c ccf7 333b
00000020: 4713 b03b 35c8 babb 0695 75bb 25a5 b8bb
00000030: a9f3 9a3b 0c33 0bba 81d2 1e3b 74f1 b8ba
00000040: 46a0 553b fb8c f3ba b13d b7bb 1aa8 c6bb
00000050: fad7 21bb 1309 683b 6982 cdbb 0c7c 1ebc
00000060: 4f4f 633a af04 d9ba 8444 5e3b 903c 1abb
00000070: c756 b63a a849 d93a cead c1ba 15d4 c9ba
00000080: 10e4 05bc 9283 ad3b 8eb2 323b bc34 17b9
00000090: 83ea 3aba 0f7e f23b d27e a13b 992d 003b
000000a0: d897 143a 4b33 823b 75e4 723b ac1c 95ba
000000b0: 17bc afba 10a4 d1ba 6707 813a 006f 80bb
000000c0: 402c bcb9 8bb5 a6bb 5af3 3d3b dfd7 a03b
000000d0: 67c1 8a3a 7883 8c3c 867b b8bb ce1c 8e3a
000000e0: 17b1 c1ba 0374 28ba 1145 5aba 0de3 26bb
000000f0: 287f 7c3a ac6f 9c3b ad49 12bb 6662 1d3a
00000100: 7cd4 afbb 7319 7fbb 2cf1 59bc 67f6 9bbb
00000110: aa07 85bb c672 bebb 4309 97bb 3f2b 7abb
00000120: fc03 573a b323 a539

attn_layers.layers.0.1.to_q.weight f4 [64, 74]
0.096986026 -0.0900191 -0.009404936 -0.10190115 0.121126994 -0.10292427 -0.0057295887 -0.015050615
0.05334651 -0.044818882 -0.053551298 -0.0112425275 0.050117604 -0.0076224566 -0.0069542676 -0.028512748
0.04705331 -0.014518264 -0.095753826 -0.042980447 0.053181127 0.0037433002 0.06380099 -0.036494922
-0.02530732 -0.043417607 -0.07517909 0.030435724 0.094875224 -0.06163654 0.009134118 0.0028419993
-0.09638638 0.07234416 -0.033869784 0.009489478 0.07095329 0.029996308 -0.054520473 -0.036854412
-0.02179643 -0.035517957 -0.077887215 0.034341898 -0.01688011 0.058780983 -0.06716289 -0.019873304
0.03525427 0.0834087 0.09398463 0.09764537 -0.08355125 0.10382461 -0.08455224 0.001881376
-0.018535553 0.09295443 -0.02103431 -0.06301516 -0.09492199 -0.09731165 0.018022424 -0.0436584
0.018300824 0.05352297 0.03632678 -0.08919776 -0.032712802 -0.11265762 -0.0053904033 -0.015357765
-0.106743746 0.09251999 -0.11057232 0.057213664 0.08746012 -0.06813714 -0.06498277 -0.07111449
0.045110572 -0.03161981 0.011873298 0.09395459 -0.028928993 0.07334449 -0.010323628 0.017156912
0.05091125 -0.013918814 0.058747783 -0.059262183 -0.007590707 0.093333535 -0.04794932 -0.043601654
0.07094084 0.025762523 -0.0319557 0.040429 -0.00265471 0.10828528 0.009481222 0.09712594
0.03270808 0.071724884 0.0851413 0.037859943 -0.1258338 0.04549536 0.03611815 -0.020020947
0.012848828 0.07288035 0.015804691 -0.06512862 -0.029695883 -0.015189807 -0.006989326 0.031409513
0.03527491 0.08658439 -0.026263557 0.00020203361 0.034051273 -0.04500377 -0.029000593 0.104403675
-0.10557066 0.019232843 -0.060762115 0.03216616 0.04784266 0.02524369 0.07430954 0.06045254
-0.051166955 -0.04545165 0.08054549 0.04599702 -0.07396683 0.09908937 0.120126195 0.03644348
0.062256534 0.0069424724 0.06267646 -0.025008654 -0.06305882 -0.03503031 -0.04181558 0.0028244907
0.043087114 0.056004286 -0.117059544 -0.060010277 0.056805793 -0.020504948 -0.057276737 0.0038445978
0.038017273 0.07914518 -0.055184238 -0.118169375 0.06112315 -0.022449948 0.056497186 0.110707335
-0.036793154 0.12537071 0.03124889 0.012062751 0.011475928 -0.029820966 0.037659537 -0.031888444
0.04346387 0.08624489 0.025039615 -0.08894742 -0.09300727 0.051386274 -0.08982808 0.08262701
0.05541726 0.06402357 -0.07998546 -0.06411959 0.10549931 -0.08235401 0.09883418 0.08362528
-0.033514865 0.051748864 0.061392814 -0.039696857 -0.07668655 0.10776996 -0.018055743 0.03430893
0.056941494 0.10869684 0.109889396 -0.100767426 -0.053850826 -0.014482905 -0.05700533 0.10964009
-0.08320379 -0.048079155 -0.027531466 -0.07864369 0.09424624 -0.08024316 -0.0996187 -0.016830137
-0.08670335 -0.10956875 -0.08083185 -0.08121051 0.09009452 0.018660381 -0.057177003 0.07393067
0.08511207 0.03737336 -0.062180024 0.09449129 0.1152781 0.07904406 0.06436789 -0.065804
0.11531238 0.011545625 -0.06915742 0.03341035 0.06932848 0.06677568 -0.08511499 -0.014168888
-0.022934707 -0.0720875 0.012513392 -0.06122542 0.024983563 0.0029068715 0.039444964 -0.056208372
-0.099914655 0.0333533 0.066846035 -0.010439024 -0.019077698 -0.09813511 0.10635928 -0.008613618
00000000: 9ca0 c63d ef5b b8bd 2917 1abc 8db1 d0bd
00000010: 6e11 f83d f6c9 d2bd 46bf bbbb db96 76bc
00000020: df81 5a3d 0194 37bd 9b58 5bbd 9432 38bc
00000030: 1e48 4d3d cdc5 f9bb a0e0 e3bb 9193 e9bc
00000040: f9ba 403d 03de 6dbc 951a c4bd 440c 30bd
00000050: 74d4 593d 2852 753b 18aa 823d b37b 15bd
00000060: 4c51 cfbc a9d6 31bd 7ff7 99bd 5754 f93c
00000070: f14d c23d 9976 7cbd 45a7 153c d640 3a3b
00000080: 3966 c5bd 2d29 943d 0bbb 0abd c179 1b3c
00000090: f54f 913d d1ba f53c dc50 5fbd a7f4 16bd
000000a0: 6d8e b2bc 477b 11bd 5583 9fbd 17aa 0c3d
000000b0: 2848 8abc 54c4 703d b38c 89bd 57cd a2bc
000000c0: c866 103d 2ed2 aa3d 047b c03d 4cfa c73d
000000d0: eb1c abbd ffa1 d43d ba29 adbd 8198 f63a
000000e0: dfd7 97bc e45e be3d 2550 acbc 180e 81bd
000000f0: 7666 c2bd 554b c7bd c3a3 933c 27d3 32bd
00000100: 9ceb 953c e73a 5b3d 64cb 143d 51ad b6bd
00000110: dcfd 05bd 0ab9 e6bd fba1 b0bb 239f 7bbc
00000120: 779c dabd 1f7b bd3d be73 e2bd e058 6a3d
00000130: 4b1e b33d 7c8b 8bbd b015 85bd 79a4 91bd
00000140: ddc5 383d c683 01bd 3988 423c 446b c03d
00000150: 7ffc ecbc a335 963d 6f24 29bc a78c 8c3c
00000160: 5188 503d bd0b 64bc 84a1 703d e7bc 72bd
00000170: 77bb f8bb a725 bf3d 8266 44bd a697 32bd
00000180: 6e49 913d ed0b d33c fbe3 02bd e198 253d
00000190: a5fa 2dbb acc4 dd3d 2157 1b3c f7e9 c63d
000001a0: e8f8 053d 7fe4 923d 905e ae3d 0713 1b3d
000001b0: 93da 00be 5859 3a3d a0f0 133d f802 a4bc
000001c0: e483 523c 4b42 953d d778 813c 2762 85bd
000001d0: c844 f3bc abde 78bc b706 e5bb 43a7 003d
000001e0: 6d7c 103d 2853 b13d ac26 d7bc fcd8 5339
000001f0: 5979 0b3d e055 38bd a792 edbc 98d1 d53d
00000200: 6e35 d8bd 328e 9d3c b2e1 78bd aac0 033d
00000210: aaf6 433d dbcb ce3c 9a2f 983d 159d 773d
00000220: 7194 51bd 822b 3abd 09f5 a43d 5f67 3c3d
00000230: ec7b 97bd 5eef ca3d b904 f63d c245 153d
00000240: b500 7f3d ae7d e33b 845c 803d f3de ccbc
00000250: fc24 81bd f17b 0fbd d046 2bbd 171b 393b
00000260: 1d7c 303d c064 653d eabc efbd 56cd 75bd
00000270: 31ad 683d fef9 a7bc 039b 6abd a6f5 7b3b
00000280: 00b8 1b3d de16 a23d de08 62bd c902 f2bd
00000290: 455c 7a3d f4e8 b7bc 9869 673d 87ba e23d
000002a0: 6bb4 16bd 2e61 003e acfd ff3c d8a2 453c
000002b0: 8805 3c3c 194b f4bc e340 1a3d 759d 02bd
000002c0: 2c07 323d 29a1 b03d e11f cd3c 112a b6bd
000002d0: 987a bebd 6a7a 523d c9f7 b7bd 5a38 a93d
000002e0: 35fd 623d ca1e 833d 6bcf a3bd 2251 83bd
000002f0: 0610 d83d 38a9 a8bd 9369 ca3d bb43 ab3d
00000300: e246 09bd 9ef6 533d 0877 7b3d 2c99 22bd
00000310: d70d 9dbd 7fb6 dc3d a3e9 93bc 8587 0c3d
00000320: 7c3b 693d 739c de3d b10d e13d 275f cebd
00000330: af92 5cbd b549 6dbc 6c7e 69bd fc8a e03d
00000340: c066 aabd a6ee 44bd ab89 e1bc f10f a1bd
00000350: 2c04 c13d 8756 a4bd e404 ccbd 5bdf 89bc
00000360: 8791 b1bd 9565 e0bd 2b8b a5bd b251 a6bd
00000370: 7a83 b83d a8dd 983c 6f32 6abd f768 973d
00000380: 3d4f ae3d cf14 193d 7bb0 7ebd a684 c13d
00000390: ed16 ec3d dae1 a13d 50d3 833d 3fc4 86bd
000003a0: e628 ec3d dc29 3d3c 68a2 8dbd 4bd9 083d
000003b0: 17fc 8d3d b0c1 883d c550 aebd a024 68bc
000003c0: 91e1 bbbc 9ca2 93bd f804 4d3c 82c7 7abd
000003d0: 54aa cc3c 3681 3e3b 0b91 213d c03a 66bd
000003e0: 0ea0 ccbd 789d 083d 93e6 883d 7108 2bbc
000003f0: d548 9cbc 10fb c8bd e5d2 d93d 2220 0dbc

attn_layers.layers.0.1.to_k.weight f4 [64, 74]
0.096362405 -0.01959917 -0.04902516 -0.09723891 -0.0994127 -0.08245918 -0.07549891 0.085321076
0.018365188 -0.020191146 -0.064776875 -0.1289083 -0.048748437 0.07089204 0.085754864 -0.07238442
-0.023377169 0.08242962 0.023712654 0.052950732 0.029532492 -0.030974526 -0.09346401 -0.10274994
-0.016267281 0.12322019 -0.07520928 -0.10902694 0.11172528 0.06350911 -0.114818186 -0.06834661
0.010588373 -0.0131368 -0.058568977 0.088098146 0.022745792 -0.05665629 -0.07852412 0.042652167
-0.058568023 -0.0017089455 -0.08149849 -0.104675084 0.08075779 0.028775973 0.028068483 0.038288455
-0.0757623 -0.025623098 -0.0682175 -0.066803075 -0.093508005 0.106239595 -0.020476138 0.063956276
-0.051546432 -0.07734635 0.005734485 -0.04587981 -0.081834435 -0.008955717 -0.10656743 0.035814818
0.010205396 0.0577974 -0.09425125 0.06390865 -0.02734876 0.093503475 0.090726025 -0.025022332
0.12639296 0.038756046 -0.023410395 -0.003030935 -0.032492895 0.025603352 -0.06793029 0.13955618
0.0499543 -0.054528438 0.013572448 -0.09516063 -0.014545484 0.042282183 0.0900675 -0.0060085924
-0.11721066 -0.075536385 0.046082694 -0.07648265 0.10030738 -0.045628816 0.090872295 -0.016097566
0.017276416 0.069597684 0.10451518 -0.010355646 0.019379267 -0.055489056 -0.06339196 -0.09374198
-0.046268553 -0.069526814 -0.005212532 -0.09683515 0.028968021 -0.0010327117 -0.069553696 -0.046446618
0.008492536 0.09182729 -0.06570272 0.014360203 0.06503187 -0.027584588 0.06034477 0.09203669
-0.04289795 -0.020326018 -0.045839164 -0.052759867 0.026656365 -0.06551197 0.06463451 0.08048208
-0.05069374 -0.046627913 -0.011057946 -0.108436406 -0.114697315 0.0088210795 0.048947584 -0.022642806
-0.042345125 -0.00151457 0.022877568 0.03321772 -0.0129679125 0.08387539 0.089458995 0.07928628
0.07429231 -0.10812526 -0.12099235 -0.03934998 0.06177554 0.007481192 0.016716203 0.042824667
0.00047348774 -0.11814712 -0.055260133 -0.062874064 0.05638959 0.070100695 -0.065034725 0.04591608
-0.10017511 -0.05962443 0.11074941 -0.005854503 -0.07795403 0.074934795 0.067602776 -0.07386753
0.08224317 0.011803772 0.071750626 0.09632145 -0.09240493 0.041792355 0.10553431 -0.08328968
-0.013396809 -0.1075246 0.029644776 0.017754193 -0.07601656 -0.02888997 -0.087691836 0.07863747
0.032050923 0.052329484 -0.0017500399 -0.050464224 -0.03480445 0.0371819 0.0032734354 0.015897613
-0.027186666 -0.06417386 0.038929217 -0.048720654 -0.01962248 0.03849441 0.10410445 0.01920299
-0.083786994 0.028195603 -0.058724366 -0.022973225 -0.013349631 0.12762631 -0.07778048 0.060411483
-0.04175456 -0.09406549 0.082149886 0.10593813 -0.025674243 -0.08292444 -0.074098036 -0.09933413
-0.032750275 -0.087229446 -0.0545245 0.08560611 0.096111596 -0.03359618 0.009047185 0.027369874
-0.02887396 -0.1111908 0.012258145 0.09721138 0.046163164 -0.02854236 -0.040764973 0.025856791
-0.04184382 -0.05743508 0.07460803 -0.100866854 0.04260772 0.09051601 0.10383872 0.101649314
0.034378406 0.010734728 0.10178761 -0.0868659 -0.083983906 -0.02262403 -0.10378491 0.082474634
0.11048868 0.08978202 0.015817268 -0.050521694 -0.013070409 0.032002788 -0.01881561 0.028216131
00000000: a759 c53d 708e a0bc 9bce 48bd 3225 c7bd
00000010: e398 cbbd 5ce0 a8bd 2c9f 9abd d1bc ae3d
00000020: 9772 963c e767 a5bc bda9 84bd 8a00 04be
00000030: 71ac 47bd d92f 913d 3fa0 af3d 483e 94bd
00000040: 7a81 bfbc dcd0 a83d 0a41 c23c dee2 583d
00000050: 20ee f13c 4abe fdbc 0f6a bfbd 8f6e d2bd
00000060: f642 85bc de5a fc3d 5307 9abd 8449 dfbd
00000070: 39d0 e43d 1011 823d cc25 ebbd 4ff9 8bbd
00000080: db7a 2d3c bc3b 57bc 06e6 6fbd cd6c b43d
00000090: 6255 ba3c 6d10 68bd 41d1 a0bd 0ab4 2e3d
000000a0: 06e5 6fbd b2fe dfba aee8 a6bd e45f d6bd
000000b0: 5764 a53d 97bb eb3c e0ef e53c 5bd4 1c3d
000000c0: 4429 9bbd 88e7 d1bc 9eb5 8bbd 0dd0 88bd
000000d0: 2081 bfbd 2594 d93d 93bd a7bc 82fb 823d
000000e0: 5a22 53bd c367 9ebd 59e8 bb3b 78ec 3bbd
000000f0: d098 a7bd 00bb 12bc 0640 dabd 8fb2 123d
00000100: 8934 273c f7bc 6c3d cd06 c1bd 8ae2 823d
00000110: 820a e0bc c07e bf3d 91ce b93d a2fb ccbc
00000120: 286d 013e a9be 1e3d 28c7 bfbc a7a2 46bb
00000130: 4517 05bd 1fbe d13c 091f 8bbd d1e7 0e3e
00000140: e19c 4c3d 3659 5fbd f95e 5e3c 94e3 c2bd
00000150: 2f50 6ebc 1530 2d3d 4f75 b83d bae3 c4bb
00000160: 240c f0bd d2b2 9abd 35c1 3c3d f0a2 9cbd
00000170: f56d cd3d 48e5 3abd 411b ba3d 0bdf 83bc
00000180: 4587 8d3c 3b89 8e3d 0e0c d63d baaa 29bc
00000190: 45c1 9e3c 7e48 63bd a5d3 81bd ccfb bfbd
000001a0: 1884 3dbd 1364 8ebd e3cd aabb 8251 c6bd
000001b0: 584e ed3c 0e5c 87ba 2b72 8ebd cf3e 3ebd
000001c0: 4724 0b3c f20f bc3d 268f 86bd 0f47 6b3c
000001d0: 6e2f 853d 13f9 e1bc 142c 773d bb7d bc3d
000001e0: c3b5 2fbd c082 a6bc d9c1 3bbd bb1a 58bd
000001f0: 735e da3c 242b 86bd 195f 843d cad3 a43d
00000200: 3da4 4fbd e9fc 3ebd 632c 35bc e813 debd
00000210: 6de6 eabd 4a86 103c 437d 483d 687d b9bc
00000220: 1572 2dbd 8984 c6ba bd69 bb3c 4e0f 083d
00000230: 5e77 54bc dcc6 ab3d 4736 b73d d860 a23d
00000240: 9126 983d c770 ddbd d6ca f7bd 722d 21bd
00000250: 5908 7d3d c924 f53b 6bf0 883c eb68 2f3d
00000260: 733e f839 1ef7 f1bd 7358 62bd 1ec4 80bd
00000270: c5f8 663d f490 8f3d ed30 85bd 8012 3c3d
00000280: 9c28 cdbd bf38 74bd 96d0 e23d 21d7 bfbb
00000290: 5da6 9fbd 6a77 993d 5373 8a3d dc47 97bd
000002a0: 1b6f a83d 9c64 413c fef1 923d 2e44 c53d
000002b0: cc3e bdbd 762e 2b3d 5f22 d83d c893 aabd
000002c0: 4a7e 5bbc dc35 dcbd 9ad9 f23c 3e71 913c
000002d0: 92ae 9bbd a9aa ecbc c797 b3bd af0c a13d
000002e0: d447 033d 7157 563d 9861 e5ba 93b3 4ebd
000002f0: 1c8f 0ebd 0c4c 183d 2287 563b b63b 823c
00000300: 92b6 debc 966d 83bd 3e74 1f3d 4f8f 47bd
00000310: 53bf a0bc 51ac 1d3d b734 d53d 974f 9d3c
00000320: 8498 abbd 77fa e63c f688 70bd 5832 bcbc
00000330: 69b8 5abc 79b0 023e 5f4b 9fbd 0872 773d
00000340: d406 2bbd 68a5 c0bd 333e a83d 17f6 d83d
00000350: ca52 d2bc 4ad4 a9bd b6c0 97bd b16f cbbd
00000360: 2725 06bd 5aa5 b2bd 1555 5fbd 4252 af3d
00000370: 28d6 c43d 269c 09bd a53a 143c c936 e03c
00000380: 1589 ecbc 01b8 e3bd 63d6 483c c316 c73d
00000390: 9615 3d3d abd1 e9bc 2cf9 26bd 9fd1 d33c
000003a0: 6d64 2bbd 0c41 6bbd 18cc 983d 4893 cebd
000003b0: 6f85 2e3d 7560 b93d 65a9 d43d 842d d03d
000003c0: 5fd0 0c3d b6e0 2f3c 0676 d03d c0e6 b1bd
000003d0: c1ff abbd 0856 b9bc 2f8d d4bd 76e8 a83d
000003e0: e447 e23d a3df b73d 3793 813c d6ef 4ebd
000003f0: 4525 56bc 5b15 033d 3223 9abc 8425 e73c

attn_layers.layers.0.1.to_v.weight f4 [64, 74]
0.018739175 -0.09114543 0.067528866 -0.020252997 0.015618151 -0.06840852 0.08506342 0.065501474
0.07515316 -0.032226186 0.06433665 -0.050781783 -0.025541365 0.063261725 -0.058975846 -0.046380103
0.016875409 -0.022779813 0.06151783 0.08175314 -0.07627944 0.076866806 0.08927434 0.09029386
0.10949148 -0.08460251 0.11115346 -0.007488085 0.0037854835 -0.10161256 -0.07679013 0.06777493
0.05878301 -0.09801112 0.11252786 -0.09680498 0.07848361 0.10794525 -0.06729952 -0.054346137
-0.09342185 0.12332913 -0.07534782 -0.04149017 -0.022019152 0.09572389 0.067739174 0.057082906
0.10574416 -0.032789376 0.08856961 -0.102322415 0.017190102 -0.06513475 -0.10507888 0.104471035
-0.050850477 -0.08378133 -0.054951742 -0.046705924 -0.09107041 -0.0094061075 0.025966236 0.051804848
-0.0346915 0.0600635 0.0046671354 -0.037330758 0.058575675 -0.068570144 -0.022016147 -0.025165837
-0.019568507 0.02549045 -0.099154525 -0.053896982 -0.098098226 0.1183666 -0.010782475 -0.080553494
0.005108049 0.006469133 -0.07075145 -0.028152686 -0.059615474 -0.09164464 0.05742757 0.10341217
-0.042354107 0.0314898 -0.07625695 0.10906514 0.016683064 -0.04830175 -0.01162325 0.019483076
0.024579251 -0.080302134 0.082334146 -0.04568935 -0.05081285 0.058591194 -0.024266446 0.07707983
0.016876724 0.013726369 0.02100743 -0.095750295 -0.06917679 0.061355352 0.09114113 0.05251849
0.037253957 -0.053051595 -0.005307074 -0.027179718 -0.030524109 -0.05890381 0.039150327 -0.0755065
0.11329957 -0.018929653 0.08636576 -0.0004209775 0.10136962 -0.111888945 -0.064296864 -0.039620914
0.09027757 -0.038770128 -0.117001824 -0.1121458 0.07545685 -0.09626448 -0.023088511 -0.032805175
-0.011670479 0.077452004 -0.10245582 0.10618921 0.06751087 -0.078414485 -0.07120778 0.040507864
-0.09563475 0.039480954 0.069399774 0.05865367 0.036490135 0.041076735 0.09873205 -0.095645145
-0.0016434788 -0.09002706 0.007723109 0.08303223 -0.08309787 0.036043536 -0.012117661 0.09339315
0.038749885 -0.0719144 -0.084906995 0.0040809303 -0.06765583 0.07952282 0.03442705 -0.0027569954
-0.038018107 -0.05507002 -0.0734611 0.01418529 0.02873096 -0.00560238 -0.06614193 0.004254947
-0.080004096 -0.06343118 -0.04893483 0.02524106 0.054200035 -0.112821676 -0.06846389 -0.018974556
0.022338903 0.025148595 -0.0039456747 -0.010151125 -0.104626454 0.06572903 0.030017098 0.10664838
0.09080195 0.10274172 -0.033779226 0.038951777 -0.05024432 0.11914467 -0.06039909 -0.042562455
0.07633806 -0.015881259 -0.07102362 0.074065425 -0.029512158 0.049790725 -0.049156297 0.09155621
0.0683233 -0.059750877 -0.09865751 -0.11652743 0.085265085 0.012150959 -0.029740533 -0.052788913
-0.05043593 0.11667928 0.01704374 -0.10478576 0.08255357 0.025141582 0.069558226 -0.021904055
0.05564626 -0.08846772 0.035498057 -0.08706338 0.08332696 -0.046916425 -0.10077209 -0.10447308
0.048817787 0.10754772 0.08092199 0.11120479 -0.07772643 -0.09852742 0.030894728 0.029159566
-0.0036936058 -0.11104376 0.05336655 0.11885026 0.005685429 0.05519468 0.004262735 -0.01583464
-0.07336867 0.040610313 -0.05315285 0.11624735 0.020934198 0.11171916 -0.04081138 -0.06981632
00000000: e682 993c 75aa babd 934c 8a3d 9de9 a5bc
00000010: 46e3 7f3c c419 8cbd bb35 ae3d a325 863d
00000020: e6e9 993d 9bff 03bd efc2 833d 8f00 50bd
00000030: 203c d1bc 5d8f 813d a890 71bd 10f9 3dbd
00000040: 4c3e 8a3c bb9c babc 1ffa 7b3d 316e a73d
00000050: 6538 9cbd 586c 9d3d 77d5 b63d fdeb b83d
00000060: 123d e03d 1544 adbd 6da4 e33d 9c5e f5bb
00000070: e015 783b 3f1a d0bd 2544 9dbd 95cd 8a3d
00000080: 74c6 703d 0eba c8bd 0275 e63d b041 c6bd
00000090: 04bc a03d 6612 dd3d 55d4 89bd 0e9a 5ebd
000000a0: f453 bfbd fc93 fc3d f54f 9abd 99f1 29bd
000000b0: 8261 b4bc e30a c43d d6ba 8a3d c4cf 693d
000000c0: 6590 d83d 274e 06bd fc63 b53d 6a8e d1bd
000000d0: 42d2 8c3c 5e65 85bd 9933 d7bd e9f4 d53d
000000e0: 9748 50bd 8c95 abbd 1415 61bd b64e 3fbd
000000f0: 2083 babd 131c 1abc 25b7 d43c 5231 543d
00000100: ad18 0ebd 2505 763d c5ee 983b 23e8 18bd
00000110: 0ced 6f3d 816e 8cbd 355b b4bc 9628 cebc
00000120: 224e a0bc 59d1 d03c 8711 cbbd 15c3 5cbd
00000130: b9e7 c8bd 306a f23d faa8 30bc 3bf9 a4bd
00000140: 6c61 a73b 05fb d33b 23e6 90bd 76a0 e6bc
00000150: 5b2f 74bd 2fb0 bbbd 2c39 6b3d c3c9 d33d
00000160: 807b 2dbd 73fb 003d 9b2c 9cbd 8b5d df3d
00000170: ecaa 883c 0ed8 45bd 726f 3ebc f99a 9f3c
00000180: 6d5a c93c 7275 a4bd ce9e a83d c224 3bbd
00000190: 2321 50bd 52fd 6f3d 6dca c6bc 08dc 9d3d
000001a0: 0e41 8a3c 90e4 603c c617 ac3c bb18 c4bd
000001b0: 90ac 8dbd c04f 7b3d 33a8 ba3d a11d 573d
000001c0: 9b97 183d a14c 59bd f7e6 adbb 00a8 debc
000001d0: b20d fabc 1f45 71bd 185c 203d 27a3 9abd
000001e0: 9b09 e83d 5c12 9bbc 88e0 b03d a5b6 dcb9
000001f0: e09a cf3d 0826 e5bd 13ae 83bd 8a49 22bd
00000200: 72e3 b83d 6dcd 1ebd a79e efbd b2ac e5bd
00000210: 1f89 9a3d 5026 c5bd 1e24 bdbc b85e 06bd
00000220: 8935 3fbc 289f 9e3d 5bd4 d1bd bb79 d93d
00000230: 2443 8a3d c697 a0bd 62d5 91bd 93eb 253d
00000240: 27dc c3bd c8b6 213d 7821 8e3d d53e 703d
00000250: ae76 153d 1440 283d 0734 ca3d 9ae1 c3bd
00000260: ff69 d7ba 1b60 b8bd 2212 fd3b cd0c aa3d
00000270: 372f aabd 63a2 133d 2789 46bc e844 bf3d
00000280: 33b8 1e3d db47 93bd b8e3 adbd 53b9 853b
00000290: 248f 8abd dcdc a23d 6103 0d3d b5ae 34bb
000002a0: e0b8 1bbd 1a91 61bd c672 96bd 6b69 683c
000002b0: 315d eb3c 2b94 b7bb 6c75 87bd 156d 8b3b
000002c0: 30d9 a3bd 35e8 81bd e36f 48bd 57c6 ce3c
000002d0: db00 5e3d 0d0f e7bd cc36 8cbd 8770 9bbc
000002e0: 1300 b73c 6d04 ce3c b84a 81bb e750 26bc
000002f0: 6546 d6bd f19c 863d 6be6 f53c 776a da3d
00000300: 5ff6 b93d 406a d23d 165c 0abd e68b 1f3d
00000310: fdcc 4dbd 1f02 f43d 0965 77bd f855 2ebd
00000320: 2157 9c3d 6a19 82bc d574 91bd 9daf 973d
00000330: 7bc3 f1bc 5cf1 4b3d 1d58 49bd d281 bb3d
00000340: 16ed 8b3d 56bd 74bd f30c cabd efa5 eebd
00000350: 769f ae3d d114 473c 6ba2 f3bc 3039 58bd
00000360: e895 4ebd 8cf5 ee3d 509f 8b3c eb99 d6bd
00000370: d911 a93d b8f5 cd3c 8b74 8e3d 2270 b3bc
00000380: 55ed 633d 902e b5bd 6966 113d 494e b2bd
00000390: 53a7 aa3d 702b 40bd 9961 cebd fbf5 d5bd
000003a0: 29f5 473d fb41 dc3d 6eba a53d 56bf e33d
000003b0: 092f 9fbd bec8 c9bd f116 fd3c 0be0 ee3c
000003c0: 6c10 72bb e96a e3bd e296 5a3d c467 f33d
000003d0: d64c ba3b d113 623d 6aae 8b3b a6b7 81bc
000003e0: 5042 96bd 0057 263d ceb6 59bd 1713 ee3d
000003f0: 327e ab3c 04cd e43d d529 27bd dcfb 8ebd

attn_layers.layers.0.1.to_out.weight f4 [74, 64]
-0.0050385525 -0.01980163 -0.0196264 -0.11560112 -0.056214537 0.08645912 -0.07569092 -0.08138668
0.08838551 -0.116250016 -0.059552103 -0.029325366 -0.08288373 -0.054382302 -0.08461485 0.046206016
0.058017883 -0.10768603 -0.09708713 0.07191397 0.001512374 -0.04199805 0.09303462 -0.06712534
-0.06895146 -0.06705119 -0.046799332 0.066684514 0.004372667 0.09307892 -0.008323837 -0.09092585
-0.08052306 0.09183422 -0.011556447 -0.09070159 0.010784511 -0.015241551 -0.09948558 -0.0012679832
0.12305593 -0.054232188 0.10251558 -0.0811948 -0.08009923 0.048420675 -0.0038208957 0.110750854
-0.06107244 0.093600936 0.107968934 0.04772826 -0.00056039233 0.07743578 0.12105762 -0.007579645
0.09587615 -0.025981816 0.116192415 0.043628257 -0.0026074024 -0.09347768 -0.00730118 0.06609014
0.098957606 0.116456434 -0.12588717 -0.043026235 0.029657258 0.026271522 0.035345025 0.077386275
0.03182616 0.08385176 -0.112907276 -0.098284505 -0.036525164 -0.062013354 0.086886436 0.04671048
-0.121677555 -0.07817838 0.07863335 -0.0894388 -0.010922537 -0.03234093 -0.079037905 -0.050060026
0.06364234 -0.041757204 -0.11422787 -0.0045665647 0.11762949 -0.11478967 0.048213474 0.035519604
0.11995974 0.052752446 -0.054668177 -0.057521164 -0.027132425 -0.09016703 0.04814637 -0.061238237
0.0023165983 0.053228654 0.083021805 -0.10866628 -0.10602213 -0.03166823 -0.00025866486 -0.036140393
0.10513997 -0.052525736 -0.03512643 0.11559411 -0.11367941 0.027859867 -0.018639902 -0.114159554
0.101755396 -0.059711244 0.09209092 0.031294383 -0.06191317 -0.01397213 -0.088283435 -0.04801505
-0.03737523 -0.100789055 0.05441155 -0.08111395 0.12293312 0.09829068 -0.009461859 -0.048433606
0.0057324693 -0.079826005 0.09965763 -0.04565727 -0.05018985 0.113094956 0.09611283 0.0996982
0.010174405 0.08345414 0.0125417905 -0.011514367 -0.09630148 -0.1144645 0.031231418 -0.03465097
-0.02133751 0.11216242 -0.03093899 0.026610998 0.06218837 -0.095047146 0.116951436 0.009172161
0.12907124 0.010552697 0.048194993 0.076740116 -0.107429385 -0.1033804 0.09254932 0.0920398
0.04465179 0.01911547 -0.12175637 0.010896125 0.07629753 -0.050474536 -0.047094055 0.06447436
0.08440879 -0.11977359 0.08257533 0.053998306 0.089621365 0.11123964 -0.063704625 0.046733424
0.0386564 0.10380694 0.07289548 0.07991883 -0.019677926 -0.05093939 -0.032622322 -0.020330725
0.058908515 -0.048621505 0.11388557 0.098785765 -0.049761023 0.085261986 0.049820457 -0.051426645
0.10716708 -0.018419916 -0.07939494 -0.08081684 -0.0054091783 0.015898027 -0.078969 -0.015364769
-0.08025748 0.08980384 0.016160717 0.0666617 -0.02002823 -0.028628102 0.0527909 0.08891321
-0.12374695 -0.06894657 0.0774313 0.06005269 -0.01966377 -0.06731046 -0.11707909 0.10084943
0.08033439 0.0070551853 -0.030812727 0.0854058 -0.05308375 0.055859692 -0.018291079 -0.07548135
0.115275756 0.04748641 0.113342404 -0.07427479 0.00844148 0.04420031 0.022007443 -0.020296412
-0.08723723 0.040178835 0.06184914 -0.08783929 0.065834515 0.033564933 0.053481515 -0.07309905
-0.10756434 -0.045985192 0.11543016 0.0384554 0.06523957 -0.02900814 -0.0301442 -0.1024521
00000000: 711a a5bb 0737 a2bc 8bc7 a0bc 48c0 ecbd
00000010: 3741 66bd 7b11 b13d d703 9bbd 0fae a6bd
00000020: 7603 b53d 7d14 eebd e8ec 73bd c03b f0bc
00000030: f2be a9bd fabf 5ebd 8d4a adbd 8542 3d3d
00000040: 29a4 6d3d 7e8a dcbd 9ed5 c6bd a247 933d
00000050: da3a c63a 2606 2cbd ef88 be3d 0379 89bd
00000060: 6c36 8dbd 2252 89bd a8b0 3fbd e491 883d
00000070: 9748 8f3b 29a0 be3d b460 08bc 5537 babd
00000080: 46e9 a4bd 9413 bc3d 4057 3dbc c1c1 b9bd
00000090: 85b1 303c b3b7 79bc 19bf cbbd 7532 a6ba
000000a0: bf04 fc3d 9222 5ebd b0f3 d13d 7649 a6bd
000000b0: 110b a4bd c254 463d fe67 7abb 58d1 e23d
000000c0: 1827 7abd d9b1 bf3d d11e dd3d b57e 433d
000000d0: 4be7 12ba a696 9e3d 0fed f73d ac5e f8bb
000000e0: b75a c43d d1d7 d4bc 4af6 ed3d 8bb3 323d
000000f0: f4e0 2abb 3a71 bfbd bd3e efbb 445a 873d
00000100: 49aa ca3d b680 ee3d 91e8 00be 473c 30bd
00000110: c7f3 f23c 6037 d73c f2c5 103d b27c 9e3d
00000120: 265c 023d 79ba ab3d ee3b e7bd 6349 c9bd
00000130: 699b 15bd b701 7ebd 84f1 b13d 7d53 3f3d
00000140: 1532 f9bd fd1b a0bd 860a a13d b12b b7bd
00000150: 71f4 32bc ec77 04bd a0de a1bd be0b 4dbd
00000160: ea56 823d 9a09 2bbd 4df0 e9bd 1fa3 95bb
00000170: bbe7 f03d d916 ebbd 7e7b 453d 017d 113d
00000180: 74ad f53d f312 583d bdeb 5fbd 509b 6bbd
00000190: d244 debc 7ea9 b8bd 2135 453d f2d4 7abd
000001a0: 12d2 173b 4a06 5a3d 5607 aa3d 6d8c debd
000001b0: 2122 d9bd 8cb6 01bd 699d 87b9 f307 14bd
000001c0: a053 d73d 3a25 57bd bbe0 0fbd 9bbc ec3d
000001d0: c0d0 e8bd 603a e43c b5b2 98bc 7ccc e9bd
000001e0: 2265 d03d c793 74bd 2a9a bc3d 8a2e 003d
000001f0: aa98 7dbd 5ceb 64bc f2cd b4bd 6eab 44bd
00000200: c516 19bd 7e6a cebd a5de 5e3d 121f a6bd
00000210: 5cc4 fb3d a04c c93d ea05 1bbc 5162 46bd
00000220: 70d7 bb3b d17b a3bd 4d19 cc3d 1e03 3bbd
00000230: df93 4dbd 549e e73d ced6 c43d 922e cc3d
00000240: 8cb2 263c 01ea aa3d 157c 4d3c c1a6 3cbc
00000250: b639 c5bd 5d6c eabd 08d9 ff3c 2dee 0dbd
00000260: 00cc aebc 69b5 e53d c473 fdbc 4fff d93c
00000270: 3bb9 7e3d 14a8 c2bd 3c84 ef3d d546 163c
00000280: 402b 043e 38e5 2c3c 1d68 453d ec29 9d3d
00000290: f003 dcbd 1ab9 d3bd 7f8a bd3d 5d7f bc3d
000002a0: cce4 363d 0c98 9c3c 675b f9bd a985 323c
000002b0: e141 9c3d 63be 4ebd b2e5 40bd 220b 843d
000002c0: 84de ac3d db4b f5bd 411d a93d 542d 5d3d
000002d0: 688b b73d 9cd1 e33d 9277 82bd 8c6b 3f3d
000002e0: 2c56 1e3d bc98 d43d 3a4a 953d 7cac a33d
000002f0: 9a33 a1bc d2a5 50bd fc9e 05bd 9f8c a6bc
00000300: 0e4a 713d 5827 47bd d63c e93d 3150 ca3d
00000310: 37d2 4bbd d69d ae3d 8910 4c3d bfa4 52bd
00000320: 6a7a db3d 5de5 96bc d099 a2bd 4d83 a5bd
00000330: 7a3f b1bb 943c 823c 80ba a1bd 83bc 7bbc
00000340: 095e a4bd 13eb b73d 7b63 843c ee85 883d
00000350: 3e12 a4bc 7b85 eabc 453b 583d 2118 b63d
00000360: 0a6f fdbd dc33 8dbd 4d94 9e3d cff9 753d
00000370: ea15 a1bc 11da 89bd 29c7 efbd 258a ce3d
00000380: 5b86 a43d 2f2f e73b f96a fcbc 3ce9 ae3d
00000390: 596e 59bd 22cd 643d 2cd7 95bc f795 9abd
000003a0: b215 ec3d 1c81 423d 1020 e83d 621d 98bd
000003b0: 224e 0a3c 620b 353d f448 b43c a944 a6bc
000003c0: 6fa9 b2bd 9092 243d 8655 7d3d 16e5 b3bd
000003d0: 3fd4 863d 627b 093d 6f0f 5b3d f4b4 95bd
000003e0: b14a dcbd f85a 3cbd a666 ec3d 6983 1d3d
000003f0: 539c 853d 7ba2 edbc f8f0 f6bc 68d2 d1bd

attn_layers.layers.1.0.0.weight f4 [74]
0.99445117 0.99173224 0.993533 0.9979594 0.9878446 0.98998743 0.99816436 1.004644
0.99808204 0.99811846 0.9935629 0.9940618 1.0019268 0.9986693 0.99862933 0.9990277
1.0062661 1.0093795 1.0044483 0.9984765 1.0020976 1.0016243 1.0005635 0.997747
1.0015645 1.0011976 1.005723 1.0059719 1.0163004 0.9990419 1.0055565 0.999326
1.0050058 1.0041609 0.9978142 1.0002311 1.0119337 0.9955234 0.99018157 1.0038555
0.9946886 1.0048099 0.99385166 0.99522233 0.992383 0.99624574 0.99433553 1.0056812
1.0037311 1.0002346 0.98563945 0.99992174 0.989797 0.99318445 1.0033334 1.0017223
1.0123669 1.0051175 1.0072923 1.0090835 0.9994755 0.99940175 0.99570346 1.0053419
1.0119416 1.0015893 0.9900452 0.99262637 0.98524773 0.99868983 1.0054978 1.0057929
0.9909895 1.0101981
00000000: 5a94 7e3f 2ae2 7d3f 2e58 7e3f 447a 7f3f
00000010: 62e3 7c3f d16f 7d3f b387 7f3f 2d98 803f
00000020: 4e82 7f3f b184 7f3f 235a 7e3f d67a 7e3f
00000030: 233f 803f cba8 7f3f 2ca6 7f3f 48c0 7f3f
00000040: 54cd 803f 5933 813f c391 803f 289c 7f3f
00000050: bc44 803f 3a35 803f 7712 803f 596c 7f3f
00000060: 4433 803f 3e27 803f 88bb 803f b0c3 803f
00000070: 2216 823f 36c1 7f3f 13b6 803f d4d3 7f3f
00000080: 08a4 803f 5888 803f c070 7f3f 9307 803f
00000090: 0b87 813f 9fda 7e3f 8a7c 7d3f 567e 803f
000000a0: e9a3 7e3f 9c9d 803f 106d 7e3f e4c6 7e3f
000000b0: d00c 7e3f f609 7f3f c68c 7e3f 29ba 803f
000000c0: 437a 803f b007 803f de52 7c3f dffa 7f3f
000000d0: 5663 7d3f 5641 7e3f 3b6d 803f 7038 803f
000000e0: 3d95 813f b1a7 803f f4ee 803f a629 813f
000000f0: a0dd 7f3f cbd8 7f3f 6ce6 7e3f 0baf 803f
00000100: 4d87 813f 1434 803f 9a73 7d3f c31c 7e3f
00000110: 3239 7c3f 23aa 7f3f 27b4 803f d2bd 803f
00000120: 7db1 7d3f 2c4e 813f

attn_layers.layers.1.0.0.bias f4 [74]
0.0019192373 -0.004829768 0.0024091392 -0.00096038653 0.0066976584 0.011782724 -0.00061609625 0.00084333733
0.0050322483 0.0044511855 0.00086904614 0.0057166354 0.010160906 -0.0022941919 -0.0014804715 0.0012164708
-0.006283032 0.0025413746 -0.0016513725 -0.005582628 0.001811756 0.0070321476 -0.005882874 -0.0036393257
-0.0018913466 0.0043123355 -0.003840754 0.0071294433 -0.0051460126 0.0089108 -0.0020692095 -0.0038979254
0.003962216 0.0055128206 0.0076284967 0.002684272 0.0030928766 0.0071205785 0.005418143 0.006927304
0.0062957606 -0.004203737 -0.0038516584 -0.0006897142 -0.0034609474 0.0002831316 0.0022879564 -0.000530351
-0.0013123781 0.0004916115 0.006803499 -0.0023734882 -0.007742514 0.009448314 0.004463879 0.0030150327
-0.0016562724 -0.002695097 0.00033817725 -0.0042880946 -0.003112704 -0.005433144 -0.010565616 -0.0005077211
-0.0020385464 0.0001999135 -0.016255101 -0.010079628 -0.022072166 -0.006493379 -0.00445583 0.00077786297
-0.014642114 -0.00068101264
00000000: eb8e fb3a 0843 9ebb a6e2 1d3b 73c2 7bba
00000010: 0878 db3b 540c 413c 8581 21ba 6913 5d3a
00000020: 8fe5 a43b 40db 913b b3d0 633a 9d52 bb3b
00000030: ee79 263c 275a 16bb 610c c2ba fd71 9f3a
00000040: e4e1 cdbb 318d 263b de72 d8ba 7aee b6bb
00000050: 7278 ed3a ee6d e63b 20c5 c0bb c181 6ebb
00000060: 10e7 f7ba 7e4e 8d3b 29b5 7bbb 1b9e e93b
00000070: e29f a8bb 9bfe 113c 939b 07bb 5674 7fbb
00000080: 7ad5 813b e4a4 b43b 78f8 f93b 9cea 2f3b
00000090: dcb1 4a3b be53 e93b ad8a b13b 70fe e23b
000000a0: ab4c ce3b 80bf 89bb 1b6c 7cbb f0cd 34ba
000000b0: 10d1 62bb 4871 9439 8af1 153b 4107 0bba
000000c0: 1a04 acba 7ddf 003a e3ef de3b 868c 1bbb
000000d0: eab4 fdbb 1acd 1a3c bb45 923b db97 453b
000000e0: 4817 d9ba 39a0 30bb 624d b139 2583 8cbb
000000f0: 82fe 4bbb 8408 b2bb 681b 2dbc 9618 05ba
00000100: 2299 05bb df9f 5139 6b29 85bc 0625 25bc
00000110: b0d0 b4bc 69c6 d4bb 3602 92bb 80e9 4b3a
00000120: 7ae5 6fbc fc85 32ba

attn_layers.layers.1.1.ff.0.0.weight f4 [296, 74]
0.08369585 0.023947785 0.04667767 0.08059568 0.062546894 -0.058536112 0.11321735 0.115013756
-0.09260884 -0.005039373 0.12224793 0.009452707 0.07891865 -0.08522986 0.0042487485 0.0067286473
-0.100786954 0.0668727 0.09093951 -0.044765193 0.11187771 -0.11191273 0.0972159 -0.013325002
0.075254485 -0.05402448 -0.07305566 0.09402951 -0.01907166 -0.022458224 0.029213564 0.02209518
-0.05141599 0.12071268 -0.093954295 0.1118312 -0.09343994 -0.083078414 0.09412625 0.04813415
-0.07701568 -0.10733133 -0.10811068 0.016506918 -0.035735443 0.03550982 0.07914988 0.06838302
-0.050292484 0.06746824 0.025371104 -0.093895204 0.09907246 -0.050717697 -0.09990633 -0.006767512
-0.09725984 -0.063498735 -0.033447 -0.09613741 0.03888762 -0.017302243 0.026173465 0.001833601
-0.067081474 0.023984035 -0.0015857834 -0.0677302 0.024281092 -0.033322163 -0.1060261 -0.05618531
0.02829421 0.056629047 0.112007365 0.05569592 0.06295135 -0.068098806 0.099500485 -0.04299205
-0.07274094 -0.045190938 0.10804455 0.011783567 0.085110575 0.059215464 0.108136125 -0.1050301
0.0788613 0.083396085 -0.060276143 -0.02617484 -0.031123582 0.060804557 -0.016737401 -0.00018741343
-0.040430356 -0.033839267 -0.06305654 0.08673265 -0.09795933 0.09074036 -0.066646434 -0.10844295
-0.10782454 0.044597354 -0.060047396 0.028687822 0.10660291 -0.032730363 -0.03184742 -0.041476175
-0.117556274 0.08075958 0.040591124 -0.017100278 0.03691078 -0.03650161 -0.026378581 0.024944786
0.07755602 -0.08277784 -0.11885749 -0.0033996713 -0.036892567 -0.1000265 -0.04822098 0.105707414
-0.10589281 -0.10537498 0.026988398 0.00023212237 -0.038707726 -0.028461771 0.07047081 -0.025257343
0.09128785 0.097601615 0.1069672 0.0679252 -0.0312682 -0.11656222 -0.0123982355 0.07519272
-0.05817228 0.096856125 -0.019822352 -0.08292176 -0.012358985 0.023782464 0.08277042 0.010701399
-0.009022867 0.02070023 -0.0862151 0.02632649 -0.0195978 -0.09758029 0.048493315 0.07324152
0.0790586 0.061336707 0.08978489 0.010777102 -0.09584145 0.021467028 0.09408688 0.11043476
0.09107293 -0.033588115 -0.08376222 -0.097190365 -0.04857207 0.11169448 -0.09761237 0.008090431
-0.08027605 0.10174061 0.048907127 0.04872026 0.11546994 0.06375136 -0.092416376 -0.025343088
0.013069394 -0.09992413 -0.08212336 0.07346534 -0.00037586113 0.07101071 0.10053849 0.057811063
0.055683028 -0.042612087 0.05938305 -0.02309712 -0.11245444 0.036592618 -0.059035495 0.024645947
0.031462003 -0.04584609 -0.08073132 0.0071396586 -0.0959104 0.016956026 0.054346237 -0.04312141
-0.054391462 -0.107922554 -0.02875853 0.018159945 0.03244443 0.01619103 0.06947591 -0.009971276
0.094034046 -0.088391185 -0.105203696 0.027024072 0.031177245 0.1048984 0.001854592 0.0770247
-0.042054165 0.011500207 0.10427585 0.0030824994 0.016822368 -0.037741162 -0.023279471 -0.0713396
-0.09111178 -0.047451477 -0.040014576 -0.11913727 0.051854882 0.09909456 0.034640647 0.0110418275
-0.039423488 0.035582166 -0.016465472 -0.0621084 0.008398353 -0.037660744 -0.006652292 0.05867731
-0.013851468 -0.036750954 0.09958542 0.038427047 -0.0913293 -0.030911949 0.12387214 0.120993815
00000000: bb68 ab3d 252e c43c 1631 3f3d 590f a53d
00000010: 9618 803d 90c3 6fbd 7fde e73d 558c eb3d
00000020: b4a9 bdbd 5321 a5bb 1f5d fa3d 87df 1a3c
00000030: 1aa0 a13d fe8c aebd 1639 8b3b fc7b dc3b
00000040: 6469 cebd 8ef4 883d 7e3e ba3d b55b 37bd
00000050: 2420 e53d 8032 e5bd 2119 c73d 1c51 5abc
00000060: 061f 9a3d c648 5dbd 359e 95bd 8b92 c03d
00000070: 2b3c 9cbc 4ffa b7bc 4951 ef3c f300 b53c
00000080: 9399 52bd 3638 f73d 1c6b c0bd c207 e53d
00000090: 705d bfbd 0425 aabd 43c5 c03d 5128 453d
000000a0: 66ba 9dbd 87d0 dbbd 2269 ddbd 8439 873c
000000b0: 545f 12bd bf72 113d 5519 a23d 660c 8c3d
000000c0: 7eff 4dbd ca2c 8a3d 10d7 cf3c 214c c0bd
000000d0: 80e6 ca3d 5cbd 4fbd b19b ccbd 01c2 ddbb
000000e0: 2b30 c7bd a00b 82bd b9ff 08bd b1e3 c4bd
000000f0: a048 1f3d 6fbd 8dbc bc69 d63c 7155 f03a
00000100: 0362 89bd 2b7a c43c 10da cfba 22b6 8abd
00000110: 24e9 c63c d27c 08bd 3624 d9bd 9122 66bd
00000120: 42c9 e73c dcf3 673d 1e64 e53d 6821 643d
00000130: a3ec 803d 6377 8bbd e9c6 cb3d 6f18 30bd
00000140: 34f9 94bd 221a 39bd 7646 dd3d dd0f 413c
00000150: 744e ae3d ea8b 723d 7976 dd3d 051a d7bd
00000160: 0982 a13d 91cb aa3d 1ee4 76bd 9e6c d6bc
00000170: e2f6 febc 330e 793d e01c 89bc 6984 44b9
00000180: 4d9a 25bd 0b9b 0abd ca23 81bd e3a0 b13d
00000190: e79e c8bd 15d6 b93d ed7d 88bd 5617 debd
000001a0: 1dd3 dcbd b7ab 363d 42f4 75bd b902 eb3c
000001b0: a052 da3d 4610 06bd 7172 02bd ece2 29bd
000001c0: 58c1 f0bd 4765 a53d e142 263d e215 8cbc
000001d0: c22f 173d b682 15bd e517 d8bc 0259 cc3c
000001e0: b1d5 9e3d 6e87 a9bd 8e6b f3bd 05cd 5ebb
000001f0: a91c 17bd b2da ccbd 5d83 45bd 217d d83d
00000200: 54de d8bd d6ce d7bd c616 dd3c e065 7339
00000210: fe8b 1ebd a928 e9bc 0053 903d 7de8 cebc
00000220: 20f5 ba3d 5be3 c73d 9f11 db3d 5e1c 8b3d
00000230: 1613 00bd 2cb8 eebd f821 4bbc a4fe 993d
00000240: 0f46 6ebd 815c c63d 7c62 a2bc e2d2 a9bd
00000250: 577d 4abc 71d3 c23c 8a83 a93d ec54 2f3c
00000260: a6d4 13bc 8793 a93c 8b91 b0bd a7aa d73c
00000270: 918b a0bc 2dd8 c7bd eda0 463d a6ff 953d
00000280: 7ae9 a13d 333c 7b3d 24e1 b73d 7192 303c
00000290: 8648 c4bd 9fdb af3c 9fb0 c03d 9f2b e23d
000002a0: 7284 ba3d b193 09bd 878b abbd be0b c7bd
000002b0: 82f3 46bd 13c0 e43d ffe8 c7bd ba8d 043c
000002c0: c567 a4bd 625d d03d d752 483d e58e 473d
000002d0: 817b ec3d 1390 823d cc44 bdbd 4f9c cfbc
000002e0: 0321 563c 06a5 ccbd 4b30 a8bd ff74 963d
000002f0: 3a0f c5b9 106e 913d 20e7 cd3d 4bcb 6c3d
00000300: e313 643d 038a 2ebd a43b 733d 2c36 bdbc
00000310: 834e e6bd 24e2 153d 34cf 71bd 4ce6 c93c
00000320: 4dde 003d 1cc9 3bbd 7656 a5bd ccf3 e93b
00000330: ac6c c4bd 5de7 8a3c 299a 5e3d 13a0 30bd
00000340: 95c9 5ebd 8006 ddbd 0297 ebbc 2ac4 943c
00000350: 73e4 043d 0da3 843c 6349 8e3d 905e 23bc
00000360: ec94 c03d 7006 b5bd 0975 d7bd 9661 dd3c
00000370: 6c67 ff3c f9d4 d63d c815 f33a 20bf 9d3d
00000380: fd40 2cbd 5d6b 3c3c 948e d53d c203 4a3b
00000390: 10cf 893c 7a96 1abd 97b4 bebc 7f1a 92bd
000003a0: d098 babd 7b5c 42bd 53e6 23bd 3efe f3bd
000003b0: c965 543d 17f2 ca3d 5ae3 0d3d c8e8 343c
000003c0: 867a 21bd 9bbe 113d 99e2 86bc 6165 7ebd
000003d0: 3f99 093c 2742 1abd 78fb d9bb 9e57 703d
000003e0: 45f1 62bc 2b88 16bd 71f3 cb3d ae65 1d3d
000003f0: db0a bbbd 0e3b fdbc adb0 fd3d 9bcb f73d

attn_layers.layers.1.1.ff.0.0.bias f4 [296]
-0.092449665 0.028815556 0.06737348 -0.02203877 -0.060695764 -0.096228115 -0.006613681 0.011661341
0.07093678 0.061963186 0.102708444 -0.0009224968 0.048458762 -0.022785269 0.092687935 0.111802764
0.041795406 0.058667623 -0.013098543 -0.07461524 -0.09857255 -0.09723361 -0.06304137 0.07257945
-0.018145608 -0.10348056 -0.06739475 -0.110265605 0.026437614 -0.08522098 0.070902385 -0.060280822
0.047966983 -0.026404735 0.013100285 -0.03173612 0.019352771 0.017810095 -0.10362902 -0.008530004
0.004564672 -0.02040714 -0.1185467 0.03232002 0.039637234 -0.07795409 0.026783884 -0.08031373
-0.015997902 0.024975002 -0.10493223 0.07806411 0.020771202 0.032415625 0.066393256 -0.035844203
0.07380191 0.07075409 0.007291853 -0.08054223 -0.014298762 -0.042302314 0.092957504 -0.01344395
-0.046640817 0.080888174 -0.023243407 -0.10856688 -0.10498975 0.066567086 -0.019405015 0.071834326
0.033510566 0.09380724 0.08327248 0.116645835 -0.053283665 0.0767812 -0.0046747257 0.09082679
-0.07617056 0.02514597 -0.097749166 -0.06514253 0.09789078 0.110937916 -0.00064249244 0.081911266
-0.08084201 -0.08695219 -0.11147557 -0.023630464 -0.07345255 0.054289404 -0.06635233 -0.109139845
0.10686284 -0.017530281 -0.03507218 0.076052696 0.0954539 0.07934065 -0.079812095 -0.08783704
-0.06253339 -0.05252195 0.03844325 0.04707364 -0.03720639 -0.05014102 0.09978521 -0.086882174
0.08005345 0.09759063 -0.10974102 0.040647835 -0.09094399 0.09699662 -0.03901468 -0.10124058
-0.096935116 0.071472906 -0.022540845 0.081614904 -0.056541912 -0.10028486 0.045565136 0.009336633
0.086824246 0.03712672 0.016440785 -0.108918376 0.05489437 -0.017497668 0.01781511 -0.025731245
-0.032856703 0.11397823 -0.061155237 0.059341036 0.026187887 0.040701997 0.024135828 -0.047497872
0.07021901 -0.06735295 -0.10616423 0.040104464 -0.054501355 -0.032478284 0.055936214 -0.090497315
-0.06610734 0.056492068 0.012865367 -0.120086856 0.03290919 -0.038926087 0.098935865 -0.09091742
0.06982815 0.031301823 0.105411895 0.09244259 0.1157961 -0.10056859 -0.03514785 -0.0058660307
-0.08997008 -0.05785643 -0.03472793 -0.09109694 -0.03388515 0.09430673 0.027936377 0.08877666
0.0708389 -0.046847362 0.06697401 0.0849393 -0.0052172914 0.09008025 -0.020030119 -0.061729893
0.031929504 0.10090826 0.06959504 0.10898739 0.09947616 -0.014064713 0.062167417 -0.013553896
-0.055934228 -0.009498198 -0.014385365 0.014832588 -0.07747187 -0.04933619 0.10803822 0.007979626
-0.006512626 -0.084403165 -0.042766314 -0.11212526 0.021743203 0.066452995 -0.10739492 0.051528525
0.1081714 -0.024702134 0.048001595 -0.047291584 -0.0663794 -0.045066446 0.108975574 -0.04318569
-0.018871045 -0.0015959874 0.028483016 -0.048459128 0.008464831 -0.10885018 -0.040872134 0.01498439
0.08376771 -0.007848646 -0.07613595 0.09743872 0.09449644 -0.11677383 -0.066120796 0.009213645
0.0025710715 -0.07109885 -0.05141631 0.08713168 0.0827469 -0.080978855 -0.07101181 0.018952977
0.0016466385 -0.11740318 -0.01691879 0.08793478 -0.025640555 0.09772565 0.11853544 0.012751958
0.030061034 0.027269961 0.017858667 0.10466593 0.029045364 -0.11890463 -0.03314973 0.006131361
00000000: 4056 bdbd 9a0e ec3c 1bfb 893d a78a b4bc
00000010: 1f9c 78bd 3f13 c5bd 94b7 d8bb 360f 3f3c
00000020: 4d47 913d 1ccd 7d3d ce58 d23d b6d3 71ba
00000030: b27c 463d 2ca8 babc 2cd3 bd3d d9f8 e43d
00000040: a931 2b3d 764d 703d 459b 56bc e0cf 98bd
00000050: 68e0 c9bd 6a22 c7bd d51b 81bd 89a4 943d
00000060: 19a6 94bc 9eed d3bd 4206 8abd efd2 e1bd
00000070: b293 d83c 5688 aebd 4535 913d 06e9 76bd
00000080: 0779 443d be4e d8bc 94a2 563c bcfd 01bd
00000090: b489 9e3c 7ae6 913c 743b d4bd 6ec1 0bbc
000000a0: 3e93 953b e02c a7bc 9dc8 f2bd ff61 043d
000000b0: a75a 223d 65a6 9fbd e069 db3c 867b a4bd
000000c0: 080e 83bc 6098 cc3c b6e6 d6bd 13e0 9f3d
000000d0: 5e28 aa3c 3fc6 043d 30f9 873d 5fd1 12bd
000000e0: 7525 973d 85e7 903d 7ff0 ee3b 53f3 a4bd
000000f0: 5b45 6abc 3145 2dbd 8160 be3d 0344 5cbc
00000100: 710a 3fbd b3a8 a53d f568 bebc 5058 debd
00000110: de04 d7bd 5354 883d 44f7 9ebc e01d 933d
00000120: 6042 093d 031e c03d c38a aa3d 03e4 ee3d
00000130: f93f 5abd 763f 9d3d 712e 99bb 6503 ba3d
00000140: 50ff 9bbd ecfe cd3c b730 c8bd 7269 85bd
00000150: f67a c83d 6b33 e33d f06c 28ba 18c1 a73d
00000160: 7f90 a5bd fd13 b2bd 4e4d e4bd ad94 c1bc
00000170: 4a6e 96bd 915e 5e3d bbe3 87bd b684 dfbd
00000180: e8da da3d aa9b 8fbc d9a7 0fbd 84c1 9b3d
00000190: 567d c33d 5a7d a23d 8674 a3bd e8e3 b3bd
000001a0: 8211 80bd 4221 57bd ab76 1d3d 4ad0 403d
000001b0: ba65 18bd ac60 4dbd 305c cc3d 48ef b1bd
000001c0: 10f3 a33d 99dd c73d e6bf e0bd 587e 263d
000001d0: d840 babd 2aa6 c63d dbcd 1fbd 3957 cfbd
000001e0: eb85 c6bd 6360 923d 94a7 b8bc b725 a73d
000001f0: 7e98 67bd 2662 cdbd 82a2 3a3d adf8 183c
00000200: e9d0 b13d 3012 183d d3ae 863c 9910 dfbd
00000210: ebd8 603d 4557 8fbc fef0 913c 55ca d2bc
00000220: c094 06bd 6b6d e93d ea7d 7abd 960f 733d
00000230: fb87 d63c 23b7 263d 80b8 c53c 218d 42bd
00000240: fcce 8f3d 58f0 89bd a26c d9bd 9444 243d
00000250: d03c 5fbd f307 05bd 5f1d 653d a856 b9bd
00000260: 4963 87bd 3a64 673d 43c9 523c 19f0 f5bd
00000270: c9cb 063d f670 1fbd e39e ca3d ea32 babd
00000280: 1002 8f3d 5736 003d 31e2 d73d 8a52 bd3d
00000290: 8126 ed3d e8f6 cdbd 31f7 0fbd d537 c0bb
000002a0: 3c42 b8bd ddfa 6cbd e03e 0ebd 0891 babd
000002b0: 28cb 0abd e323 c13d d4da e43c 8ad0 b53d
000002c0: fc13 913d 05e3 3fbd ab29 893d a8f4 ad3d
000002d0: d0f5 aabb fe7b b83d 3416 a4bc 7cd8 7cbd
000002e0: 83c8 023d fda8 ce3d d887 8e3d c834 df3d
000002f0: 28ba cb3d af6f 66bc 43a3 7e3d 2911 5ebc
00000300: 4a1b 65bd 549e 1bbc 98b0 6bbc 6204 733c
00000310: 92a9 9ebd bf14 4abd 2443 dd3d fabc 023c
00000320: de67 d5bb 91db acbd bb2b 2fbd eea1 e5bd
00000330: cd1e b23c 8218 883d def1 dbbd 930f 533d
00000340: f888 dd3d 215c cabc 529d 443d d2b4 41bd
00000350: ecf1 87bd 9897 38bd 962e df3d 7ae3 30bd
00000360: 7397 9abc 7330 d1ba 3755 e93c 147d 46bd
00000370: 13b0 0a3c d8ec debd 8a69 27bd 1681 753c
00000380: 688e ab3d 9b97 00bc 2aed 9bbd f48d c73d
00000390: 5987 c13d 1e27 efbd 576a 87bd d4f4 163c
000003a0: 6c7f 283b 469c 91bd e999 52bd 1872 b23d
000003b0: 3577 a93d 3ed8 a5bd a46e 91bd 4643 9b3c
000003c0: 05d4 d73a 1471 f0bd 4699 8abc 2617 b43d
000003d0: 240c d2bc 6324 c83d b5c2 f23d 97ed 503c
000003e0: 8f42 f63c 4165 df3c 574c 923c 175b d63d
000003f0: 8bf0 ed3c 4584 f3bd 03c8 07bd 95e9 c83b
