Results/rnn/split_2/checkpoint.pt (torch, 410658 bytes, 22 tensors)

rnn.cell.kernel_z f4 [128, 37]
00000000: ae98 d1bd 4b66 003e 3b7b 233e 676e 11be
00000010: 5ac0 3d3c 8881 12be 6ec6 0d3e 842c a83d
00000020: c68f 8abd 6bb4 e43b 3752 61be 8fdd 7abd
00000030: e5d2 2a3e 06e2 cdbd 21ea d63b 6a32 15be
00000040: aaec 0b3e c86b 43bd 71dd ecbd ac40 163e
00000050: dcea e2bd 2a0a b13d 5e6c 323e 7b82 a73d
00000060: cbba 50be fee2 47be a13a c5bd de23 ef3c
00000070: ee6b 24bd 77ca 0f3e f513 debc aab6 d8bd
00000080: b0c4 d73d 8075 a83d 85be b2bb d2f0 273e
00000090: 4dd6 bf3d afc3 d53b 0df4 003e c797 2a3d
000000a0: b0cf 37be a5b6 9bbd bb2e 5fbd 8386 d03d
000000b0: c328 cdbd 84df 2dbe e0df 25be 0e6f 06bd
000000c0: 0d1a 783e d349 283e 973b 04be f59d d9bd
000000d0: 4f72 18be ebc0 e1bd fe91 083e 6009 1a3e
000000e0: a5e9 273d 34ca 843d bf5e 683d 070b 00bd
000000f0: 179d e0bd f05b 49be 75ce 43be 1bfe 1e3e
00000100: ede3 093d edc3 40be bd97 4e3d 3b1f 08be
00000110: 9936 373e f1eb bc3d 8d15 b1bd 2c25 bfbc
00000120: bbee d43d 87aa 4d3e abfb c73d 6202 d53b
00000130: 2f4a 4dbd 77a0 39be 466b 85bd 0c33 993d
00000140: b2d3 b4bd 42ea da3c 7448 81bb 77ba 1dbe
00000150: 6221 14be b589 f53d de81 443e 741a 0fbd
00000160: ac94 debc 31bb 1f3d b7e2 4ebd 52ed f63c
00000170: 8e05 fcbd a3cb c6bd 517b e53d 4756 69bd
00000180: 3ad4 313e f607 03be 0e78 343e 15b8 13be
00000190: 9af9 0ebe 0aa1 febd 92fb 21be a737 113e
000001a0: 8bff f23d 3ce0 b5bd 6dfb d9bd 95a9 e93d
000001b0: bb29 983d 1aa2 b93b cd4f 3a3d 3257 a6bd
000001c0: 2f12 9c3d 16a8 27bd 28c2 b3bd ca08 18be
000001d0: 50b4 23be 5469 8bbb ac47 943d c2ec 7d3d
000001e0: 2f2f e83d 7e7a 533e c364 253d febb dc3d
000001f0: dc57 9d3d cfc7 473d b3e0 15be a063 7a3d
00000200: 7e21 273e 7a78 1f3d 715c bfbd 43b0 1f3e
00000210: b6fd 2fbd e378 f8bd 7dac 86bd bcbc b2bd
00000220: 10e4 d13d a99c 15be a39e 313d b6c9 b5bd
00000230: ff66 3d3e cf77 a33c cb94 8cbd 01e6 043e
00000240: 3f35 6cbd 17c9 083d f4a1 c23d e5a0 e2bd
00000250: c71f 763d a99b 563e 3628 9abd 6faa 20be
00000260: 107b c0bd 1222 a9bc 6f37 bebb 2c38 8ebd
00000270: 3a17 b1bd 0a51 043d dfae bfbd 40f7 54be
00000280: bae0 3f3e 52c4 48be 2ec7 8c3d 55f7 f13d
00000290: 1393 073e 9cba 0d3e 6f9b 273d 16f3 84bd
000002a0: 4b96 023c ab9c 3f3e 0b1e 323e 7826 2fbd
000002b0: e3ae 29bd 2a8c 033e e4a9 5c3d 51fe 2dbe
000002c0: bc97 85bd 81c1 e9bd 7867 5e3c 63e3 9fbd
000002d0: 759b 4bbe a651 163e 5737 a53d 775d 683e
000002e0: c2ae b63d 27a5 d33d fa14 e5bd 8e7b a4bd
000002f0: 38c3 27be 6cde e8bd 8f8a 03be 54ee 573c
00000300: c402 2d3e 2200 993d a8d2 2c3e 265a 9b3d
00000310: 7a6a b7bd 1032 2fbd f635 173e db0c 9cbd
00000320: 41a5 433e 8497 9abc f16c 113e 2409 6c3c
00000330: 3143 d4bd 6b9d a4bd 6589 2fbd e004 05be
00000340: ed2d f8bd 2688 063b 815a 82bd 872f ba3d
00000350: a7d4 e03d 9ecd d83c 71e9 34be 4a9d 10be
00000360: 7c3b 903d 5fcf 0e3d 5286 2cbe 5ef9 853d
00000370: 8679 4f3d ec3a 093e 8725 d3bd 8cfe b23d
00000380: 223d 513d 8d69 343e 4b6f 67bd c5d5 2c3e
00000390: 0f16 723e a50e 0dbe 71fa e83d d06a d7bd
000003a0: fbd0 463e df52 213e d5e1 29be 7e35 a1bd
000003b0: 903e 143e b389 98bd ad5c 3abe 98d4 0a3e
000003c0: 6aea 653b 8573 c73d 3d6b 42be bc0a 013e
000003d0: 4b31 003b cf99 28be b871 8a3d 531e 23be
000003e0: da88 173e 7afa 0bbc 99f2 433e 1c8b 4abd
000003f0: 76e9 18be 27e6 10be b3fd 1b3e b75f 153e
-0.102341995 0.12539022 0.15964977 -0.14202271 0.011581505 -0.14307225 0.13845226 0.08211616
-0.06765704 0.0069795153 -0.22004019 -0.06124645 0.16682012 -0.10052876 0.006558672 -0.14570013
0.13664499 -0.04771021 -0.11565674 0.14673108 -0.11079952 0.08644517 0.17424151 0.08179184
-0.20383756 -0.19520184 -0.09630323 0.029191907 -0.040141992 0.14042078 -0.027109126 -0.105817154
0.10535562 0.08225536 -0.0054548406 0.1640046 0.093670465 0.0065235714 0.12593098 0.041648652
-0.1795032 -0.07603196 -0.054487925 0.10181906 -0.1001754 -0.16979796 -0.16198683 -0.032820754
0.24228688 0.16434412 -0.12913357 -0.10625831 -0.14887355 -0.11023124 0.13336942 0.15042639
0.040994305 0.0648388 0.056730982 -0.031260516 -0.109674625 -0.19663978 -0.19121726 0.15526621
0.033664633 -0.1882474 0.050437678 -0.13293163 0.17891921 0.0922469 -0.086466886 -0.023333155
0.10397097 0.20084582 0.09764799 0.006500528 -0.050119575 -0.18127619 -0.065146014 0.074804395
-0.0882944 0.026723031 -0.0039454047 -0.15403162 -0.1446586 0.11989156 0.19190165 -0.034937337
-0.027170502 0.03899688 -0.05050918 0.03014246 -0.12305747 -0.09706809 0.11205161 -0.056967046
0.17366114 -0.12796006 0.17623922 -0.1442569 -0.13962403 -0.124330595 -0.15818623 0.14181386
0.11865147 -0.0888066 -0.10643659 0.11409298 0.074298345 0.005665076 0.04548626 -0.081221
0.07620656 -0.040931784 -0.08777267 -0.14847103 -0.15986753 -0.0042544995 0.07240233 0.061993368
0.113371246 0.20652196 0.040379297 0.10778044 0.076827735 0.048774537 -0.14636497 0.061130166
0.1632137 0.038933255 -0.09343804 0.15594582 -0.042966567 -0.12132432 -0.06575868 -0.087274045
0.102485776 -0.14610542 0.04336418 -0.08876364 0.18496321 0.01995459 -0.068643175 0.12978365
-0.057667967 0.0333949 0.09503546 -0.110658444 0.0600889 0.20957817 -0.07527201 -0.15690015
-0.09398472 -0.020646129 -0.005804948 -0.06944308 -0.08647008 0.032303847 -0.09359526 -0.20797443
0.1873807 -0.1960614 0.06873928 0.11814753 0.13239698 0.13840717 0.040919717 -0.064916775
0.007970403 0.18712108 0.17394273 -0.042761296 -0.04142655 0.12846437 0.053872958 -0.16991545
-0.06523082 -0.11413861 0.013574474 -0.078070424 -0.19883521 0.14679584 0.08067196 0.22691904
0.08920051 0.10334235 -0.111856416 -0.08031379 -0.16383064 -0.113705486 -0.12845825 0.01317938
0.16895586 0.074707285 0.16877234 0.07585554 -0.08955856 -0.042772353 0.14766678 -0.076196395
0.19106008 -0.018871076 0.14201714 0.014406476 -0.10364378 -0.080378376 -0.04285564 -0.12990141
-0.12118135 0.0020527928 -0.063649185 0.09091096 0.1097806 0.026465233 -0.17667176 -0.14122501
0.07042596 0.034865733 -0.16848114 0.06541704 0.050653003 0.13401383 -0.10309892 0.08739957
0.05108369 0.1761839 -0.05650262 0.16878422 0.23641227 -0.13775118 0.11375893 -0.1051842
0.19415657 0.15754269 -0.16590054 -0.07871531 0.1447699 -0.07448139 -0.18199416 0.1355766
0.0035082349 0.097388305 -0.1898622 0.12601751 0.001956063 -0.16464923 0.067599714 -0.15929537
0.14798298 -0.008543605 0.19135512 -0.04944907 -0.14932808 -0.14150296 0.15233497 0.14587294

rnn.cell.kernel_r f4 [128, 37]
00000000: 5ca9 b9bd 2961 113e e355 8bbd 37f6 43be
00000010: a1cb 07be 1b5c 27be 1cc7 63be ed6e 0abe
00000020: c302 ab3d 52e7 5ebd d9a4 e33d a0c6 1dbe
00000030: ab9d ad3d c7e8 e73d aa0b be3c 2021 4fbc
00000040: 95e9 3d3e c783 003e 708a 153e 84a6 d9bd
00000050: 54c6 35be 678c 083e 23a0 0f3e 0d87 b03c
00000060: 1ae2 633e f425 27be 38c2 203e 9b2e 0bbe
00000070: b6a5 cabd 869c 213e bcff d3bd 81d3 babd
00000080: 28d8 86bd 8d81 973d 9d14 c33d 690b 2cbe
00000090: 501a df3d da27 b1bd 2f30 d6bb 772d 003e
000000a0: 9bc6 0fbd efff 24bd aecd 8a3d 920b f1bc
000000b0: 3881 65bd 7aaf efbc 56d5 d0bd 5387 813e
000000c0: fa8f 88be 6a43 1e3e 9746 293c e3f1 45bd
000000d0: 414c d63d d20c 013e 2c1b bbbb 253c 36be
000000e0: 57fe b2bd 0aa6 00be 945d 10be eee6 82bd
000000f0: 8e59 b6bd d339 9cbd f77e fd3d 027b 22be
00000100: a70c f33c 8c06 3f3e 2f39 1cbd f424 2abd
00000110: 4489 a43d 3c7c 9ebd 20d1 273e 8df0 73be
00000120: 3430 d4bd 2683 f43c 0beb 0ebd db6d be3b
00000130: 8fbb 1f3e b5a0 a63b 29b7 bb3d 920f 213d
00000140: f7d8 243d ad2a 93bd 82d7 ecbd 1cec b33d
00000150: e5d5 fdbd ba6d 2d3e 6779 9bbd fb94 b1bd
00000160: 3855 013e 3f83 063e f054 79bc 5657 01be
00000170: 73e0 c33d 3243 04be cdc8 2d3e 2647 8a3d
00000180: e72b 133e c800 ec3d 5639 4b3d 79ba 373e
00000190: d560 3ebd 296e 04be 9459 2c3e ce4b d63d
000001a0: 82d5 d03d 6707 26bd 9255 db3b fe62 3abc
000001b0: fc1e b63d b6de 293d 33cd f3bc 84d5 81bd
000001c0: b9fb 06bc 93ab ebbd c7c9 4fbd ffae f0bd
000001d0: a200 7a3d 8817 cf3d 9b0d a8bd a48d 223e
000001e0: 61af 393e 5ab2 993c c0cc c13d fb6a 1fbe
000001f0: a977 0c3e f1d4 343e 2c53 973c 81da 1fbe
00000200: 8a09 aa3d 16df 0c3e 05dd cfbd c60e 46bd
00000210: b7d6 1fbe 2668 99bd 0cad c1bd 86c9 81bd
00000220: fc5d 95bd 0578 bbbc 251a 46bd 07b0 ce3d
00000230: e7da 0fbe 804b 1f3d 6046 f3bd 2013 02be
00000240: 9bcb 1f3e 763b 433d f75f 2cbe 0904 ddbd
00000250: 9889 16be 073d c2bb 0f86 71bd 4273 c43d
00000260: 0d2e 1ebe 24e2 513e c2d7 1d3e 0eaf 1ebe
00000270: b547 28be a6d2 203d c7d2 1b3c 7985 06be
00000280: 2aaa 213e 4138 24be 0099 2d3d f7cf 433e
00000290: 13c9 9e3d f9ac 223e 3843 11be 45c3 0a3e
000002a0: 922f 0cbe 7892 5d3d 93d8 833d 250a 17bd
000002b0: 9b73 003e e216 89bd b792 cbbd f1dc 0cbe
000002c0: 4d33 6a3c 61a7 51be fd37 7bbd 606e 4bbe
000002d0: ce77 fdbc a5ff 71bd 64b7 fbbd f61c 17be
000002e0: 542f 29be 7174 42bd fff6 21be 65a9 1f3e
000002f0: a81d b8bd c26f 82bd db36 5ebe 6a6b 8cbd
00000300: 84ed 3e3d af3c 35bd 5fed 02bd 6e9e c0bc
00000310: f818 e0bc b8c8 d0bd d0fa 473d 7884 a23d
00000320: 5a90 f2bd 220c d8bd 606c 36be 664d 043e
00000330: 178e 21be ac9e d0bd 3b8b 96bd de7a ef3d
00000340: 4d87 c43d d9ef 103e 345e ff3d c880 b6bd
00000350: 8c04 0b3d 23c3 07be fc0b cabd 8ca3 373d
00000360: 36fa 91bd ace5 013d 29ea 98bd 7055 a83d
00000370: 96e0 243e 6c83 a4bd 2fbc 0d3e 7d13 33bd
00000380: 39f8 443e 8483 b2bd 375b b83d b525 3a3e
00000390: f256 973d a18c 12be 4288 0a3d 13f3 a23d
000003a0: 9892 18bb 5963 903d 99c4 273e c85d 443d
000003b0: 7159 363c 178f 263e b73c 3f3d c210 aebd
000003c0: ebed f53c 9013 a1bd 3044 cbbb c2ab 553d
000003d0: 6944 b3bd 7ea0 b73d a3d0 2dbe a2ec cc3d
000003e0: fb18 d8bd 5b9a 853d 3331 36bb 0207 2ebe
000003f0: de61 9cbd 079d 3d3c b346 38be 0f1f 0fbe
-0.09065506 0.1419722 -0.06803491 -0.19136892 -0.13261272 -0.16343729 -0.22243923 -0.13518877
0.08350136 -0.054419823 0.111154266 -0.154078 0.084773384 0.11323696 0.023198921 -0.012642175
0.18546136 0.12550269 0.14603591 -0.106274635 -0.17751437 0.13334809 0.14025931 0.021548772
0.2225422 -0.16323072 0.15699089 -0.13591997 -0.09894888 0.15782365 -0.10351512 -0.091223724
-0.06584197 0.07397757 0.09525416 -0.16801228 0.108936906 -0.08650179 -0.0065365057 0.12517343
-0.035101514 -0.04028314 0.067775115 -0.029424462 -0.056031436 -0.029258478 -0.101969406 0.25298557
-0.26672345 0.15455404 0.010331771 -0.048326384 0.10463763 0.12602547 -0.0057100262 -0.17796381
-0.08739918 -0.12563339 -0.14098197 -0.063917026 -0.089038 -0.076282166 0.12377732 -0.15867236
0.029669119 0.18654841 -0.038140472 -0.041539147 0.08033994 -0.077385396 0.16388369 -0.23822232
-0.103607565 0.029847693 -0.034892123 0.0058114356 0.15598892 0.0050850757 0.091657944 0.03932149
0.040245976 -0.07185874 -0.11564542 0.08785269 -0.12394313 0.16936389 -0.07591515 -0.08670994
0.12630165 0.13136004 -0.015218005 -0.12630972 0.09564295 -0.12916258 0.1697113 0.06751852
0.14372216 0.115235865 0.049615227 0.17942227 -0.046479065 -0.12932648 0.16831046 0.10463677
0.101969734 -0.040534403 0.0066935504 -0.011376141 0.088926286 0.04147216 -0.029760933 -0.06339553
-0.008238726 -0.115073346 -0.05072954 -0.11752128 0.06103576 0.1011191 -0.0820572 0.15874344
0.18133308 0.018761802 0.09462881 -0.15568154 0.13717522 0.17659356 0.018472277 -0.15610696
0.08302601 0.13756976 -0.10149578 -0.048353933 -0.15609251 -0.07490568 -0.09456834 -0.06337266
-0.07293317 -0.022884378 -0.048364777 0.10092168 -0.14048348 0.03889036 -0.11878657 -0.12702608
0.15605013 0.04766413 -0.16833483 -0.10791785 -0.14700925 -0.005927685 -0.05896574 0.09592296
-0.15447254 0.20496422 0.15414336 -0.15496466 -0.16433604 0.03926339 0.009510702 -0.13136853
0.15787569 -0.16037084 0.04238224 0.19122301 0.077531956 0.15886296 -0.14185798 0.13551052
-0.13690022 0.05409476 0.06437793 -0.03687491 0.125441 -0.06693818 -0.09940093 -0.13756157
0.014294458 -0.20474006 -0.06133269 -0.19866323 -0.030940916 -0.059081692 -0.12290838 -0.14757141
-0.1652196 -0.04747433 -0.15816878 0.15591963 -0.089900315 -0.06368972 -0.21700613 -0.06856425
0.04661323 -0.044247326 -0.031964656 -0.023513045 -0.027355656 -0.10194534 0.048823178 0.07935423
-0.11843939 -0.10549189 -0.1781478 0.1292015 -0.15776859 -0.10186514 -0.07350775 0.11693357
0.09596119 0.14153995 0.1246914 -0.08911282 0.033939883 -0.13258033 -0.09865567 0.044833705
-0.07127802 0.031713173 -0.074665375 0.08219421 0.16101298 -0.08032879 0.13841318 -0.043719757
0.19235314 -0.08716491 0.09001773 0.18178447 0.073896304 -0.14311458 0.03382135 0.07956519
-0.0023280736 0.07050199 0.1638359 0.047941 0.011129723 0.16265522 0.04668876 -0.0849929
0.030020675 -0.078650594 -0.006203197 0.052165754 -0.087532826 0.08966158 -0.1697412 0.100060716
-0.1055164 0.065235816 -0.002780032 -0.16994861 -0.07635854 0.011573083 -0.1799572 -0.13976692

rnn.cell.kernel_h f4 [128, 37]
00000000: e33f a4bd e1ce b33b b4de e83d 5e85 ad3d
00000010: 7948 24be efa3 ea3d 1cf6 14bd c4b2 083e
00000020: 7a28 f53d b2b2 2a3e 97af 0bbe 7c9d 19be
00000030: 703b 413e 4c41 8c3d b945 193d ac24 e6bd
00000040: f497 ffbd ca3a 193e 30bc dfba 1f69 a33d
00000050: 9360 043c b570 3b3e f0b2 14be 7052 5ebd
00000060: d59f 3c3e a52f e13d d44d a8bc 3ac6 f5bd
00000070: 26eb 323b 8c6a a3bd 95ba 203e 626c 353d
00000080: f88a 94bd 0637 2abe 7b29 393c 7711 cabd
00000090: 385a 4bbd e253 b83d 159a 533e 53fc f73d
000000a0: c499 dcbb 3639 41bd 911f ae3b cd4f 12bc
000000b0: e71b f93d 0c47 2ebe 5e3b 0b3e 297e d03b
000000c0: dfef 7e3d 1a31 28bd 0995 553c bbee 2fbe
000000d0: 6d5c b5bd 74be 243d 6178 e03c 7907 583e
000000e0: 7bbc a6bd 2b7c 3d3e 7718 d7bd 1b24 17be
000000f0: d1f4 903c ab99 923d 1276 5e3d 7ce9 933d
00000100: e51a a43d a7e8 0ebe feea 9b3c 54d5 013e
00000110: 818a 0fbe a771 0b3e bffc 0f3e a9bd 903d
00000120: c049 983d 7a8a 96bc 7ab3 70bd 05a1 e03d
00000130: ec83 8ebd a113 45bd 7f3a 60bd ee54 193e
00000140: 7eaf 053e 21d1 123e cc9d 283e 1aeb bdbd
00000150: 15c2 febd 1fd7 47be 01ed 223e b3b6 143e
00000160: 3a25 b93d 4dc3 c13d b1f7 2dbe decc 2fbe
00000170: 5169 92bc ccbb df3d f020 eb3d 946f 0f3e
00000180: 68d4 cebd 24f9 b03d f993 e53d be59 08be
00000190: 80a2 f4bb e74e 25be 5954 56bd b2d3 1d3e
000001a0: 7d75 613d 46e0 9c3d 1fec f4bd 9d96 10bc
000001b0: de60 ef3d 5900 653b da91 33bc 8e7e c7bd
000001c0: d473 17be dd9f d63d 2f25 15be 2bfc 243e
000001d0: 8cbf 273e 13ac bf3d 43ec 953d 2519 c53d
000001e0: 5ab7 e4bd 30e2 9b3d 22a7 efbd 45b2 35be
000001f0: 83c2 e0bd 41ac 0abe 9706 d83d 693b 9f3d
00000200: 5017 44bc 43d6 d13d 05a3 c1bd 1a68 403e
00000210: 0cac a23d 3a23 c53d 49b1 033e 7c51 24be
00000220: 0632 4a3d 6d05 d3bd a188 df3d 2b19 a2bd
00000230: 3411 9639 d025 ffbd eba9 2bbe 5205 6c3d
00000240: 4cb8 0abe 3457 3dbe e416 103e 621c 29be
00000250: 28b0 013c 2002 29be e9f6 d03d 1499 253e
00000260: d40e 283e 4cf9 4e3d ffc7 2fbd 54f4 9a3d
00000270: 0a61 053e f71f d83d b65b 7ebd e3d4 593e
00000280: 5569 c5bc bca3 d63c 30c6 0bbe 66f1 da3d
00000290: d3ea dabd 0e86 0fbe d0b9 9abd 637c 0e3e
000002a0: b075 093a f44e 673d 3cac ef3d 6a64 f33d
000002b0: 41ef 893b bbe2 a6bc 4336 d3bd f135 1f3e
000002c0: eab4 e7bd 80f4 d2bd 7a71 f1bd 07e1 0cbc
000002d0: 8282 26be 05b9 0a3e 86b5 cbbd 6f49 28be
000002e0: 8e90 36bb 963d 093e d83d 42bd 1dd8 783c
000002f0: fc2c 8cbc 2950 38be c5af 89bd a4de babd
00000300: 5cf7 07be 98ea 293e bc9f 95bd 1860 b93d
00000310: 9bc7 193e da07 6bbd 754c 3bbb 1eed a2bd
00000320: e66c de3c 6dbb 1d3e fb05 473d 5a0b d6bd
00000330: df77 88bd 3ba2 2a3e 75b6 03bd 835d 213e
00000340: a5d5 e1bb 9299 92bd 4ee5 2bbe 301e 9a3d
00000350: 9060 063e e2c4 df3d dd51 41be 0fc7 0dbe
00000360: d1dc 6ebe e852 3ebd e694 473e 5347 14be
00000370: 1d8e 9c3c 83d5 36be 1922 b9bd 1102 a63d
00000380: 4fb4 86bc 0362 4ebd 0c71 c73d 6ec4 61bd
00000390: 2532 c23d fb5b 33bc 7541 1ebe 4f3b 4fbd
000003a0: 3c60 0b3e 586b 27be c5cc 113d 9baa 023e
000003b0: 7356 063e 2324 4bbd 4c38 043e 86ad 853d
000003c0: 39a8 32be 0f9a 27be 89f2 c53d dffa 833c
000003d0: ca15 603d 0c6d 2bbe 0430 62bd 3e46 0ebe
000003e0: baec 243e 9c3c 26be ab9b 89bd 3c7f a23d
000003f0: 9af5 b8bd 0bfb b23d c1bc 04be 4162 df3d
-0.08019998 0.0054873084 0.11370602 0.084727034 -0.16043271 0.11457049 -0.03636752 0.13349444
0.11970611 0.1666973 -0.13641201 -0.15001482 0.1887033 0.06848392 0.03742001 -0.11237463
-0.12480155 0.14963832 -0.0017069634 0.07979035 0.008079666 0.18304713 -0.14521384 -0.054277837
0.18420346 0.109954156 -0.020544924 -0.12000699 0.0027300804 -0.079793066 0.15696175 0.044292815
-0.07253069 -0.16622552 0.011301394 -0.098666124 -0.049646586 0.090003744 0.20664246 0.12108674
-0.0067321975 -0.0471737 0.0053138216 -0.008930159 0.12163525 -0.1701929 0.13596866 0.0063626957
0.062240478 -0.041062452 0.013036021 -0.17180912 -0.088555194 0.040220693 0.027401151 0.210966
-0.081414185 0.18504398 -0.10502713 -0.14759867 0.017694863 0.07158216 0.05431182 0.07222268
0.08012942 -0.13955937 0.019032951 0.12679034 -0.14017679 0.13617574 0.14061259 0.07067425
0.07435942 -0.018376578 -0.058764912 0.10968212 -0.06958756 -0.048114423 -0.054743286 0.14973804
0.13055226 0.14337589 0.16466445 -0.09273358 -0.12439362 -0.19515656 0.15910722 0.14522819
0.090403035 0.09461079 -0.16989018 -0.17167994 -0.017872484 0.10924491 0.11480892 0.14007407
-0.10099107 0.0864127 0.11209864 -0.13315484 -0.0074656606 -0.1614338 -0.052326534 0.15412787
0.055043686 0.07659964 -0.11959099 -0.0088249715 0.11688398 0.0034942834 -0.010960067 -0.09740935
-0.14790279 0.1047971 -0.14564966 0.1611182 0.16381663 0.093589924 0.07320454 0.096239366
-0.11167784 0.07611501 -0.117018 -0.17743786 -0.109746 -0.13542272 0.10548132 0.077750035
-0.011968449 0.10245945 -0.09454922 0.18789712 0.079429716 0.096258596 0.12860598 -0.16046709
0.049364112 -0.10303769 0.10914732 -0.07914957 0.00028623047 -0.12458384 -0.16764037 0.05762226
-0.13546866 -0.18490297 0.14071232 -0.16514733 0.007915534 -0.16504717 0.102033444 0.16171676
0.16411906 0.050530717 -0.04291534 0.07566133 0.13025299 0.10552972 -0.06209918 0.21272616
-0.024098078 0.026201122 -0.13649821 0.10690574 -0.106893204 -0.14015982 -0.07554972 0.13914637
0.0005243672 0.05647178 0.11702773 0.11884387 0.0042094295 -0.020371785 -0.10313084 0.15547921
-0.113138035 -0.10300541 -0.11789222 -0.008598573 -0.16260722 0.13547142 -0.09946732 -0.16434263
-0.0027857157 0.134024 -0.04742226 0.015188244 -0.017111294 -0.17999329 -0.067229785 -0.091244966
-0.13277954 0.16593397 -0.073058575 0.090515316 0.1501755 -0.057380535 -0.0028579507 -0.07955383
0.027151536 0.15403529 0.048589688 -0.10451384 -0.066634886 0.16663449 -0.032156426 0.15758328
-0.0068919235 -0.071581975 -0.16786692 0.07525289 0.13122773 0.10926224 -0.18878885 -0.13845466
-0.23326422 -0.046465784 0.19490394 -0.14480333 0.019110734 -0.17854886 -0.09039707 0.08105863
-0.0164434 -0.05038644 0.09738359 -0.05511897 0.094822206 -0.010947223 -0.15454657 -0.05059367
0.13610929 -0.16349542 0.035595674 0.12760393 0.13118915 -0.04959501 0.129121 0.065272376
-0.17446984 -0.16367362 0.096654005 0.016110836 0.05470828 -0.16740817 -0.055221573 -0.13893983
0.16105929 -0.16234058 -0.067191444 0.07934424 -0.0903122 0.08739289 -0.12962629 0.10907412

rnn.cell.recurrent_kernel_z f4 [128, 128]
00000000: f358 363d 8ade 0e3d 7055 cc3d dbb5 683d
00000010: 891d 2abd 7339 363e 823c 013d 30bd 75bc
00000020: 8f6d 0dbd c7c7 fd3d 1850 413d afaa c03d
00000030: e516 a23d f8f5 833d 0cc2 363e 3221 073c
00000040: 7d7a b5bd 8f3a 783c e996 c83d aa68 f8ba
00000050: fbe1 22bd cf55 7dbc b70a 593d 6367 a93d
00000060: f1bc d3bb 3db8 b5bd 6017 1ebe 56ee f63c
00000070: 4aa8 f0bd be1f 0f3e 3440 10be b708 443d
00000080: 8711 283e e203 bfbd 6258 05be d0aa 15be
00000090: 7e16 0f3e ce17 fabd c398 e13d c37c 3ebd
000000a0: 447e 0c3e 420b cf3d ded0 c03c 09e0 db3d
000000b0: 257b 57bd 8f79 19ba 2e25 453c d67c 1c3e
000000c0: 6314 4abe d490 123e e4c2 64bd 35b5 fcbd
000000d0: 560c e93d b9fd 353d 223c 39bd ca64 c33d
000000e0: bb7e b73c 55ad a53d 5275 913d cee8 843d
000000f0: 0087 31be 4fb3 13be f8be 8ebd daf3 03bd
00000100: 6801 f9bd c255 303e 1eaf e03d 88b9 2c3e
00000110: e107 37bd c3e3 7e3d 13a8 44bd e0f2 0e3e
00000120: c1b8 f7bd a068 a53d 5d7f 043e daed 09be
00000130: d590 123e 2792 cc3d 32c4 9f3d e3c5 0e3e
00000140: 23d7 9fbd 610a 883b 11df 01be 28ec 0ebe
00000150: 9f4c cf3d 3357 ff3d b0d3 d5bd 53e7 a1bd
00000160: b327 083e 2a4b d73c f675 f73d 0a03 cebd
00000170: 599b a33c 8eea 153b f679 713d 46d2 9e3d
00000180: 3988 fe3d 4963 09bc d459 f4bd 4337 dc3d
00000190: 767d 90bd 2a00 c43d 8b17 c03d 76b0 8c3d
000001a0: e387 d2bd 1e22 0cbe 653f 3abd 45f7 3fbd
000001b0: 77bd 04be 1649 80bd 53e2 51bc e12f 07be
000001c0: c5b7 4cbd ac92 a63d 5d13 c73d 2e12 80bd
000001d0: 5937 473a 4b20 73bd 48b1 003e a7b2 2a3e
000001e0: 9152 81bd 5b15 fabc 7602 143e a570 06be
000001f0: 610c 023e e1a1 c8bc b2da d7bc c422 0bbe
00000200: dfaf 27bd b8ed cbbd b813 06be b66f 983d
00000210: 1afb 1ebe 0767 96bd 2af6 9f3d 0d69 66bd
00000220: 05e1 bd3d 0fe9 073e 8b47 863b 662f 683c
00000230: 0967 a6bd c9af dfbd 5345 cf3d 94e7 2bbe
00000240: 3dba 0ebd 0d51 ccbd c4ae 1c3d 15d2 20be
00000250: 30e9 663d 2771 bcbb 16bc ce3d 0989 8dbd
00000260: 97dc 193d a48e 013d 2825 dd3d 482b 11bc
00000270: 10ab 123e 3ef7 aabd e52c bfbd 96d4 fe3d
00000280: 3e9c 82bd 83df b0bd 8c8c 303e 3500 a6bd
00000290: 4aa2 1bbd 3910 eabc d375 f93d a8d4 393e
000002a0: 82ef c0bd ef3f bc3d 68af 623d 0ce0 44bc
000002b0: 1f0a 39be cf4f 0d3e 7b24 e5bd 3b81 b7bc
000002c0: 8b7c 8e3d bc28 eebd d4b5 93bd 954d 00be
000002d0: de15 fc3d 045e cabc 4365 febd e18e 1bbd
000002e0: a40a 163d 4fcd 51bd 8f4d 25be 2582 8bbd
000002f0: d78e df3c 7494 28bd 80c5 ecbc 11d8 bf3c
00000300: b68d 03be e207 d13d b7fb 0cbe b038 ac3d
00000310: b171 c43c 2a6b 82bd 0d07 8c3d d4fc 0b3d
00000320: 3c07 183d b6fb 7ebd 233c 163d ff0f 2cbc
00000330: 896b c0bd ec9d d93d 797e 333d 5a25 0cbe
00000340: 991b d33d 2dc4 a4bd 1a27 dbbd 6575 f33d
00000350: 939c d9bd 14d5 50bd e8dd febd c710 fdbd
00000360: 051e aebd 650c 083e b578 86bd 8b2b f63d
00000370: fd68 9e3d e24b bebd 556f c0bd 0baf 06be
00000380: f1cc 863d 7957 aebd 3877 36bd abd5 29bc
00000390: 161e 15be 3109 8abd facb 8dbb 0883 293d
000003a0: f488 f1bd 9245 d8bc dddf 60be d2d7 9ebd
000003b0: ba4c ccbd a027 903d a6f0 2ebe a005 ee3b
000003c0: 9082 14be 64d9 0d3e 2428 e9bd 7084 debd
000003d0: 7b9b 563c a955 57bd 4a14 da3d 89ee 00be
000003e0: 0737 243e bb87 bb3d 5aa8 03be 9707 f93d
000003f0: af63 2abe 0d41 adbd b518 a43d 38e4 bb3d
0.044518422 0.0348802 0.099772334 0.056814056 -0.041532073 0.17795353 0.031551845 -0.014998719
-0.03452831 0.1239162 0.047195524 0.09407555 0.07914523 0.06443399 0.1784746 0.0082476605
-0.088612534 0.01515068 0.09794409 -0.0018952091 -0.039766293 -0.015462353 0.052988734 0.082716726
-0.0064617326 -0.08873031 -0.15438604 0.030142944 -0.117508486 0.13976952 -0.14086992 0.047859874
0.16412936 -0.093269125 -0.13021997 -0.14615941 0.13973424 -0.12211572 0.11015465 -0.0465057
0.13720042 0.10109569 0.023537096 0.10736091 -0.052607674 -0.00058546005 0.01203279 0.15281996
-0.1973434 0.1431306 -0.055849925 -0.1233925 0.11379306 0.044431422 -0.045223363 0.09540708
0.022399297 0.08089701 0.07102455 0.064897165 -0.17336655 -0.1442387 -0.06970018 -0.032214977
-0.12158471 0.17220214 0.10970901 0.1686765 -0.04468525 0.06222893 -0.04801185 0.13959837
-0.12095786 0.08076596 0.1293921 -0.1346964 0.14313062 0.09988814 0.07801093 0.13942675
-0.07804706 0.004151628 -0.1268275 -0.13957274 0.10122036 0.12467804 -0.10440767 -0.0790545
0.13296394 0.026280958 0.12083046 -0.100591734 0.019971536 0.0022875401 0.0589542 0.0775495
0.12428326 -0.008385488 -0.11931196 0.10752728 -0.0705518 0.09570344 0.093794905 0.06869595
-0.102798246 -0.1368489 -0.045470614 -0.046866674 -0.129629 -0.0626394 -0.012810308 -0.13201858
-0.049979944 0.08133444 0.0972049 -0.062534675 0.0007599495 -0.05935697 0.12567627 0.16669713
-0.063145764 -0.030527761 0.14454064 -0.13128908 0.12700035 -0.024491252 -0.0263494 -0.13587481
-0.040939208 -0.09957451 -0.1309346 0.07443182 -0.15525475 -0.0734387 0.07810624 -0.056252528
0.09271435 0.13272499 0.004097884 0.014171457 -0.08125121 -0.109222 0.101206444 -0.16787559
-0.03484558 -0.09976397 0.038252607 -0.1570514 0.05637473 -0.0057507935 0.10094468 -0.06910903
0.037563886 0.031630173 0.107981026 -0.008860417 0.14323068 -0.08347939 -0.09334735 0.12442891
-0.06377457 -0.086363815 0.17241114 -0.08105508 -0.037996568 -0.028572189 0.12180676 0.18147528
-0.094206825 0.09191882 0.05534306 -0.012016308 -0.18070267 0.13799976 -0.11188599 -0.02240049
0.069573484 -0.11628863 -0.07212415 -0.12529595 0.12308858 -0.024703033 -0.12421658 -0.037978057
0.03663124 -0.05122119 -0.16142868 -0.068119325 0.027289791 -0.0411572 -0.02890277 0.023418458
-0.12847027 0.10206582 -0.13767897 0.0840925 0.023979994 -0.06368096 0.06837282 0.034176663
0.037116274 -0.06225177 0.036678445 -0.010501861 -0.09395511 0.10625824 0.043821786 -0.13686123
0.10307998 -0.0804523 -0.107008174 0.118876256 -0.10625567 -0.050984457 -0.12444669 -0.12356716
-0.085018195 0.13285978 -0.06565992 0.12020024 0.07734869 -0.09291817 -0.09396235 -0.13152711
0.06582058 -0.08512778 -0.04454729 -0.010365884 -0.14562258 -0.06740034 -0.0043272944 0.041384727
-0.117937 -0.026400361 -0.21960397 -0.07756008 -0.09975572 0.07038808 -0.17083988 0.007263854
-0.1450293 0.13852459 -0.11384609 -0.10865104 0.013098593 -0.052571926 0.10648401 -0.12590994
0.16036616 0.09156748 -0.1285719 0.12159651 -0.16639589 -0.08459673 0.08012525 0.09174389

rnn.cell.recurrent_kernel_r f4 [128, 128]
00000000: 559a d3bd 9286 1f3e 174a 063d 5ecd 15be
00000010: e54b d23d 0111 603c 65c8 e2bd c020 b13d
00000020: 02bc b5bc 3c06 723d dbb3 a13d e50b bdbd
00000030: b914 1dbe d08c aa3d 2540 c1bb 063f 4f3c
00000040: 54fa bebc 1e71 14be d89b a9bd bc82 1a3e
00000050: 161f c9bc 23e4 fabd 0250 26be 39a6 cdbc
00000060: 1ed1 953d c84f 303d 8e87 ef3d 93e1 8dbd
00000070: a8d0 b33d 7aea 103e cba7 d5bc 69bd e2bd
00000080: 280c cb3c e6a1 a7bd c6a2 f73d cc56 3abe
00000090: ee71 7bbd b71f 66bd 6fcb 203e e26d 913d
000000a0: 2305 8bbd d9ee 28be 70b2 0c3e 1e2f 4dbd
000000b0: 268f 003e 10fb 153e 56b2 163d d47c 213d
000000c0: 79f1 b03c 58fd 6abd cf88 8cbd 40a3 c5bc
000000d0: 1df1 04bd e43c 0bbc 80da 143e 9b76 943d
000000e0: 4ce8 05be 2aca e63c 95e9 97bd 2255 07be
000000f0: b5c0 dfbc 7d5c 173d d2e8 253e ae99 f6bc
00000100: 4833 7b3d 83d1 97bd 3de9 0ebd 26af ce3c
00000110: 38a6 c43d f1e5 5ebd 8275 2b3e d8f4 8cbd
00000120: 0bc7 acbd 84e2 02be b2a5 893d b6fc 1abe
00000130: 8cbb 163e b7b7 b9bc 6e4b b33d 5eb3 9c3d
00000140: 39f9 7a3c b1f5 2b3e aa46 1bbe ffe2 12be
00000150: 2a7c f03c bc0a f83d a89e 9d3d ae68 ff3d
00000160: 9c87 b83a 9405 7bbd 99cd 89bd c519 7c3d
00000170: ece8 d2bd 2458 b1bd cbfe 0abe dd20 c9bc
00000180: 1bef 06bd 30f7 c4bd c939 fbbc 4432 f2bd
00000190: 89a9 72bd 1bb1 c9bd 4edc dabd d270 0abe
000001a0: e0b4 083d a2d5 a5bd fd3f 8c3d de75 163e
000001b0: 6609 f23d 9018 02be 57cd 94bc 4ae0 a7bd
000001c0: 2ef6 903d d8d3 9f3c 57bf 3abd c78f 943d
000001d0: 4d96 14be 3cbc 993b 005c ebbc ee57 2a3d
000001e0: 610f 153e 3201 1a3d 22b0 cebc 89e6 0ebe
000001f0: 9430 523c 9bdd 023e 7a03 ff3d 4f69 ddbc
00000200: 1d3e 97bd 4f3f f53c 903f 0ebd b509 143d
00000210: 13d5 afbd 1d95 d93d 3439 6b3d c466 7a3d
00000220: 83af 23bd acfd 0dbe 05ba 0f3e c8a9 873c
00000230: ca97 0e3d afba efbd 1bc8 103e 2d30 8e3d
00000240: 1a7a 0bbe 285c a13d 373a d63d 9972 b5bd
00000250: 8efc d93d 1a24 c9bd d293 cc3c bc4b e83c
00000260: c5d9 fe3d 79cf 01be f041 e63b 0435 2c3c
00000270: aae9 0a3e be02 04bc 2516 00be 3b28 cdbc
00000280: 41c7 e83d 7142 bd3d 0fa4 953d 9441 84bd
00000290: bc97 993c 12ff ef3d c517 9b3d 1322 da3d
000002a0: 99b2 d63c 28da 91bd 2c3b 8b3d 0efc 9bbc
000002b0: f790 bcbd 38a1 153e 7a04 19be 6b4b 0bbe
000002c0: a4de 1a3d fa13 8abd bc25 0a3e 5889 0abe
000002d0: 9d15 3f3d 6599 cf3c 3ea8 c43d eaf7 2b3d
000002e0: 4691 7dbd 2ff1 b73d 2040 a13d 6409 22bd
000002f0: e45f ca3d 237b 4cbd 7555 80bd 731a 4dbd
00000300: 28cc e5bd 517b 7fbd 634b 8fbd e2a6 813d
00000310: 50ba ebbd 5b8c 09be 20ea 833d ae70 22bd
00000320: ed18 9aba 66cc 8c3d 8c9b 1d3e 1dce 9b3d
00000330: 6b10 61bd 26d7 55bd 1f1d 9e3c 334f ecbd
00000340: 0abc 6abd a484 c3bc deea dabd da2e b8bb
00000350: aa91 92bd cb48 d8bd aba9 87bd afce 90bd
00000360: 2ab2 743d 043d 183e b7f9 f43d 6337 0bbd
00000370: a17c 3fb8 ede0 03be e396 d03b eb1f 2a3e
00000380: d757 903d 5d32 9fbc d83a 47bd eafc 11be
00000390: ff77 19bd 75df 64bd eb04 abbd b142 bfbd
000003a0: f8c0 10be e939 083e 2773 dbbd 8c97 033e
000003b0: 6bfe 8dbd f0d1 df3c a15d 29be 5a0c c83d
000003c0: 4b2f 9f3c 5563 93bd 3f93 13bd 1063 d83d
000003d0: f662 b2bd df03 02be 3d80 a3bd 6b08 16be
000003e0: fab2 e7bc be75 24be 477e 0d3e df88 1bbd
000003f0: 6af4 72bd fd7b 6e3d cd60 773d b5c8 b63d
-0.10332171 0.15578678 0.0327855 -0.14629123 0.10268382 0.013675929 -0.110733785 0.08648825
-0.022184376 0.059087977 0.07895633 -0.09230784 -0.15339936 0.08327639 -0.005897539 0.012649303
-0.023312725 -0.14496276 -0.08281678 0.15088934 -0.024550956 -0.12250545 -0.16241458 -0.025103675
0.073152766 0.043044835 0.11695777 -0.069277905 0.087800324 0.14151946 -0.026080986 -0.11071283
0.02478607 -0.081851766 0.120915934 -0.18197173 -0.06138795 -0.05618259 0.15702604 0.071010366
-0.06788089 -0.16497363 0.13739944 -0.050093763 0.12554607 0.14646554 0.03679117 0.039425686
0.021599518 -0.057370514 -0.06862032 -0.024125695 -0.032456506 -0.008498404 0.14536476 0.07249185
-0.13076895 0.028172571 -0.07417599 -0.1321607 -0.02731357 0.036953438 0.16202095 -0.030102577
0.061328202 -0.07413008 -0.034890402 0.025230002 0.09602016 -0.054418508 0.16744044 -0.06882638
-0.08436402 -0.12781721 0.06721057 -0.15135464 0.14719981 -0.02267061 0.087546214 0.07651399
0.015318208 0.16792943 -0.15163675 -0.14344405 0.029356081 0.121114224 0.07696277 0.12471138
0.0014078501 -0.061284617 -0.06728668 0.061548013 -0.102983326 -0.086593896 -0.13573758 -0.024551803
-0.032942872 -0.0961746 -0.030667203 -0.11825994 -0.059243713 -0.09848233 -0.10686551 -0.135196
0.03337562 -0.08097388 0.06848142 0.146934 0.11818199 -0.12704682 -0.01816432 -0.081970766
0.07078205 0.019510195 -0.045592632 0.07253986 -0.1451046 0.0046916287 -0.028730392 0.041587763
0.14556648 0.037598796 -0.025230471 -0.1395513 0.012828965 0.12779848 0.12451835 -0.027027754
-0.07384894 0.029937414 -0.034728587 0.03614207 -0.085855626 0.10624144 0.0574276 0.06113316
-0.039962303 -0.138663 0.14035805 0.01656045 0.034812726 -0.11705529 0.14138834 0.069427826
-0.13620797 0.078789055 0.10460322 -0.088597484 0.10643874 -0.09821339 0.02497283 0.028356425
0.1244388 -0.12676801 0.0070269033 0.010510687 0.13565698 -0.008057294 -0.12508447 -0.025043597
0.1136613 0.09241188 0.07306682 -0.064578205 0.01874911 0.11718573 0.07572893 0.106510304
0.026208209 -0.07121688 0.067983955 -0.019041087 -0.09207337 0.14612281 -0.14943114 -0.13602988
0.037809983 -0.067420915 0.13490957 -0.13528955 0.04665147 0.025341699 0.09602402 0.041984476
-0.06190612 0.08981549 0.07873559 -0.039559737 0.09881571 -0.04992212 -0.062663 -0.050074052
-0.1122058 -0.062373463 -0.06996801 0.063306585 -0.11510146 -0.13432448 0.0644114 -0.03965824
-0.0011756696 0.068749234 0.15391368 0.07607672 -0.054947298 -0.052207135 0.019300995 -0.115385436
-0.057308234 -0.023866959 -0.106893286 -0.0056208195 -0.071566895 -0.10560759 -0.066241585 -0.07070672
0.059740223 0.14867026 0.11961692 -0.033988368 -4.565402e-05 -0.12878771 0.0063656433 0.16613738
0.07048004 -0.019433195 -0.048640102 -0.14256635 -0.037467953 -0.055877168 -0.083505474 -0.09338892
-0.14136112 0.13303341 -0.10715323 0.1285078 -0.06933292 0.027321786 -0.16539623 0.09767981
0.01943173 -0.071966805 -0.036029097 0.1056577 -0.087102816 -0.12696789 -0.07983444 -0.14651649
-0.028283585 -0.1606054 0.13817702 -0.037972327 -0.059315123 0.058223713 0.06039505 0.089250006

rnn.cell.recurrent_kernel_h f4 [128, 128]
00000000: 3111 02bd 9448 f1bd 098e 013e bc86 1cbe
00000010: dbbb 883d f466 253b c1c4 933c f88c d53d
00000020: c84c 1fbd 92f1 cd3d f8f1 d8bd 1221 ca3d
00000030: 4857 063e 25f5 a83d 3dc0 aa3d ffb1 923c
00000040: beee 0b3e c568 8c3d dbc0 213e 3e87 ef3c
00000050: f08b 4c3d 28c4 f8bc f556 673d a38d 1ebd
00000060: 7b6b 31bd a0d4 a13d 390c 293d 4a99 09be
00000070: e161 fa3d cdd3 cbbd 5828 aa3d 6208 ae3d
00000080: 9932 5abd 1ea2 e5bc 6960 2c3d 6b7f 8cbd
00000090: 09e3 893d 1d43 693d c612 44bb 365d e43d
000000a0: 3f3c 79bd 936d bfbd 588c 31be ba9a ad3d
000000b0: 9b39 d8bd dc7f 123e 7f17 b3bd a4c5 26bd
000000c0: aba6 b03c 31c9 bcbd ef98 5e3d c61d 083e
000000d0: df4a e33d 92d1 e13d 639c ca3d 70b3 7abc
000000e0: 35c5 82bd 12d2 ac3d 72e1 1d3e e131 bf3b
000000f0: a6b1 c1bd 66bd 85bd 9b18 f33d 6449 263d
00000100: f853 713d 76ea b93d 9f79 003e 6340 f33d
00000110: 29ad 173e 8c0c fe3c 4972 6a3d 90b0 ecbd
00000120: 5314 713d 6f1b 86bb ae22 ed3d 7ffa 5f3d
00000130: 004b ccbc d09d 2d3c 7246 493d ecf9 5dbd
00000140: c5bd 92bd 1054 2b3e 65be 1dbe 44e0 29bd
00000150: 7c83 9c3d 527e 053e f4c0 15bb 2ab8 673d
00000160: 83de 0a3d 8395 54bd 6a28 613c 88ac 77bd
00000170: c03c c8bd 9b4e 1a3d a40a 963c bb74 1c3e
00000180: c5b4 1abd 8c05 df3d 89db 1dbe e163 45bd
00000190: ab82 91bd 2be0 843d b04c 8dbd 7bd6 143e
000001a0: c57f 12be 67aa 76bd 6fff 143d e562 e73d
000001b0: dd3f b0bd 5319 debd 0823 ccbd d509 2c3e
000001c0: 37f5 87bd b70a a3bd d459 9e3d a275 1e3e
000001d0: dc05 e0bb 7882 56bc 9716 073e d971 143e
000001e0: fb52 0a3e 531a 213d 3d4d 14be 6b14 643c
000001f0: c5cc 32bd e305 f03c 1e6e bc3d ab0c 7cbd
00000200: dc73 09be 2566 523d ae0d b63d 9537 f1bd
00000210: d502 033d 1310 9b3c 2c9a 08be a4e2 fcbd
00000220: fbcb cebd 2dde 78bc 3109 1f3e e073 0dbe
00000230: fcf8 f4bd 2872 ecbd 9cad 4fbb 90e5 9dbd
00000240: c52c 113e 6e03 60bd 817f 013e b5ab b9bd
00000250: 465a 1dbe 3dba 69bd f7cc 2c3e 5d7b bebd
00000260: 8d5d bdbd efe9 ba3d 8da5 1dbc 65b2 1bbe
00000270: ae21 0b3e e316 913d 564b b5bc 4b0b 2abe
00000280: 1c2f e93d df8e 2abc 8f37 533c c20d 0a3e
00000290: 496b 153e 82b2 563c 5c83 a23d dea6 4c3d
000002a0: 328a 823d b24a 3ebd 0aad abbd ba54 133e
000002b0: 3079 f8bd be50 c4bd 8e1a 703d 0f33 7abd
000002c0: c3b3 b03d f331 b3bd e514 a5bc 96df 6f3d
000002d0: bf51 00be 7480 283b b141 043b 3c66 6cbc
000002e0: f2ec 243e a7a5 763c bfc5 6cbd c085 4fbd
000002f0: e65e dbbd 1e9f a93d 0aa0 e93d c8ea 51bd
00000300: 71e8 34be be17 d0bd 8217 873d 0f4e 213e
00000310: 2f4b e0bc 4ae9 53bd d474 353d 8801 4abd
00000320: 0612 7e3d 0009 4cbd 63a1 773d 4f3a 5b3d
00000330: 7d85 a6bd 1ce5 77bd 92cf 0ebe f118 343d
00000340: c0f7 b43d a3e4 823c de90 6c3d f67b babd
00000350: e290 b0bd a89f a63d 641f 41bd fbe0 1b3d
00000360: 9f24 44bd 583f a8bb 59ca c13d 97fa bdbd
00000370: ddfb 8b3d 79a8 18bd 4836 abbd 0afc 9e3d
00000380: 4203 ae3c 9861 a1bd 6133 823d dd0b a53d
00000390: 6a3d 9ebd 5a90 b9bd a954 4c3d e93b 753d
000003a0: 12db edbd b595 93bd a641 17bd 91fe a43c
000003b0: a055 0c3e 483a 05be 3633 e1bd ca63 003e
000003c0: 37a9 bdbd 98f5 f13d 9215 f2bc 20de c1bd
000003d0: c109 cc3d 2c48 98bd 161a 26be d862 8ebd
000003e0: d591 f5ba cc99 303d 40ce 083e 54ac fcbd
000003f0: b193 343d 3af6 09be a286 0d3e 3f5b 76bd
-0.031754676 -0.11781421 0.12651838 -0.15285772 0.066764556 0.0025238367 0.018038156 0.10427278
-0.038891584 0.100558415 -0.10593027 0.09869589 0.13119233 0.082498826 0.08337448 0.01790714
0.13665292 0.06855921 0.15796225 0.029239293 0.049938142 -0.030366972 0.056479413 -0.038709294
-0.043315392 0.07901883 0.041271422 -0.13437381 0.122257 -0.09952507 0.08308476 0.08497693
-0.05327091 -0.028031405 0.04208413 -0.068602405 0.06732757 0.05694877 -0.0029918416 0.11150591
-0.06084847 -0.093470715 -0.17338693 0.084767774 -0.10557862 0.14306587 -0.08744716 -0.04071583
0.021563848 -0.09218062 0.054345068 0.13292608 0.11098265 0.110263005 0.0989311 -0.01530157
-0.063852705 0.08438505 0.15418032 0.0058348035 -0.09457712 -0.065302655 0.118699275 0.040597335
0.05891797 0.09077923 0.12546395 0.11877515 0.14812149 0.031011842 0.057237897 -0.11557114
0.058857273 -0.004092626 0.1157888 0.05468225 -0.024938107 0.010596707 0.049139448 -0.054193422
-0.07165102 0.16731286 -0.15404661 -0.041473642 0.07642266 0.13036469 -0.0022850605 0.056572117
0.03390361 -0.051900398 0.013742546 -0.060467273 -0.09777212 0.03767262 0.01831562 0.15278904
-0.03777005 0.1088973 -0.15415777 -0.048190955 -0.07105001 0.06488069 -0.068993926 0.14534943
-0.14306553 -0.060221102 0.036376413 0.112981595 -0.08605931 -0.10844674 -0.09967619 0.16800626
-0.06638568 -0.07961028 0.07731977 0.15474561 -0.006836636 -0.01309263 0.13192211 0.14496554
0.13508217 0.039331745 -0.14482589 0.013920884 -0.043652315 0.029299682 0.09200691 -0.06153552
-0.13423103 0.051366944 0.08889328 -0.117781796 0.031985123 0.018928563 -0.13340062 -0.12347916
-0.100975 -0.01518969 0.1553085 -0.13813734 -0.119615525 -0.11545211 -0.0031689173 -0.07709801
0.14177234 -0.05469077 0.12646295 -0.09065954 -0.15366468 -0.057062376 0.16875063 -0.093008734
-0.09246359 0.091266505 -0.00962199 -0.15204771 0.13587067 0.070844434 -0.02213065 -0.1660587
0.113859385 -0.01041004 0.012891664 0.1348181 0.14591707 0.013104083 0.07935211 0.049963824
0.06374015 -0.046457954 -0.08382614 0.1438779 -0.1213249 -0.09585713 0.058619075 -0.06108385
0.08628037 -0.087497614 -0.020151565 0.058562838 -0.12531184 0.002571133 0.0020180757 -0.014428671
0.16106012 0.015054143 -0.057805773 -0.050664663 -0.1071146 0.08282302 0.11407478 -0.051249295
-0.17666794 -0.101607785 0.06596281 0.15752433 -0.0273796 -0.051736154 0.04430087 -0.049317867
0.062028907 -0.04981327 0.060456645 0.053522404 -0.081309296 -0.06052123 -0.1394637 0.0439691
0.08836317 0.015978163 0.057755344 -0.09105675 -0.08621384 0.08135921 -0.047149077 0.038056355
-0.047886487 -0.0051345043 0.09462423 -0.09276312 0.068351485 -0.037270043 -0.08359963 0.077629164
0.021241788 -0.07879943 0.06357456 0.08058903 -0.077265576 -0.09060736 0.049885426 0.059871588
-0.1161405 -0.07206289 -0.03692784 0.020140918 0.13704538 -0.13010514 -0.10996096 0.12538067
-0.09260791 0.118144214 -0.029551301 -0.09466195 0.09962798 -0.07435641 -0.16220888 -0.06952447
-0.0018735478 0.043115422 0.13359928 -0.123375565 0.044086162 -0.13472834 0.1382089 -0.060145613

rnn.cell.bias_z f4 [128]
00000000: b079 63d3 3556 0000 0000 0000 0000 0000
00000010: 0000 0000 0000 0000 0200 0000 0000 0000
00000020: 1400 0000 0000 0000 8000 0000 0000 0000
00000030: 0000 0000 0000 0000 0000 0000 0000 0000
00000040: 0000 0000 0000 0000 8000 0000 0000 0000
00000050: 0100 0000 0000 0000 0000 0000 0000 0000
00000060: 0000 0000 0000 0000 0000 0000 0000 0000
00000070: 0000 0000 0000 0000 000a 0000 0000 0000
00000080: 0600 0100 0141 0100 0280 0000 5040 0000
00000090: d000 0000 0000 0000 d000 0000 0000 0000
000000a0: 8081 0e6d 8f7f 0000 0000 0000 0000 0000
000000b0: 0100 0000 0000 0000 007e 43d5 3556 0000
000000c0: 0000 0000 0000 0000 0000 0000 0000 0000
000000d0: 90c3 43d5 3556 0000 0000 0000 0000 0000
000000e0: 0000 0000 0000 0000 0200 0000 0000 0000
000000f0: 1400 0000 0000 0000 8000 0000 0000 0000
00000100: 0000 0000 0000 0000 0000 0000 0000 0000
00000110: 0000 0000 0000 0000 8000 0000 0000 0000
00000120: 0100 0000 0000 0000 0000 0000 0000 0000
00000130: 0000 0000 0000 0000 0000 0000 0000 0000
00000140: 0000 0000 0000 0000 000a 0000 0000 0000
00000150: 0600 0100 0141 0100 0280 0000 5040 0000
00000160: a001 0000 0000 0000 e000 0000 0000 0000
00000170: 8081 0e6d 8f7f 0000 0000 0000 0000 0000
00000180: 0100 0000 0000 0000 d04c 2bd3 3556 0000
00000190: 0000 0000 0000 0000 0000 0000 0000 0000
000001a0: 30e4 22d3 3556 0000 0000 0000 0000 0000
000001b0: 0000 0000 0000 0000 0200 0000 0000 0000
000001c0: 1400 0000 0000 0000 8000 0000 0000 0000
000001d0: 0000 0000 0000 0000 0000 0000 0000 0000
000001e0: 0000 0000 0000 0000 8000 0000 0000 0000
000001f0: 0100 0000 0000 0000 0000 0000 0000 0000
-9.7699915e+11 3.0925e-41 0.0 0.0 0.0 0.0 3e-45 0.0
2.8e-44 0.0 1.8e-43 0.0 0.0 0.0 0.0 0.0
0.0 0.0 1.8e-43 0.0 1e-45 0.0 0.0 0.0
0.0 0.0 0.0 0.0 0.0 0.0 3.587e-42 0.0
9.1844e-41 1.15155e-40 4.592e-41 2.3071e-41 2.91e-43 0.0 2.91e-43 0.0
2.7564642e+27 4.576e-41 0.0 0.0 1e-45 0.0 -1.3434121e+13 3.0925e-41
0.0 0.0 0.0 0.0 -1.3452794e+13 3.0925e-41 0.0 0.0
0.0 0.0 3e-45 0.0 2.8e-44 0.0 1.8e-43 0.0
0.0 0.0 0.0 0.0 0.0 0.0 1.8e-43 0.0
1e-45 0.0 0.0 0.0 0.0 0.0 0.0 0.0
0.0 0.0 3.587e-42 0.0 9.1844e-41 1.15155e-40 4.592e-41 2.3071e-41
5.83e-43 0.0 3.14e-43 0.0 2.7564642e+27 4.576e-41 0.0 0.0
1e-45 0.0 -7.357281e+11 3.0925e-41 0.0 0.0 0.0 0.0
-6.9961305e+11 3.0925e-41 0.0 0.0 0.0 0.0 3e-45 0.0
2.8e-44 0.0 1.8e-43 0.0 0.0 0.0 0.0 0.0
0.0 0.0 1.8e-43 0.0 1e-45 0.0 0.0 0.0

rnn.cell.bias_r f4 [128]
00000000: 50af ffc0 8f7f 0000 a0d5 6cd3 3556 0000
00000010: 0100 0000 0000 0000 d077 2cd3 3556 0000
00000020: 0000 0000 0000 0000 0000 0000 0000 0000
00000030: 20f9 7ad6 3556 0000 0000 0000 0000 0000
00000040: 0000 0000 0000 0000 0200 0000 0000 0000
00000050: 1400 0000 0000 0000 8000 0000 0000 0000
00000060: 0000 0000 0000 0000 0000 0000 0000 0000
00000070: 0000 0000 0000 0000 8000 0000 0000 0000
00000080: 0100 0000 0000 0000 0000 0000 0000 0000
00000090: 0000 0000 0000 0000 0000 0000 0000 0000
000000a0: 0000 0000 0000 0000 000a 0000 0000 0000
000000b0: 0600 0100 0141 0100 0280 0000 5040 0000
000000c0: d000 0000 0000 0000 d000 0000 0000 0000
000000d0: 8081 0e6d 8f7f 0000 0000 0000 0000 0000
000000e0: 0100 0000 0000 0000 a024 50d5 3556 0000
000000f0: 0000 0000 0000 0000 0000 0000 0000 0000
00000100: f01f 39d6 3556 0000 0000 0000 0000 0000
00000110: 0000 0000 0000 0000 0200 0000 0000 0000
00000120: 1400 0000 0000 0000 8000 0000 0000 0000
00000130: 0000 0000 0000 0000 0000 0000 0000 0000
00000140: 0000 0000 0000 0000 8000 0000 0000 0000
00000150: 0100 0000 0000 0000 0000 0000 0000 0000
00000160: 0000 0000 0000 0000 0000 0000 0000 0000
00000170: 0000 0000 0000 0000 000a 0000 0000 0000
00000180: 0600 0100 0141 0100 0280 0000 5040 0000
00000190: a001 0000 0000 0000 e000 0000 0000 0000
000001a0: 8081 0e6d 8f7f 0000 0000 0000 0000 0000
000001b0: 0100 0000 0000 0000 6054 d9d5 3556 0000
000001c0: 0000 0000 0000 0000 0000 0000 0000 0000
000001d0: 60f2 d6d7 3556 0000 0000 0000 0000 0000
000001e0: 0000 0000 0000 0000 0200 0000 0000 0000
000001f0: 1400 0000 0000 0000 8000 0000 0000 0000
-7.9901505 4.576e-41 -1.0171963e+12 3.0925e-41 1e-45 0.0 -7.407445e+11 3.0925e-41
0.0 0.0 0.0 0.0 -6.8986973e+13 3.0925e-41 0.0 0.0
0.0 0.0 3e-45 0.0 2.8e-44 0.0 1.8e-43 0.0
0.0 0.0 0.0 0.0 0.0 0.0 1.8e-43 0.0
1e-45 0.0 0.0 0.0 0.0 0.0 0.0 0.0
0.0 0.0 3.587e-42 0.0 9.1844e-41 1.15155e-40 4.592e-41 2.3071e-41
2.91e-43 0.0 2.91e-43 0.0 2.7564642e+27 4.576e-41 0.0 0.0
1e-45 0.0 -1.4303483e+13 3.0925e-41 0.0 0.0 0.0 0.0
-5.0886705e+13 3.0925e-41 0.0 0.0 0.0 0.0 3e-45 0.0
2.8e-44 0.0 1.8e-43 0.0 0.0 0.0 0.0 0.0
0.0 0.0 1.8e-43 0.0 1e-45 0.0 0.0 0.0
0.0 0.0 0.0 0.0 0.0 0.0 3.587e-42 0.0
9.1844e-41 1.15155e-40 4.592e-41 2.3071e-41 5.83e-43 0.0 3.14e-43 0.0
2.7564642e+27 4.576e-41 0.0 0.0 1e-45 0.0 -2.9869551e+13 3.0925e-41
0.0 0.0 0.0 0.0 -4.7267296e+14 3.0925e-41 0.0 0.0
0.0 0.0 3e-45 0.0 2.8e-44 0.0 1.8e-43 0.0

rnn.cell.bias_h f4 [128]
00000000: 1400 0000 0000 0000 2500 0000 0000 0000
00000010: 0000 0000 0000 0000 0000 0000 0000 0000
00000020: 0000 0000 0000 0000 2500 0000 0000 0000
00000030: 0100 0000 0000 0000 0000 0000 0000 0000
00000040: 0000 0000 0000 0000 0000 0000 0000 0000
00000050: 0000 0000 0000 0000 e402 0000 0000 0000
00000060: 0600 0100 0141 0100 0280 0000 5040 0000
00000070: d000 0000 0000 0000 d000 0000 0000 0000
00000080: 8081 0e6d 8f7f 0000 0000 0000 0000 0000
00000090: 0100 0000 0000 0000 6016 6ad3 3556 0000
000000a0: 0000 0000 0000 0000 0000 0000 0000 0000
000000b0: 80ad 96d3 3556 0000 0000 0000 0000 0000
000000c0: 0000 0000 0000 0000 0200 0000 0000 0000
000000d0: 1400 0000 0000 0000 8000 0000 0000 0000
000000e0: 0000 0000 0000 0000 0000 0000 0000 0000
000000f0: 0000 0000 0000 0000 8000 0000 0000 0000
00000100: 0100 0000 0000 0000 0000 0000 0000 0000
00000110: 0000 0000 0000 0000 0000 0000 0000 0000
00000120: 0000 0000 0000 0000 000a 0000 0000 0000
00000130: 0600 0100 0141 0100 0280 0000 5040 0000
00000140: d000 0000 0000 0000 e100 0000 0000 0000
00000150: 20e3 66d7 3556 0000 c048 add6 3556 0000
00000160: 0100 0000 0000 0000 90ed 32cb 3556 0000
00000170: 0000 0000 0000 0000 0000 0000 0000 0000
00000180: c0f7 4fcb 3556 0000 0000 0000 0000 0000
00000190: 0000 0000 0000 0000 0200 0000 0000 0000
000001a0: 8000 0000 0000 0000 8000 0000 0000 0000
000001b0: 0000 0000 0000 0000 0000 0000 0000 0000
000001c0: 0000 0000 0000 0000 8000 0000 0000 0000
000001d0: 0100 0000 0000 0000 0000 0000 0000 0000
000001e0: 0000 0000 0000 0000 0000 0000 0000 0000
000001f0: 0000 0000 0000 0000 0040 0000 0000 0000
2.8e-44 0.0 5.2e-44 0.0 0.0 0.0 0.0 0.0
0.0 0.0 5.2e-44 0.0 1e-45 0.0 0.0 0.0
0.0 0.0 0.0 0.0 0.0 0.0 1.037e-42 0.0
9.1844e-41 1.15155e-40 4.592e-41 2.3071e-41 2.91e-43 0.0 2.91e-43 0.0
2.7564642e+27 4.576e-41 0.0 0.0 1e-45 0.0 -1.00539774e+12 3.0925e-41
0.0 0.0 0.0 0.0 -1.2943119e+12 3.0925e-41 0.0 0.0
0.0 0.0 3e-45 0.0 2.8e-44 0.0 1.8e-43 0.0
0.0 0.0 0.0 0.0 0.0 0.0 1.8e-43 0.0
1e-45 0.0 0.0 0.0 0.0 0.0 0.0 0.0
0.0 0.0 3.587e-42 0.0 9.1844e-41 1.15155e-40 4.592e-41 2.3071e-41
2.91e-43 0.0 3.15e-43 0.0 -2.5386317e+14 3.0925e-41 -9.5263985e+13 3.0925e-41
1e-45 0.0 -1.1726224e+07 3.0925e-41 0.0 0.0 0.0 0.0
-1.3629376e+07 3.0925e-41 0.0 0.0 0.0 0.0 3e-45 0.0
1.8e-43 0.0 1.8e-43 0.0 0.0 0.0 0.0 0.0
0.0 0.0 1.8e-43 0.0 1e-45 0.0 0.0 0.0
0.0 0.0 0.0 0.0 0.0 0.0 2.2959e-41 0.0

rnn.cell.input_decay_kernel f4 [37]
00000000: 0000 0000 0000 0000 0000 0000 0000 0000
00000010: 0000 0000 0000 0000 0000 0000 0000 0000
00000020: 0000 0000 0000 0000 0000 0000 0000 0000
00000030: 0000 0000 0000 0000 0000 0000 0000 0000
00000040: 0000 0000 0000 0000 0000 0000 0000 0000
00000050: 0000 0000 0000 0000 0000 0000 0000 0000
00000060: 0000 0000 0000 0000 0000 0000 0000 0000
00000070: 0000 0000 0000 0000 0000 0000 0000 0000
00000080: 0000 0000 0000 0000 0000 0000 0000 0000
00000090: 0000 0000
0.0 0.0 0.0 0.0 0.0 0.0 0.0 0.0
0.0 0.0 0.0 0.0 0.0 0.0 0.0 0.0
0.0 0.0 0.0 0.0 0.0 0.0 0.0 0.0
0.0 0.0 0.0 0.0 0.0 0.0 0.0 0.0
0.0 0.0 0.0 0.0 0.0

rnn.cell.input_decay_bias f4 [37]
00000000: 0000 0000 0000 0000 0000 0000 0000 0000
00000010: 0000 0000 0000 0000 0000 0000 0000 0000
00000020: 0000 0000 0000 0000 0000 0000 0000 0000
00000030: 0000 0000 0000 0000 0000 0000 0000 0000
00000040: 0000 0000 0000 0000 0000 0000 0000 0000
00000050: 0000 0000 0000 0000 0000 0000 0000 0000
00000060: 0000 0000 0000 0000 0000 0000 0000 0000
00000070: 0000 0000 0000 0000 0000 0000 0000 0000
00000080: 0000 0000 0000 0000 0000 0000 0000 0000
00000090: 0000 0000
0.0 0.0 0.0 0.0 0.0 0.0 0.0 0.0
0.0 0.0 0.0 0.0 0.0 0.0 0.0 0.0
0.0 0.0 0.0 0.0 0.0 0.0 0.0 0.0
0.0 0.0 0.0 0.0 0.0 0.0 0.0 0.0
0.0 0.0 0.0 0.0 0.0

rnn.cell.hidden_decay_kernel f4 [37, 128]
00000000: 0000 0000 0000 0000 0000 0000 0000 0000
00000010: 0000 0000 0000 0000 0000 0000 0000 0000
00000020: 0000 0000 0000 0000 0000 0000 0000 0000
00000030: 0000 0000 0000 0000 0000 0000 0000 0000
00000040: 0000 0000 0000 0000 0000 0000 0000 0000
00000050: 0000 0000 0000 0000 0000 0000 0000 0000
00000060: 0000 0000 0000 0000 0000 0000 0000 0000
00000070: 0000 0000 0000 0000 0000 0000 0000 0000
00000080: 0000 0000 0000 0000 0000 0000 0000 0000
00000090: 0000 0000 0000 0000 0000 0000 0000 0000
000000a0: 0000 0000 0000 0000 0000 0000 0000 0000
000000b0: 0000 0000 0000 0000 0000 0000 0000 0000
000000c0: 0000 0000 0000 0000 0000 0000 0000 0000
000000d0: 0000 0000 0000 0000 0000 0000 0000 0000
000000e0: 0000 0000 0000 0000 0000 0000 0000 0000
000000f0: 0000 0000 0000 0000 0000 0000 0000 0000
00000100: 0000 0000 0000 0000 0000 0000 0000 0000
00000110: 0000 0000 0000 0000 0000 0000 0000 0000
00000120: 0000 0000 0000 0000 0000 0000 0000 0000
00000130: 0000 0000 0000 0000 0000 0000 0000 0000
00000140: 0000 0000 0000 0000 0000 0000 0000 0000
00000150: 0000 0000 0000 0000 0000 0000 0000 0000
00000160: 0000 0000 0000 0000 0000 0000 0000 0000
00000170: 0000 0000 0000 0000 0000 0000 0000 0000
00000180: 0000 0000 0000 0000 0000 0000 0000 0000
00000190: 0000 0000 0000 0000 0000 0000 0000 0000
000001a0: 0000 0000 0000 0000 0000 0000 0000 0000
000001b0: 0000 0000 0000 0000 0000 0000 0000 0000
000001c0: 0000 0000 0000 0000 0000 0000 0000 0000
000001d0: 0000 0000 0000 0000 0000 0000 0000 0000
000001e0: 0000 0000 0000 0000 0000 0000 0000 0000
000001f0: 0000 0000 0000 0000 0000 0000 0000 0000
00000200: 0000 0000 0000 0000 0000 0000 0000 0000
00000210: 0000 0000 0000 0000 0000 0000 0000 0000
00000220: 0000 0000 0000 0000 0000 0000 0000 0000
00000230: 0000 0000 0000 0000 0000 0000 0000 0000
00000240: 0000 0000 0000 0000 0000 0000 0000 0000
00000250: 0000 0000 0000 0000 0000 0000 0000 0000
00000260: 0000 0000 0000 0000 0000 0000 0000 0000
00000270: 0000 0000 0000 0000 0000 0000 0000 0000
00000280: 0000 0000 0000 0000 0000 0000 0000 0000
00000290: 0000 0000 0000 0000 0000 0000 0000 0000
000002a0: 0000 0000 0000 0000 0000 0000 0000 0000
000002b0: 0000 0000 0000 0000 0000 0000 0000 0000
000002c0: 0000 0000 0000 0000 0000 0000 0000 0000
000002d0: 0000 0000 0000 0000 0000 0000 0000 0000
000002e0: 0000 0000 0000 0000 0000 0000 0000 0000
000002f0: 0000 0000 0000 0000 0000 0000 0000 0000
00000300: 0000 0000 0000 0000 0000 0000 0000 0000
00000310: 0000 0000 0000 0000 0000 0000 0000 0000
00000320: 0000 0000 0000 0000 0000 0000 0000 0000
00000330: 0000 0000 0000 0000 0000 0000 0000 0000
00000340: 0000 0000 0000 0000 0000 0000 0000 0000
00000350: 0000 0000 0000 0000 0000 0000 0000 0000
00000360: 0000 0000 0000 0000 0000 0000 0000 0000
00000370: 0000 0000 0000 0000 0000 0000 0000 0000
00000380: 0000 0000 0000 0000 0000 0000 0000 0000
00000390: 0000 0000 0000 0000 0000 0000 0000 0000
000003a0: 0000 0000 0000 0000 0000 0000 0000 0000
000003b0: 0000 0000 0000 0000 0000 0000 0000 0000
000003c0: 0000 0000 0000 0000 0000 0000 0000 0000
000003d0: 0000 0000 0000 0000 0000 0000 0000 0000
000003e0: 0000 0000 0000 0000 0000 0000 0000 0000
000003f0: 0000 0000 0000 0000 0000 0000 0000 0000
0.0 0.0 0.0 0.0 0.0 0.0 0.0 0.0
0.0 0.0 0.0 0.0 0.0 0.0 0.0 0.0
0.0 0.0 0.0 0.0 0.0 0.0 0.0 0.0
0.0 0.0 0.0 0.0 0.0 0.0 0.0 0.0
0.0 0.0 0.0 0.0 0.0 0.0 0.0 0.0
0.0 0.0 0.0 0.0 0.0 0.0 0.0 0.0
0.0 0.0 0.0 0.0 0.0 0.0 0.0 0.0
0.0 0.0 0.0 0.0 0.0 0.0 0.0 0.0
0.0 0.0 0.0 0.0 0.0 0.0 0.0 0.0
0.0 0.0 0.0 0.0 0.0 0.0 0.0 0.0
0.0 0.0 0.0 0.0 0.0 0.0 0.0 0.0
0.0 0.0 0.0 0.0 0.0 0.0 0.0 0.0
0.0 0.0 0.0 0.0 0.0 0.0 0.0 0.0
0.0 0.0 0.0 0.0 0.0 0.0 0.0 0.0
0.0 0.0 0.0 0.0 0.0 0.0 0.0 0.0
0.0 0.0 0.0 0.0 0.0 0.0 0.0 0.0
0.0 0.0 0.0 0.0 0.0 0.0 0.0 0.0
0.0 0.0 0.0 0.0 0.0 0.0 0.0 0.0
0.0 0.0 0.0 0.0 0.0 0.0 0.0 0.0
0.0 0.0 0.0 0.0 0.0 0.0 0.0 0.0
0.0 0.0 0.0 0.0 0.0 0.0 0.0 0.0
0.0 0.0 0.0 0.0 0.0 0.0 0.0 0.0
0.0 0.0 0.0 0.0 0.0 0.0 0.0 0.0
0.0 0.0 0.0 0.0 0.0 0.0 0.0 0.0
0.0 0.0 0.0 0.0 0.0 0.0 0.0 0.0
0.0 0.0 0.0 0.0 0.0 0.0 0.0 0.0
0.0 0.0 0.0 0.0 0.0 0.0 0.0 0.0
0.0 0.0 0.0 0.0 0.0 0.0 0.0 0.0
0.0 0.0 0.0 0.0 0.0 0.0 0.0 0.0
0.0 0.0 0.0 0.0 0.0 0.0 0.0 0.0
0.0 0.0 0.0 0.0 0.0 0.0 0.0 0.0
0.0 0.0 0.0 0.0 0.0 0.0 0.0 0.0
