Results/transformer/split_5/checkpoint.pt (torch, 832610 bytes, 46 tensors)

attn_layers.layers.0.0.0.weight f4 [74]
000000 04 6d 80 3f cf 12 7e 3f ee 57 81 3f 87 7c 80 3f
       1.0033269 0.9924745 1.0104959 1.0038003
000010 6e e8 80 3f d5 fb 80 3f 5b d9 7f 3f 58 74 7d 3f
       1.0070932 1.0076853 0.99941033 0.9900565
000020 4e d0 7d 3f 7e f2 7f 3f f8 d5 80 3f f4 d9 7f 3f
       0.9914597 0.9997939 1.0065298 0.99941945
000030 45 37 7e 3f 51 ca 81 3f ba 34 81 3f 26 c7 80 3f
       0.99303085 1.0139867 1.0094216 1.0060775
000040 28 fc 80 3f f5 d8 7f 3f c7 54 80 3f 29 3e 82 3f
       1.0076952 0.99940425 1.0025872 1.017522
000050 10 2c 81 3f 09 1f 7c 3f 50 5b 7e 3f a7 d1 80 3f
       1.0091572 0.98484856 0.9935808 1.0063981
000060 b7 be 80 3f 12 cc 80 3f 6c 82 80 3f 70 a4 81 3f
       1.0058202 1.0062277 1.0039802 1.0128307
000070 02 7f 81 3f 6f 0e 82 3f 20 cc 7e 3f 61 3b 7f 3f
       1.0116885 1.0160655 0.9953022 0.9969998
000080 5f e1 80 3f a5 47 81 3f c5 15 80 3f 65 01 80 3f
       1.0068778 1.0099989 1.0006644 1.0000426
000090 eb 82 7f 3f cd a3 81 3f 7e 6e 80 3f 90 07 7f 3f
       0.9980914 1.0128113 1.003372 0.99620914
0000a0 9f 84 81 3f c9 f2 7f 3f 53 f4 80 3f ca 0f 7f 3f
       1.0118598 0.99979836 1.0074562 0.9963347
0000b0 3c b6 80 3f 07 c5 7f 3f eb 12 80 3f 9f 8d 81 3f
       1.0055614 0.99910015 1.0005773 1.0121344
0000c0 49 e8 7f 3f 86 70 80 3f 17 05 80 3f a9 27 7e 3f
       0.99963814 1.003434 1.0001553 0.99279267
0000d0 28 35 80 3f b8 77 7c 3f e0 ea 81 3f 87 a6 81 3f
       1.0016222 0.98620176 1.0149803 1.0128945
0000e0 12 45 80 3f 6f 8a 7f 3f f6 7e 81 3f 1b 83 7f 3f
       1.0021079 0.9982061 1.011687 0.99809426
0000f0 66 c9 7c 3f 83 f8 7f 3f 2c 2a 80 3f 04 58 80 3f
       0.9874481 0.99988574 1.001287 1.002686
000100 8b 64 7c 3f 77 79 80 3f d8 36 82 3f 50 c7 80 3f
       0.98590916 1.0037068 1.0172987 1.0060825
000110 cf 8a 80 3f cc 9e 7f 3f 85 fc 7f 3f 7a 9c 7e 3f
       1.0042361 0.9985168 0.9999469 0.99457514
000120 5e f5 80 3f 66 75 7e 3f
       1.007488 0.99397886

attn_layers.layers.0.0.0.bias f4 [74]
000000 5a 14 bd bb d1 a8 df 39 53 4a e7 ba fd 56 07 3b
       -0.0057702484 0.00042659653 -0.0017646052 0.0020651214
000010 8c 5e c1 bb ec 9a 02 bc 89 ec a4 ba b0 b0 e6 36
       -0.0059011634 -0.007971507 -0.00125827 6.8751033e-06
000020 29 c4 3a 3c 60 14 2a bb f0 74 94 bb 20 35 06 3a
       0.011399307 -0.0025952086 -0.0045305416 0.00051196106
000030 42 a6 ce 3b 66 c8 db ba bb f7 2e 3b 08 d6 4d 3b
       0.0063064406 -0.0016768097 0.0026697952 0.003140809
000040 40 09 e4 ba 97 60 bc 39 50 01 02 3c 62 69 a2 b9
       -0.0017397776 0.0003593012 0.007934883 -0.00030977564
000050 32 e7 b8 bb 1d 21 46 bc 18 b1 94 3a 60 f2 e5 ba
       -0.005642795 -0.012092856 0.0011344282 -0.0017543547
000060 5c b6 c9 ba 0a b4 8d 3a 78 12 55 ba bb 22 b2 bb
       -0.001538943 0.0010811102 -0.0008128057 -0.005436269
000070 90 58 3b bb 83 63 ee 3a 09 3a 77 ba 86 4c 96 3b
       -0.0028586723 0.0018187616 -0.000943095 0.004586759
000080 3d d8 b6 ba ff 20 08 bc 93 9f 02 3b 26 80 33 3b
       -0.0013949942 -0.008308648 0.001993154 0.0027389615
000090 37 54 1c 3a b2 a2 d2 bb 91 18 1c ba 93 c4 95 3b
       0.0005963477 -0.006428086 -0.00059545884 0.0045705526
0000a0 54 a4 91 3a 68 f5 92 3b 46 50 05 ba 50 99 32 3b
       0.0011111596 0.004484821 -0.0005085509 0.0027252026
0000b0 4f 09 98 3b de da 03 b9 7c e3 3d 3b 96 96 62 3a
       0.0046397815 -0.00012574668 0.0028974703 0.0008643655
0000c0 22 74 f4 3a 64 bb 0b 3b 32 ef 2d 3b d2 98 a1 3b
       0.0018650333 0.002132141 0.0026540277 0.0049315477
0000d0 fb 04 a7 3b ac e4 67 3c 18 b0 4c 39 06 30 58 38
       0.0050970293 0.014153641 0.00019520556 5.154314e-05
0000e0 8f 85 1f ba 5e 9a 56 bb 43 45 1d 3b 41 db 97 bb
       -0.00060852704 -0.0032745819 0.0023997582 -0.0046342914
0000f0 0f d1 44 bc 4f 91 76 bb 8c 90 3b 3a ed aa 4c ba
       -0.012012734 -0.0037623232 0.0007155023 -0.00078074523
000100 97 84 3f bc c2 45 fd ba 46 18 bc 3b 00 f7 7f 3b
       -0.011689327 -0.0019323158 0.0057401983 0.0039057136
000110 65 56 44 3b 0e 95 51 ba 97 a4 aa bb c0 f3 df bb
       0.0029958722 -0.0007994928 -0.005207609 -0.006834477
000120 a5 b1 6e 38 a9 3c 0b bc
       5.6909066e-05 -0.008498349

attn_layers.layers.0.1.to_q.weight f4 [64, 74]
000000 c4 6c 44 bd 86 82 d1 3d 8e 5b 07 bd ed 76 84 bc
       -0.04795529 0.102299735 -0.033046298 -0.01616999
000010 16 99 c5 bc 60 b7 a7 bd e8 a0 e0 3d b6 2d 2f 3c
       -0.024120849 -0.08189273 0.109681904 0.010692051
000020 c3 2a 50 3b d5 63 87 3d 54 18 ad 3d 4c 2d 99 3d
       0.003176377 0.06610838 0.08451906 0.07479343
000030 ee 5a dc 3d cb 28 92 3d 08 c7 8e 3d 25 a8 05 3d
       0.10759531 0.07136687 0.06971556 0.03263106
000040 ab cb ed bd 96 df bc bd e1 d1 b9 3d 9b 82 c8 bd
       -0.11611112 -0.09222333 0.09073234 -0.09790536
000050 9f 54 08 3d c8 10 54 3b b5 68 a2 3c ca 17 40 3d
       0.033283826 0.0032358635 0.019825319 0.046897687
000060 78 8b d2 3d e6 77 eb bc 37 02 d2 bd 9d a8 54 ba
       0.10280508 -0.028743695 -0.10254329 -0.00081122835
000070 74 0d 28 bd 82 a9 bc bd d3 78 0d bd 6b d1 78 3d
       -0.041028455 -0.092120185 -0.034539055 0.06074659
000080 06 2c c5 3c 77 e3 ef bc 09 cf e3 3d 4f ee b4 bd
       0.024068844 -0.029283268 0.11123473 -0.08834516
000090 55 ce b3 3d 7d bc a7 bc 50 77 e7 bc 49 41 bc 3d
       0.08779589 -0.02047562 -0.028255135 0.0919214
0000a0 db ad 04 bc 3c 9b 74 bd 99 07 55 3c 0e d1 a2 3c
       -0.008098091 -0.059718356 0.0130023 0.019875076
0000b0 d6 99 69 3d 71 fd d2 bd e5 28 a1 3d 5e 2d 55 3d
       0.057031475 -0.10302246 0.07869128 0.05204522
0000c0 83 d6 94 3d a0 56 0b 3e ad 0d a7 3d fd 47 41 bd
       0.07267477 0.13607264 0.08156905 -0.047187794
0000d0 0c f9 54 3d 2c f5 bf 3c 85 b7 38 3d 3c cb da bc
       0.051995322 0.023432337 0.045096893 -0.026708238
0000e0 7b a9 2d bd 7c 65 0b be 2d 67 7b 3b f3 cf b4 bd
       -0.042397957 -0.13612932 0.0038361058 -0.08828726
0000f0 5f d2 82 3c 3f 66 4a bd 66 e1 80 3d 8f 44 1c 3c
       0.015969453 -0.049413916 0.06292991 0.00953783
000100 7b 14 a2 3d 09 89 db 3c 38 5a 4e bd a9 6b 63 3c
       0.079140626 0.026798742 -0.050379008 0.013880649
000110 e8 76 a2 bd d9 1b 96 3d 36 bf 94 bc d2 c9 73 3c
       -0.07932836 0.0732953 -0.018157583 0.014879661
000120 6c af 02 bc 27 b7 0e bd 46 87 c1 3d df 0c 13 3d
       -0.007976394 -0.034842636 0.094496295 0.035900947
000130 ea 00 7c bd fd a9 ca 3d 15 21 a1 3d a0 ac 77 3d
       -0.06152431 0.09895704 0.07867638 0.060467362
000140 d4 8d 25 bd a3 38 f5 bc 40 53 ff 39 20 8b 9f bd
       -0.04041846 -0.029934233 0.00048699416 -0.07790208
000150 ef 04 0c 3d 9c 20 de 3d 2a 73 54 3d 58 08 fa 3d
       0.034184393 0.108460635 0.05186764 0.12208623
000160 cb 66 fc bc 7c e8 9e bd 25 3f b3 bd e3 39 92 bc
       -0.030810734 -0.077591866 -0.08752278 -0.017849868
000170 99 7a 21 bd 0d d5 35 3b 98 56 1d bb f9 8a 99 bd
       -0.03942356 0.0027745396 -0.0024007913 -0.0749721
000180 4d 87 ab 3c d1 c7 91 bd a3 43 15 3d 95 2e ce bd
       0.02093854 -0.0711819 0.036441457 -0.100674786
000190 6d a3 75 3d c3 9b 78 bd 76 cf 2f 3d a5 79 c3 bd
       0.059970308 -0.06069542 0.04292246 -0.09544686
0001a0 1b e8 d0 bc b7 c8 86 bd 4c 62 f8 bd d6 4f f0 bd
       -0.025501302 -0.06581252 -0.12128124 -0.117339775
0001b0 dc 34 12 3d 14 2c 19 bd 9d cd d9 bd 92 c1 8b bd
       0.035694942 -0.03739555 -0.10634921 -0.0682403
0001c0 a9 ba d4 3d b2 99 0e bd 12 10 c4 ba 73 6d af bd
       0.10387165 -0.034814544 -0.0014958403 -0.08565798
0001d0 6b 52 db 3d 02 39 ac 3d 05 1c c1 3d 27 55 2b ba
       0.10709079 0.08409311 0.094291724 -0.0006535821
0001e0 f2 03 b4 3a e6 75 82 bb 5d 28 2b ba e1 3b 33 bd
       0.0013734086 -0.0039813397 -0.0006529147 -0.043758277
0001f0 53 32 29 bd a7 18 ba bd a7 4b 9f 3c 7e 15 ac bd
       -0.04130776 -0.09086733 0.019445254 -0.08402537
000200 2b a5 ad 3d 3e b3 4f 3d ad 36 ad 3d b3 3f 02 bd
       0.08478769 0.050708048 0.08457694 -0.03179903
000210 ed 48 ad bd 36 28 6f 3d e8 fc c1 bd 1e bb 1e 3c
       -0.08461175 0.058387958 -0.09472066 0.009688167
000220 10 e1 0e bd a8 67 f1 bc 41 e0 c9 bd ec 67 98 3d
       -0.034882605 -0.029468372 -0.09857226 0.074416965
000230 26 0a 0d 3d 6a 4e 27 3d eb 07 6d bd 66 3d c0 bd
       0.034433506 0.040846266 -0.05786888 -0.09386711
000240 3e 8b 86 bd bf 46 94 bd 46 ba d5 bd f5 14 dd bc
       -0.06569527 -0.07240056 -0.104359195 -0.026987532
000250 19 95 c9 3b 6a 01 0a bd e9 e2 9b 3d 5e 18 52 3d
       0.006151807 -0.033692755 0.07611639 0.05129277
000260 e7 cb 91 bd 72 c3 a2 bd 42 69 61 bd 39 38 63 bd
       -0.071189694 -0.079474345 -0.055032022 -0.05547354
000270 ff c8 88 3d 3d 01 52 3c 5f 03 60 bd f5 28 ea bc
       0.06678962 0.012817678 -0.054690715 -0.028583983
000280 07 90 de bb e9 e3 d1 3d b0 6b c5 bd 4f 35 d1 bd
       -0.0067920717 0.102485485 -0.096396804 -0.10215246
000290 0d ce a0 3d 9b 13 c3 bd da be 04 be 28 1b cb bd
       0.07851801 -0.09525224 -0.12963429 -0.09917289
0002a0 62 f7 a8 bd 24 db a4 3d 94 a6 42 bd df 37 c1 3d
       -0.082503095 0.0804961 -0.047522143 0.09434485
0002b0 08 21 4b 3d e1 d3 fc bb 36 37 1f 3d 46 45 b0 3d
       0.049592048 -0.0077156876 0.038871013 0.08606963
0002c0 1e 35 64 bc 90 23 04 bd 61 b2 f7 bc 4a 5d 26 3d
       -0.01392868 -0.032260478 -0.030236425 0.04061631
0002d0 ef fb ef bc 6f 2a 96 bd ab 46 9a 3c 99 73 ed bd
       -0.029294936 -0.07332312 0.018832525 -0.11594314
0002e0 ea c2 8b bd 85 52 ba bd 4b e5 91 bc 46 28 5d bd
       -0.06824286 -0.090977706 -0.01780953 -0.053993486
0002f0 b5 59 87 3b 15 eb ac 3c 0f 85 7c 3d f5 08 9f 3d
       0.004130567 0.02110819 0.061650332 0.0776538
000300 4c b4 64 bd 27 ce 93 bd f6 f0 7b bd 4f 13 b0 3d
       -0.055836007 -0.07217055 -0.061509095 0.08597433
000310 36 3a 77 3d 6a d8 6d 3d c4 c7 dc 3d 2d 59 8c 3d
       0.06035825 0.058067717 0.1078029 0.068529464
000320 8e 18 71 bd 23 ca cf 3d 3a a7 c8 3c 2a cb 21 3d
       -0.058861308 0.101459764 0.024493802 0.039500393
000330 3d 8d b7 3d cc 0b 98 bd 93 06 b1 ba ae 3b c2 bd
       0.08962486 -0.07424125 -0.0013505988 -0.09484039
000340 74 d6 a3 3d 79 46 e3 3c de 7d df bd b3 f4 ac 3d
       0.07999888 0.027743565 -0.10912679 0.0844511
000350 e8 7a 8e bd e5 25 78 bc e4 02 15 bd de e9 3a 3d
       -0.06957036 -0.0151457535 -0.03637971 0.04563319
000360 bd 4f a6 3c 02 b6 69 bd 7b b9 41 3d 9e 63 b2 3d
       0.020301694 -0.05705834 0.04729603 0.08710407
000370 31 28 9d bd 57 a6 86 3d f1 11 d1 ba 7e 5c cc bd
       -0.076736815 0.065746956 -0.0015950782 -0.09978579
000380 8e 85 b5 3d 45 18 58 bd 9b af 8e bd 56 a9 a6 3d
       0.08863364 -0.05275752 -0.06967088 0.08137767
000390 43 dc ce bb c5 47 84 3c ca c0 4d 3d ab e9 e8 bd
       -0.0063128783 0.016147504 0.050232686 -0.11372694
0003a0 53 29 86 bd 9c 33 92 3d f1 4f 9c bb 00 7b cd bd
       -0.06550851 0.0713875 -0.004770272 -0.10033226
0003b0 00 48 95 bd b0 46 cf 3d 7b ff 34 bc e3 61 00 3e
       -0.072891235 0.101209044 -0.011047239 0.12537341
0003c0 c5 8b e7 bb fe 7a be 3d 6c 24 b2 3b 9e c9 9e bd
       -0.0070662224 0.09300803 0.0054364707 -0.07753299
0003d0 f9 26 b6 bc be 8e e4 bd 38 61 01 bd d2 d9 8a 3d
       -0.02223538 -0.111600384 -0.031586856 0.06779827
0003e0 4b 42 e2 bd c1 ef df bb e4 a4 d2 bd 3b 84 3b 3d
       -0.11047801 -0.006834001 -0.10285357 0.0457804
0003f0 47 a8 8a bd d4 df 95 bd 37 89 c6 3d 47 33 44 bb
       -0.067703776 -0.073180825 0.096941404 -0.002993779

attn_layers.layers.0.1.to_k.weight f4 [64, 74]
000000 e9 50 a8 bd ab 6d 26 3d e6 06 2b bd a8 b1 ef bc
       -0.082185574 0.04063193 -0.041754626 -0.029259518
000010 cc 99 da 3d ed 9a b5 bd 0f 2b c0 bd 3e 26 3b 3d
       0.10673866 -0.088674404 -0.09383213 0.045690767
000020 a1 61 45 3d f8 e3 47 bc 6a ad e1 3c 73 f5 a3 3d
       0.04818881 -0.012200348 0.02754851 0.080058
000030 3a 69 b9 bd 0e 1f 4b bd ad 6d e3 3c 50 7c a8 3b
       -0.090532735 -0.049590163 0.027762258 0.0051417723
000040 dd 69 6b 3c f4 08 40 bd ed 40 b7 3d 27 57 37 3d
       0.0143685015 -0.04688354 0.089479305 0.04476085
000050 ea d0 3a bd 18 fc e7 bb 2b 14 4e bc 36 9f da bd
       -0.045609392 -0.0070796125 -0.012578051 -0.10674898
000060 14 0e fe bd b8 e9 84 3d 4c 67 3c 39 ec ca 3b bd
       -0.12405029 0.06489891 0.00017967558 -0.04584782
000070 2d 06 c6 3d 44 f9 b4 3d cf 06 bf bd f5 72 fd bd
       0.09669147 0.08836606 -0.093274705 -0.12375442
000080 c6 51 27 3d d2 36 80 3d ab 54 ec bd d7 29 88 bd
       0.04084947 0.06260456 -0.11539587 -0.06648605
000090 65 a3 be bd c8 63 8a 3d 26 7b d6 bb b2 15 c4 3d
       -0.09308509 0.06757313 -0.006545442 0.095744506
0000a0 41 c1 d9 3c bc 9a 97 bd 12 1e b2 3d 33 99 cd 3d
       0.026581408 -0.0740256 0.08697142 0.10038986
0000b0 a5 10 1a bd 0f c0 a7 3d 52 63 49 3d 6c b3 59 3c
       -0.03761353 0.08190929 0.049166985 0.013287406
0000c0 21 59 d0 bc a1 21 c0 bd c5 45 dc 3d f6 f7 f5 bb
       -0.025433125 -0.09381414 0.10755495 -0.007506366
0000d0 b5 0b 77 3d 85 cd 8c 3d 7f a2 81 bd 88 de b0 3d
       0.0603139 0.06875137 -0.06329822 0.086361945
0000e0 2f b5 a8 bd 10 78 bb bd 23 86 a0 3d 5d f5 f8 bc
       -0.08237683 -0.091537595 0.078380845 -0.030390436
0000f0 78 6c ab 3c 64 4e 91 3d 52 92 91 bd fc da 8f 3d
       0.020925745 0.0709503 -0.071079865 0.0702419
000100 5a 59 5a 3b 1d 95 a6 bc 35 c4 d8 3d 18 85 3c 3c
       0.0033317418 -0.020334775 0.105842985 0.011506341
000110 42 d7 c7 bd 1b a7 58 3d 78 21 61 bd 68 69 af bd
       -0.09757854 0.05289374 -0.05496356 -0.085650265
000120 ae 35 de 3c ee 46 b3 bd 8d d8 2f 3b 65 8b 87 bc
       0.027125206 -0.08753763 0.0026831955 -0.01654596
000130 78 96 46 3d 38 59 31 bd d1 f2 06 3d f3 37 b1 3c
       0.048483342 -0.043297976 0.03294641 0.021633124
000140 4d e5 c6 3d 96 09 36 bd db 24 d2 3d 2c 8e cf bc
       0.097117044 -0.044442736 0.10260936 -0.025336348
000150 13 67 d6 bd 01 71 40 bd 8e 3d 78 3d 2d 4d 8e 3c
       -0.104688786 -0.04698277 0.060605578 0.017370785
000160 7c b9 85 b8 24 a4 d6 3b 9d fa aa 3d fb 7e 51 3d
       -6.376483e-05 0.006550329 0.08348582 0.05114649
000170 46 65 ba ba 94 ce c8 bd 5e 26 be 3c a9 d7 86 bc
       -0.0014220856 -0.09805027 0.023211654 -0.016460257
000180 71 29 ef bd 62 01 fa bd 2c 69 5c 3d 41 e0 87 bc
       -0.11677826 -0.12207295 0.053811237 -0.016586425
000190 7b e1 06 bb 61 5b a2 bd 44 cc 76 3d 71 f6 d5 bb
       -0.0020581174 -0.079275854 0.060253397 -0.0065296222
0001a0 29 a7 8c 3d 3f c5 c9 bb a4 7e bd bd dc 77 f9 3d
       0.06867821 -0.006157547 -0.092526704 0.121810645
0001b0 2a 3b ca 3c d6 cb dd bc 94 72 d6 3d 50 de d1 bd
       0.024686415 -0.027074736 0.10471073 -0.10247481
0001c0 c8 7b b8 3d 14 d9 be 3d a8 53 81 3d 97 74 a4 bd
       0.090079844 0.09318748 0.06314784 -0.0803005
0001d0 6b 6b e1 3d 5e c1 4a ba 6b 94 8c bc 3f 22 81 bb
       0.110068165 -0.00077345024 -0.017160615 -0.00394085
0001e0 ac 31 38 3d b4 ed d4 bd 54 1a ea 3d 5e 89 ac bd
       0.044969246 -0.10396901 0.11430803 -0.08424638
0001f0 9c 41 99 3c db 4b e2 bd c6 b2 78 3d ed cb 7c 3d
       0.018708043 -0.110496245 0.060717367 0.061717916
000200 af 14 3d bc 71 fa 01 bd 2c 9d 8a 3d 6f 41 10 3d
       -0.011540576 -0.03173298 0.067682594 0.035218652
000210 61 a1 a0 3d 33 7c f9 bc 83 3b ef bd d2 75 74 bd
       0.078432806 -0.03045473 -0.11681273 -0.059682675
000220 38 9a 80 bd 6e ca dd 3d f3 91 a9 3d 17 ec 7c 3c
       -0.06279415 0.10829626 0.08279791 0.015437148
000230 7a 19 bb bc c0 3b 92 3d ec ee 64 3c e8 14 18 bd
       -0.022839297 0.07140303 0.013972979 -0.037129313
000240 11 00 a1 3c e9 dc 95 bd 2b 42 56 bc 86 c2 d7 bd
       0.019653352 -0.07317526 -0.013077299 -0.10535149
000250 e2 d9 d3 3d f7 b8 97 bd e1 33 97 3d 1e 87 59 3d
       0.10344292 -0.07408326 0.07382942 0.053107373
000260 5e ad 19 3d 94 19 4a bd ff 5a 5b bd 14 ee 29 bd
       0.03751885 -0.0493408 -0.053553578 -0.041486815
000270 c1 5c 71 bd ca df dc 3b 7a f7 a2 3d 48 52 53 bd
       -0.058926348 0.006740545 0.07957359 -0.05159214
000280 26 1e c2 bd 38 f7 36 bd ec be a4 3d d9 50 a2 bd
       -0.094784066 -0.04466936 0.08044228 -0.07925577
000290 01 a1 51 bb 4f 99 55 bd e5 bf 81 3b 99 66 90 bd
       -0.0031986835 -0.05214816 0.003959643 -0.07050819
0002a0 52 6a 8c 3d 56 67 c9 3d c6 f4 ee bd 9f ae b4 3c
       0.068562165 0.09834163 -0.116677806 0.022055922
0002b0 36 f9 a8 3d 84 ee 9b 3b f1 8b 44 bd de bc aa 3d
       0.08250658 0.004758658 -0.04798502 0.08336805
0002c0 26 d9 d4 bd 75 97 4a 3d 72 e5 74 3d 15 3c 9f 3d
       -0.1039298 0.049460847 0.05978913 0.077751316
0002d0 25 5f 5b 3d 3e a3 a6 ba 9c ab 6b bc d1 06 b9 3d
       0.053557534 -0.0012713445 -0.014384177 0.09034503
0002e0 24 4b b4 3d 88 4d 35 bc 22 8d a5 3d e0 50 7b 3d
       0.088033944 -0.011065848 0.080835596 0.061356425
0002f0 8f d7 e7 bd 90 2a d6 bc c0 e3 3a 3b 57 8c 02 bd
       -0.113204114 -0.026143342 0.0028517097 -0.03187212
000300 0a ec b2 3d 1c b7 41 3d 88 15 e2 3d 12 bc 97 3d
       0.08736427 0.047293767 0.11039263 0.074089184
000310 11 c4 60 bd 1d 16 d5 bd ef 85 f4 3b 2f 17 8a bd
       -0.054874483 -0.104046084 0.007462255 -0.06742703
000320 4d e7 06 3b 0e 90 d7 3d 78 2d ba 3c 28 e0 ac 3d
       0.0020584643 0.10525523 0.02272676 0.08441192
000330 e4 63 30 3d 66 81 c6 3b 46 2c aa bd 8e a5 ef bd
       0.043064013 0.006057906 -0.08309226 -0.11701499
000340 5e 20 90 bc d6 c5 0e bd 11 8f e5 bd 6d 5c 7e bd
       -0.017593559 -0.03485664 -0.112089284 -0.062099863
000350 d4 05 3d bd 4d d2 8f 3c 2c 2c 95 bc 41 bf 01 bb
       -0.046148136 0.017556334 -0.01820954 -0.0019797834
000360 67 9c 0b be 91 e3 c9 3d d6 f5 9e 3d 7d 27 43 bd
       -0.13633882 0.09857858 0.07761733 -0.04764508
000370 50 ef 8e 3d 36 c5 85 3c 7b cb 93 bb 13 1a 5d 3c
       0.06979239 0.016329389 -0.0045103407 0.013494986
000380 6d e7 2e 3c 74 fd a2 3d 3b c1 1b bd 67 b5 60 3d
       0.010675293 0.079584986 -0.038026076 0.0548605
000390 4a 8d ce 3c 58 25 c5 3d 92 b0 03 bd 48 9d a4 bc
       0.025213856 0.096262634 -0.032150812 -0.020094529
0003a0 44 04 cf bc 53 7c cb 3c b2 d4 db bd 6d 14 ec bd
       -0.025270589 0.024839556 -0.10733928 -0.115273334
0003b0 be e2 ae 3d ac 6b 02 3d 2d e6 de bd ec 63 d5 bd
       0.085393414 0.031840965 -0.10883746 -0.10419449
0003c0 f9 5c 5e 3d af 1c 5f bc aa 0d 31 bd b0 b0 c6 3d
       0.054287884 -0.013617679 -0.04322592 0.09701669
0003d0 1d f0 4b 3d 65 e2 a4 3d 73 3d ac 3d cf ab 3e 3d
       0.049789537 0.08050994 0.08410158 0.04655057
0003e0 cf 87 bc 3c ee 3c 30 bd 6a a5 04 3c 0e b0 a3 3a
       0.023013977 -0.043026857 0.008096078 0.0012488381
0003f0 c6 4a 72 bd 1a 70 0a 3e 21 88 db 3d 23 14 f3 bd
       -0.05915334 0.13519326 0.10719324 -0.11869075

attn_layers.layers.0.1.to_v.weight f4 [64, 74]
000000 b2 4f ac bd a1 f2 61 3d cc 8f ce bd db df 9d 3c
       -0.08413638 0.05516303 -0.10086021 0.019271782
000010 aa db 08 bd 0e 55 be 3d dc 6f e1 bd ea e4 c8 3b
       -0.033412613 0.09293567 -0.110076636 0.0061308043
000020 1f b0 a6 3d 51 68 66 bd d2 21 da 3d a2 52 ce bd
       0.08139061 -0.056251828 0.10650982 -0.10074355
000030 97 5c bc bd e4 60 45 3c ee c7 99 3d 0b 47 a4 bd
       -0.091973476 0.012047026 0.07508837 -0.08021363
000040 e1 7f 6f 3d 66 04 45 bd 11 2a e6 3d 30 2d 38 bd
       0.058471564 -0.048099898 0.11238492 -0.04496497
000050 3a 09 e1 3d 8e 83 8d 3d 45 97 d0 3d 6c 8f 86 3c
       0.10988088 0.06909858 0.101851024 0.01642581
000060 d6 d3 b7 bd 6d bf 4d 3a 4a ec ab bd ea 7c 88 3d
       -0.089759514 0.0007848654 -0.08394678 0.066644505
000070 af b7 93 bd e8 c3 92 3d fa ae 9c 3d dc 66 2a bd
       -0.07212769 0.071662724 0.07650562 -0.041602
000080 d3 c4 c0 3d 08 dd 34 bd 25 a6 f9 3c 24 1e 93 bd
       0.09412541 -0.044156104 0.030474732 -0.07183483
000090 35 d1 df bc d5 6f a5 3d cc 1f 70 bd 29 a5 19 3d
       -0.027321437 0.08077971 -0.058624074 0.037511025
0000a0 26 f3 d0 bd 69 b6 c3 bd 3d 59 f7 3d 81 f9 d0 3d
       -0.10202627 -0.09556276 0.12077568 0.10203839
0000b0 f7 23 89 bd 5d 56 d6 3d 6e 79 d5 3a 28 88 94 bd
       -0.06696313 0.10465691 0.0016286799 -0.07252532
0000c0 e4 a7 d5 bc fa c1 91 bd 8d 3e a8 bd c8 42 bb bd
       -0.026081033 -0.07117076 -0.082150556 -0.09143597
0000d0 03 91 81 bc 70 f3 64 bc e2 35 bd 3d a7 5e 0f bd
       -0.015816217 -0.013974056 0.09238793 -0.035002377
0000e0 46 8f 9e 3c 4d 67 df bc d9 64 4f 3d 17 5b 40 bd
       0.019355427 -0.027270937 0.050633285 -0.04696187
0000f0 95 43 97 bd ef c3 c9 bd c9 0a a8 bd cd c2 9a bc
       -0.07385937 -0.098518245 -0.08205182 -0.018891716
000100 b2 da b1 bd 2e e5 a6 bd 1b 6b f6 bd bd e0 a2 bc
       -0.08684291 -0.08149181 -0.120321475 -0.019882554
000110 61 72 e8 3c a6 4f 55 bc 91 8d c1 3d db ee 9e bd
       0.028374853 -0.013019478 0.0945083 -0.07760402
000120 c5 b9 79 3d 9f 3d 75 bd c4 0e 4c 3b d9 cb 9e 3d
       0.06096818 -0.05987322 0.003113673 0.077537246
000130 b3 7e 6f 3d 0f d4 4a bd d9 ad ce 3d 22 77 6d 3c
       0.05847044 -0.04951864 0.100917526 0.0144937355
000140 e8 6e 1e bd c4 80 66 bd a2 52 b0 3c 9f 47 d2 3d
       -0.038679987 -0.056275144 0.021523777 0.10267567
000150 2b 25 64 bd f8 2b 13 3d 2d ba eb 3b cd 05 08 3d
       -0.05569951 0.035930604 0.0071938247 0.033208657
000160 8d 47 c7 3d 02 bb ae 3d fb 1e a8 3c 8c 06 dd b9
       0.09730444 0.08531763 0.020522585 -0.00042157283
000170 3a c8 89 3d c8 9b 4f 3d ba 89 b5 bd 1c 8e 90 bd
       0.06727643 0.050685674 -0.0886416 -0.07058355
000180 fc fd cd bd 43 5b 98 3d 7b aa c8 bd 0d 0f 6e 3d
       -0.10058209 0.07439282 -0.097981416 0.058119822
000190 3e 76 84 bd a7 05 3b 3c f6 ec bc 3d 79 e5 b6 3c
       -0.064678654 0.011414922 0.09224884 0.022326218
0001a0 c9 c2 6d 3c 28 13 15 3c 1e 73 11 3d 83 cb 49 bd
       0.014511772 0.0090988055 0.035510175 -0.04926635
0001b0 8c 7c be bc 2c 70 b4 bd f9 cc db bd 4f 86 51 3d
       -0.023252748 -0.088104576 -0.10732455 0.051153477
0001c0 f8 9a 87 3d d3 96 2e 3d 97 53 a0 bd 88 0b 3c bc
       0.06621355 0.042624306 -0.078284435 -0.011477359
0001d0 7a 82 c3 bd 9a 89 3e bd 18 82 d8 3d 93 c9 0e 3d
       -0.09546371 -0.046517946 0.105716884 0.034860205
0001e0 fc 28 b3 3d a3 b6 e5 bc 56 34 93 3d a7 45 2e 3d
       0.087480515 -0.02804119 0.07187717 0.042546894
0001f0 76 38 9f ba b1 76 c3 b9 e1 7f 50 3d 3a 2a 44 3d
       -0.0012147564 -0.0003728173 0.050903205 0.047891833
000200 cf d4 1a bc 24 53 5d bd 45 48 81 3d 75 7f cb 3d
       -0.009450152 -0.054034367 0.063126124 0.0993642
000210 6c 36 d0 3b 6a 7a 52 bd ff d8 83 bc d5 a1 59 bd
       0.006354144 -0.051386274 -0.016094683 -0.05313285
000220 5c 8e cb 3d 8a b3 1f bd 18 06 95 bc 35 b8 67 bd
       0.09939262 -0.03898958 -0.018191382 -0.056572158
000230 a2 c6 b2 bd 45 0c 35 3d 67 39 ad 3d ab 35 04 3d
       -0.087292925 0.044201154 0.08458214 0.032277744
000240 6e 5d b1 bd ad 02 c1 bc 98 79 ae 3d 49 a1 5a 3d
       -0.086603984 -0.023560846 0.08519286 0.05337647
000250 a9 a7 dc 3d b3 5c c3 3d a5 57 da 3d da 60 e9 bd
       0.10774166 0.09539165 0.10661248 -0.11395426
000260 8d 26 42 bd 6f e4 de bd db d1 0b bd 44 4d 96 bd
       -0.047400046 -0.10883414 -0.03413568 -0.07338956
000270 51 4c ae bd d2 e9 93 3c 7b 1f 81 bd 3f 6e 9c bd
       -0.0851065 0.01805583 -0.063048325 -0.07638215
000280 1b 79 21 bd f5 05 dc bd e8 c4 f3 3d a8 7b 0e 3c
       -0.039422136 -0.10743324 0.11902791 0.008696474
000290 86 0c 28 bc 9c 88 20 bd 49 63 1d 3d c8 84 c6 bd
       -0.010256892 -0.03919278 0.038424764 -0.09693295
0002a0 43 2f 45 3c a0 60 c7 bc f8 6d 9b 3d da d9 10 bc
       0.012035194 -0.024338067 0.07589334 -0.008841002
0002b0 22 86 02 3d ea 05 c4 3d e4 17 cf bd 85 d3 d6 3d
       0.0318662 0.095714405 -0.10111979 0.10489563
0002c0 1d 03 c6 3c a3 d0 64 bd ef fe 1d 3d 02 90 15 3d
       0.024171406 -0.055863034 0.0385732 0.03651429
0002d0 c2 6a 81 bd 7d 7e 5e bc e3 be 44 3d 7a 4b 82 bc
       -0.063191906 -0.013579962 0.048033606 -0.01590513
0002e0 dc 51 3a 3d 5a 3f 4a 3c 5a bd 86 bb a6 73 a6 3c
       0.045488223 0.012344206 -0.004111928 0.020318817
0002f0 2d 8e 5b 3d bd c5 e8 bd a0 bd 73 3d 94 76 20 3d
       0.053602386 -0.113658406 0.059507012 0.039175585
000300 22 a9 d2 3d 98 1a 35 3c d1 6d d4 bd 54 c1 b3 bc
       0.10286166 0.011053704 -0.10372508 -0.021942772
000310 0a 79 cd bd 2b 8a 83 3d bc 9e bb 3d bd 5b c2 bd
       -0.10032852 0.06422838 0.091611356 -0.09490154
000320 09 20 36 bd a3 32 24 bd 03 75 c1 bd 9e 9d 96 bd
       -0.044464145 -0.040087353 -0.09446146 -0.07354282
000330 7e b7 b6 3c 0d d7 a0 3a 0e 92 a0 bd c7 ba 5d 3d
       0.022304293 0.0012271121 -0.07840358 0.054133203
000340 8b fe b4 bd 74 4a 95 bd f1 52 50 3d a1 61 e2 bd
       -0.08837613 -0.072895914 0.05086035 -0.110537775
000350 7c 65 ee bc 89 df d0 bd f4 fd 51 bd a9 da 8c bd
       -0.029101126 -0.10198886 -0.05126758 -0.068776436
000360 e7 bf 86 bd ac 5a 1e 3d 5b d4 8a 3d fe cf c5 3c
       -0.06579571 0.03866069 0.06778785 0.02414703
000370 50 64 ca 3b be 50 9b bc df fe db bd d0 90 a9 bd
       0.006176509 -0.0189594 -0.10741972 -0.08279574
000380 72 3c d0 3d ef ac 0f 3d eb 28 ad bd e1 01 8b 3d
       0.10167779 0.03507703 -0.0845507 0.06787468
000390 f8 c0 da 3d 57 6e cc bc 00 be ce bd 13 cc ce 3d
       0.10681337 -0.024954958 -0.100948334 0.10097518
0003a0 77 00 24 bc b8 0f a3 3d 18 49 29 bd e8 b4 4f bb
       -0.010009876 0.079619825 -0.041329473 -0.0031693522
0003b0 44 d3 81 bc 59 af 50 bd b0 12 51 bd 07 7c a3 bd
       -0.01584781 -0.050948475 -0.051043212 -0.07982641
0003c0 60 ad 93 bc 79 f2 b0 3c 05 94 b4 bc 23 4a 97 bd
       -0.018027008 0.021599995 -0.022043237 -0.07387187
0003d0 a4 dd 36 bd f4 f5 a2 bd 80 9a b0 bd 74 eb e6 bd
       -0.044644967 -0.07957068 -0.086232185 -0.11275378
0003e0 7b 8b b8 bc 17 6a 75 39 2b f3 19 bd 40 1a a8 bc
       -0.022527447 0.00023404542 -0.03758542 -0.02052033
0003f0 04 d3 6e 3d ea 02 d4 bd 7c 81 ff 3c 06 0c 86 bc
       0.05830671 -0.10352118 0.031189673 -0.016363155

attn_layers.layers.0.1.to_out.weight f4 [74, 64]
000000 3b 8f 17 3d 6f ad f8 bd 52 1e 93 3d 4d 40 62 bc
       0.03700183 -0.12142455 0.071835175 -0.013809276
000010 b8 41 29 bb 12 db 0c 3d 5e c9 c6 bc 76 a4 33 bd
       -0.0025826525 0.03438861 -0.024265941 -0.043858014
000020 4f 48 7d bd c4 11 93 3d 6c 89 12 bc 08 e9 4e 3d
       -0.061836537 0.07181123 -0.008943897 0.050515205
000030 4e 93 55 3d 3a 59 3e 3d 35 58 aa 3c ed 3c dd bd
       0.052142434 0.04647181 0.020794014 -0.10802636
000040 9a dd 1c 3c 57 61 b7 bc 9d be 2a 3d b9 29 00 3e
       0.009574318 -0.022385282 0.04168569 0.12515916
000050 5b 70 3a bd f4 94 d7 3b c7 23 08 3c bd 7f 80 bd
       -0.045517307 0.006579036 0.008309311 -0.06274364
000060 60 25 59 bd a2 c4 d7 bd 63 71 e9 3d 82 6e 25 bd
       -0.05301416 -0.105355516 0.1139858 -0.04038859
000070 6d 5d 91 bd 4e 2a bf 3d 89 4b ff bc f5 92 4a 3c
       -0.07097898 0.09334241 -0.031163948 0.012364139
000080 6d ff e3 bd ff ce f1 bd aa e6 a4 bd af fd 65 bd
       -0.11132703 -0.118070595 -0.08051808 -0.056150135
000090 df ad c0 3d 98 fa da bd 24 65 96 3d c6 70 7a bd
       0.09408163 -0.10692328 0.0734351 -0.061142705
0000a0 b2 d1 cd bd ce bf 44 3d e6 0e 35 bb 44 84 00 3e
       -0.10049762 0.04803448 -0.0027627288 0.12550455
0000b0 05 8c b9 bd 98 16 d7 bd 61 28 92 3d 54 26 19 3d
       -0.0905991 -0.10502356 0.07136608 0.03739007
0000c0 77 74 51 3d cf a3 e6 3c f6 63 e0 3d a6 3c 3f bd
       0.05113646 0.028154282 0.10956566 -0.0466887
0000d0 3a 32 88 3b 79 b8 87 bc fc 2b e8 3d 06 dc 05 3d
       0.004156378 -0.016567456 0.11336514 0.032680534
0000e0 19 3d 89 3b ab e5 17 3c fe 49 5c 3d 62 f0 97 3d
       0.0041881916 0.009271066 0.053781502 0.07418896
0000f0 75 00 e9 bc de fb d0 3d aa 1b a9 3d e0 f6 e4 3b
       -0.0284426 0.1020429 0.082572296 0.0069874376
000100 79 c5 3b bd 8f e7 b1 3d 08 3d 88 3b 83 d1 3b 3c
       -0.04584262 0.086867444 0.004157666 0.011463526
000110 13 23 56 3d 63 a6 51 bc 8e 66 30 bd 89 55 bf bd
       0.052279543 -0.012796017 -0.043066554 -0.093424864
000120 ec de 9b 3d cb 8d a8 3c 88 d0 c7 bb c5 4a 7f bd
       0.07610878 0.020575425 -0.006097857 -0.062327165
000130 ac db c0 bd 22 9e 69 3d 1d d3 34 bd bd dd b6 bd
       -0.09416899 0.057035573 -0.044146646 -0.08929012
000140 57 93 ac bd b9 26 e3 3d 6d 88 97 bd d6 b5 2a bd
       -0.0842654 0.1109137 -0.07399068 -0.04167732
000150 5d 4e a4 bc b7 44 96 bd f1 4d 18 bd 69 8c c3 bd
       -0.020056898 -0.07337325 -0.037183706 -0.095482655
000160 34 b2 d3 bd 38 e3 03 bd 54 b7 03 3e 64 50 c4 3c
       -0.10336724 -0.032199115 0.12862903 0.023964114
000170 6b e2 15 bd 5f 3b e0 3d 21 c4 dd 3d e3 db 39 bd
       -0.036592882 0.10948824 0.10828424 -0.045375716
000180 f3 df 58 bc 1e e1 7e bc b1 6b 6a bd 7e e5 a4 bc
       -0.013236987 -0.015556602 -0.05723161 -0.020128962
000190 83 07 72 bd 1b b1 e6 bc e7 9e 3d 3d 92 dd 92 3d
       -0.059089195 -0.028160622 0.04629412 0.071711674
0001a0 74 a5 97 bd a8 2f cc 3d 59 a4 01 be 7e c1 27 3d
       -0.074046046 0.09970027 -0.1266035 0.040956013
0001b0 b7 20 93 3d 38 db 51 bd d2 36 4a bd e2 ec e6 bd
       0.07183974 -0.051234454 -0.049368687 -0.112756506
0001c0 9d d5 d2 bd 76 23 d8 bd 6e 31 b2 3d 29 74 e3 bd
       -0.1029465 -0.10553639 0.08700834 -0.1110614
0001d0 26 90 e1 3d d6 dc 2d bd 19 e0 34 bc c9 2f ba bd
       0.11013822 -0.042446934 -0.011039757 -0.090911455
0001e0 82 01 73 bd 8b 6c 18 3d 98 3a ac bd 51 47 cf 3d
       -0.05932761 0.03721289 -0.08409613 0.101210244
0001f0 3c 59 0b bd 60 97 ae 3d b0 bb 00 be 46 7c bb bd
       -0.034020647 0.08524966 -0.12571597 -0.09154563
000200 fe 97 b6 3a 08 20 05 3d a3 09 15 3c b7 38 51 3d
       0.0013930795 0.03250125 0.009096536 0.051079478
000210 81 48 fa bd b3 f2 d3 bd 96 df c8 3d 76 37 e0 3c
       -0.1222086 -0.103490256 0.09808271 0.027370196
000220 24 09 2a bd 7d 11 ec bd 65 8c 6d bd 37 cb f8 3d
       -0.041512623 -0.11526773 -0.05799522 0.12148135
000230 35 b7 a8 bb 71 37 c4 bd 18 42 f3 3d c3 ea a3 3d
       -0.005148793 -0.09580887 0.11877841 0.080037616
000240 e2 ba bb bd ab a8 97 bd 4e 94 31 bc bf c3 eb bd
       -0.091665044 -0.07405218 -0.010838581 -0.11511945
000250 bf e0 e1 3d 8b c4 04 3d b4 c7 e6 3c 13 56 d9 3d
       0.11029195 0.032414 0.028171398 0.106121205
000260 ac 81 02 be 29 b8 30 bd 6d 17 5b bd d6 a9 2b bd
       -0.12744778 -0.04314438 -0.053489137 -0.041910015
000270 63 11 bb bd 2a 70 06 bd 52 8b fb bc 2e 15 03 3e
       -0.09134176 -0.03282181 -0.030706082 0.12801048
000280 69 37 ad bb a3 82 da bd 86 e9 c6 bd 52 8a d6 3d
       -0.0052861464 -0.10669448 -0.0971251 0.10475601
000290 9c a0 b5 bd 62 2c e9 3d d2 07 15 3c d1 8a 87 3d
       -0.088685244 0.113854185 0.009096103 0.06618274
0002a0 13 ab 5d 3d 3f 17 d6 3b 3a 00 9f bd 03 77 bf bd
       0.054118227 0.006533533 -0.07763715 -0.093488716
0002b0 16 6b c2 3c 74 23 13 bd 90 de 60 bd 2a d3 43 3d
       0.023732703 -0.035922483 -0.054899752 0.047808804
0002c0 a1 ab 0f bd 5d f1 eb 3c 5a 3a 95 bb 54 9e 3c bd
       -0.035075787 0.028801614 -0.004554075 -0.04604943
0002d0 08 4e 1e bd 5b f9 69 bd bb ce fa 3d 72 f6 99 3c
       -0.038648635 -0.05712257 0.12246462 0.018794272
0002e0 eb 18 05 be a9 b6 62 3d c9 23 06 3d 3b 33 76 bd
       -0.12997787 0.05534998 0.03274897 -0.06010745
0002f0 0c f8 fc 3d 34 e3 12 bd cd f0 45 bd b3 8a ad bd
       0.12351999 -0.03586121 -0.04832535 -0.084737204
000300 ec f9 3e 3c 85 d6 ea 3d b2 0a ab 3d 19 67 81 bd
       0.011656266 0.114666976 0.08351649 -0.063184924
000310 86 e6 74 3d d7 26 0e bb d5 f2 3c bc b6 f2 5e bd
       0.059790157 -0.002169063 -0.011532505 -0.054430686
000320 25 e6 ce bd 08 18 63 3d 00 c7 14 3d eb ba c5 3d
       -0.1010249 0.05544284 0.036322594 0.096547924
000330 03 f6 9a 3b ca 83 a1 3c b0 83 46 3d da 7b 41 3d
       0.004729034 0.019716162 0.04846543 0.047237255
000340 ff 9a 39 bd 62 c7 ba 3d a0 da 3b bd 64 90 d9 bd
       -0.04531383 0.091200605 -0.045862794 -0.106232435
000350 45 52 e3 3d be d6 9f bb 9c 49 2c 3d 98 43 d6 bd
       0.11099676 -0.004877894 0.042062387 -0.10462111
000360 62 26 a6 3d 93 2a f7 bd 86 1b f5 3b 44 a6 a5 bd
       0.0811279 -0.12068667 0.0074800877 -0.08088353
000370 0c f2 66 bb 7f 4b b4 bd 51 5e b8 bd 56 b7 45 3c
       -0.0035239486 -0.08803462 -0.090023644 0.0120676365
000380 d2 74 ef 3d 97 06 5e 3d ba d6 93 3d 15 ca 3f bd
       0.116922036 0.054205503 0.0721869 -0.04682358
000390 d5 ea 49 b9 90 74 72 3b cf ef 13 bc 1e ca 89 bd
       -0.00019256336 0.0036995746 -0.009029343 -0.06728004
0003a0 23 e8 f7 3d 9c 63 1e 3d 39 1d d4 bd 17 e6 ba bd
       0.121048234 0.038669214 -0.10357136 -0.091259174
0003b0 53 8a d2 3d 6c fd cc 3d 18 5a df 3c 23 f2 30 bc
       0.102802895 0.10009274 0.02726464 -0.010799917
0003c0 ec f6 80 3d d2 f3 56 3b 52 21 91 bd 10 a7 a8 bd
       0.062970966 0.0032799137 -0.070864335 -0.0823499
0003d0 0f 91 6b 3d 02 01 d6 3d eb f9 37 bc 94 e3 b1 3d
       0.057511386 0.10449411 -0.011229019 0.08685985
0003e0 6e e3 4f bd 6f 9e a3 bc 5b d1 c5 3c 9f c7 f5 bd
       -0.050754003 -0.019973008 0.02414768 -0.12000965
0003f0 12 ae d6 3d 84 d3 8a bd 49 6f f3 3d 03 39 a9 bc
       0.1048242 -0.06778625 0.1188646 -0.020657068

attn_layers.layers.1.0.0.weight f4 [74]
000000 8d a1 7c 3f ff 20 7e 3f 67 0a 7e 3f 24 a9 7f 3f
       0.98684007 0.992691 0.9923462 0.99867463
000010 be 6e 7d 3f 2e d0 7c 3f 5f b9 7f 3f 7d ab 7f 3f
       0.98997104 0.98755157 0.9989223 0.99871045
000020 00 34 7f 3f 75 2f 7e 3f ad 59 80 3f 58 44 80 3f
       0.9968872 0.99291164 1.0027367 1.0020857
000030 a9 b3 7c 3f 62 53 80 3f 5e 87 80 3f d8 35 7e 3f
       0.9871164 1.0025446 1.0041311 0.9930091
000040 96 8d 80 3f 42 a0 7d 3f 59 d8 7f 3f 62 d1 80 3f
       1.0043209 0.9907266 0.99939495 1.0063899
000050 55 cb 7f 3f e2 86 7f 3f b8 53 7f 3f 35 c1 7f 3f
       0.99919635 0.9981519 0.9973712 0.99904186
000060 d9 1a 80 3f 2a bf 7e 3f 03 7d 80 3f b6 a4 80 3f
       1.0008193 0.99510443 1.003815 1.0050266
000070 ac 12 81 3f 5e 87 81 3f 66 34 81 3f cf 87 81 3f
       1.0083823 1.0119436 1.0094116 1.011957
000080 34 14 7f 3f 72 e2 80 3f 94 25 80 3f 86 b7 80 3f
       0.996402 1.0069106 1.0011468 1.0056007
000090 77 cf 81 3f bd 12 80 3f ff 54 7c 3f 94 d8 7e 3f
       1.0141438 1.0005718 0.98567194 0.9954922
0000a0 9e 87 7f 3f 50 66 7b 3f c0 e1 7e 3f 18 11 7f 3f
       0.9981631 0.9820299 0.9956322 0.9963546
0000b0 69 2e 81 3f 95 8d 7f 3f ba 87 7d 3f a6 65 7e 3f
       1.0092288 0.9982541 0.9903523 0.99373853
0000c0 35 6a 7e 3f f9 c0 7e 3f 50 fd 7e 3f 74 51 7d 3f
       0.9938081 0.995132 0.99605274 0.9895241
0000d0 14 17 7f 3f 43 c2 7c 3f 4a 96 80 3f c2 39 7f 3f
       0.9964459 0.9873392 1.0045865 0.99697506
0000e0 e4 9e 80 3f 57 9d 80 3f ad a9 81 3f f6 9d 82 3f
       1.004849 1.0048016 1.0129906 1.0204456
0000f0 0a 00 80 3f 3c 97 80 3f 86 00 7f 3f 64 7e 7f 3f
       1.0000012 1.0046153 0.99610174 0.9980223
000100 01 5d 80 3f 27 21 80 3f 9b f8 80 3f 50 6b 80 3f
       1.0028383 1.0010117 1.0075868 1.0032749
000110 c8 03 7e 3f ba 6c 7f 3f 7e be 80 3f 06 a0 7f 3f
       0.9922452 0.9977528 1.0058134 0.9985355
000120 17 35 7f 3f 77 70 7d 3f
       0.99690384 0.9899973

attn_layers.layers.1.0.0.bias f4 [74]
000000 c4 e5 64 3a a7 77 7d bb dc 96 bd ba d2 71 a6 b9
       0.00087317475 -0.0038676055 -0.0014464515 -0.0003174679
000010 6b b0 96 3b 9a 8e 8a 3b b7 10 30 3c 40 2f f6 ba
       0.0045986674 0.004228425 0.010746173 -0.0018782392
000020 40 86 df 3a 46 ea 94 3b 2c d2 9b 3a 4d e7 a0 ba
       0.001705356 0.004544529 0.0011888198 -0.0012275964
000030 0f ed 00 3c 79 6b 00 3c 43 7d 7b 3b b0 20 83 3b
       0.007869019 0.0078381235 0.0038374222 0.0040016994
000040 69 ce fe 3a ef 49 15 bb 59 d5 01 ba 94 f5 3b ba
       0.0019440177 -0.0022779664 -0.0004952751 -0.0007170078
000050 ea 53 9c bb 6d fa b4 bb ed d7 71 ba 87 42 f2 3a
       -0.0047707455 -0.005523017 -0.0009225596 0.0018482961
000060 18 bd 1f 3b a3 45 06 3b 46 fd e0 bb 83 ad 85 bb
       0.0024374183 0.0020488284 -0.00686613 -0.004079522
000070 f7 23 62 3b 28 4d ae 3b 89 37 50 3b e7 43 87 b9
       0.00345063 0.0053192563 0.0031771383 -0.00025799798
000080 9d 48 65 3c 11 6e d1 3b e0 6e 9a 3b 9d 70 0f 3a
       0.013994363 0.0063912948 0.0047129244 0.0005471798
000090 14 8a 8c bb 9f 52 35 3c 55 f1 1a 3c c7 3c e3 3b
       -0.004288921 0.011067062 0.009456952 0.0069347355
0000a0 7a 43 9a bb db d8 0d 3c 26 12 e2 b9 df ba 84 3b
       -0.004707751 0.008657659 -0.000431196 0.004050597
0000b0 8b f1 5a b8 db 7c a2 3b 7a e8 cb 3b 4f db 8b 3b
       -5.2200205e-05 0.0049587316 0.0062227817 0.004268087
0000c0 a8 68 88 bb f4 6e 26 bb 5d 3a 72 ba f4 cf 86 3b
       -0.0041628666 -0.0025395723 -0.0009240264 0.0041141454
0000d0 51 ec 09 3c e3 30 30 3c 5e 9b 89 3b 1a a1 11 38
       0.008418159 0.010753843 0.0041994294 3.472073e-05
0000e0 60 26 e5 bb 5d 4d 15 bb 01 33 80 bb 63 72 92 ba
       -0.0069931 -0.0022781708 -0.00391233 -0.0011173006
0000f0 7f 67 80 bb 6f 24 d6 ba e7 a8 0a bc fe ad 16 bc
       -0.0039185877 -0.0016337762 -0.008463121 -0.009196756
000100 3b e7 4b bb a5 95 5f bb 95 e8 fe bb d8 dd 4b bb
       -0.0031113166 -0.0034116295 -0.007779191 -0.003110757
000110 16 dc 20 bc 62 6c 33 bc 61 9d c2 ba 7b 94 6e bb
       -0.009818098 -0.010951133 -0.0014847928 -0.003640442
000120 28 03 27 bc c3 ae 3b bc
       -0.010193624 -0.011455241

attn_layers.layers.1.1.ff.0.0.weight f4 [296, 74]
000000 71 27 04 bd fa 62 96 bc de 31 94 3d 98 c8 92 3d
       -0.032264177 -0.018357743 0.07236074 0.071671665
000010 54 d9 bf bd c5 83 cb 3c 2e a9 e5 bd 93 a5 ed 3d
       -0.09367624 0.024843106 -0.11213909 0.116038464
000020 0f b9 d5 bd 62 78 1b 3d bc 27 83 3d 92 82 da 3d
       -0.10435688 0.037956603 0.06404063 0.106694356
000030 83 bc c6 bd f3 43 a1 3c 5d 72 a0 3c 78 ad a9 bd
       -0.097039245 0.019685721 0.019585783 -0.0828504
000040 c3 6d 8a 3d ad f5 f0 bc c0 8a 2d 3b 61 d3 93 3d
       0.06759217 -0.029414022 0.0026480407 0.07218052
000050 20 a4 9c bd 7b 0d 24 bd f6 0c de 3d 0e fb af 3d
       -0.07648492 -0.04005192 0.10842316 0.08592807
000060 01 4b 0a bd 1d 67 91 3d ea 9e 2b bd 48 c3 9b bd
       -0.033762936 0.070997454 -0.0418996 -0.07605606
000070 56 c8 df bd 9a 23 e4 3d 51 ef a0 bd 50 9d b9 3d
       -0.10926883 0.11139603 -0.07858146 0.09063208
000080 55 fa cd 3c c1 4d dc 3d 0e 3e 9b bd d2 d4 ed bd
       0.025143782 0.10757018 -0.07580195 -0.11612858
000090 50 89 1e bd bf 06 a4 bd 19 4f e8 bd 00 18 c7 bd
       -0.03870517 -0.08009099 -0.11343212 -0.097213745
0000a0 9a 58 4b bd 44 d2 2d bc 63 21 d6 3d 79 a1 fd 3b
       -0.049645044 -0.010609213 0.10455587 0.0077401963
0000b0 6e 17 8c bc f8 0b 3a bd 71 90 91 3d e3 d4 4b 3d
       -0.017101016 -0.04542157 0.07107628 0.04976357
0000c0 36 e0 df bd 7c 0d ac 3d d2 88 7b bd 27 4c 4c bd
       -0.10931437 0.084010094 -0.06140978 -0.049877312
0000d0 14 8c 58 3d 20 70 ae bb 34 ee d7 bd f2 06 60 3d
       0.052867964 -0.005323425 -0.105434805 0.054694124
0000e0 95 2e 56 3d 1e f0 e5 3d 33 92 d2 bd 17 1c fc bb
       0.052290518 0.11227439 -0.102817915 -0.0076937783
0000f0 bc ea 8c bd bb c4 23 3d 01 df 9f bd 9f b9 81 3d
       -0.068807095 0.03998254 -0.078062065 0.063342325
000100 da 10 a5 bd dd 1c 70 3d 03 c3 02 bd 01 de 94 bd
       -0.08059855 0.058621276 -0.03192426 -0.072689064
000110 c8 6a 3e 3d af 4b c2 3d a3 98 19 3d 52 47 3d 3d
       0.046488553 0.09487092 0.03749908 0.046210594
000120 93 cc b9 bc b3 fc ca bd ee 9f 91 3c 6e a6 a3 bd
       -0.022680556 -0.0991148 0.017776456 -0.07990728
000130 97 f9 bd 3d b1 0b 75 bd 73 d2 8f 3c 61 63 23 bc
       0.09276121 -0.059825603 0.017556405 -0.009972424
000140 eb 58 ab 3d d5 ef 00 3d 01 dd 2f 3d 70 df a1 3d
       0.08366569 0.03147872 0.042935375 0.079039454
000150 ad 4c 17 3d 00 49 f2 3b c9 c5 fc bc 43 ff a1 3d
       0.036938358 0.007393956 -0.03085603 0.079100154
000160 f5 31 ee b8 f4 c9 cb 3d 53 05 e2 3d c6 58 4c bd
       -0.000113580296 0.09950629 0.11036172 -0.04988935
000170 f5 6e 65 3d f1 bb b9 bc 46 14 c4 3d 2e a3 b9 bd
       0.05601402 -0.022672625 0.09574179 -0.09064327
000180 9c 09 85 3d e4 2a 03 bd 1a fa 86 bd 2b 47 a8 ba
       0.064959735 -0.032023326 -0.06590672 -0.0012838593
000190 e3 e4 8b 3d 18 e8 87 3d 37 99 47 bd d7 4b 61 3c
       0.06830766 0.06636065 -0.0487301 0.013750992
0001a0 48 55 8e 3d 2c 44 99 3d 84 d5 6e bd e8 8f 05 3c
       0.0694986 0.07483706 -0.058309093 0.008151986
0001b0 d4 54 ce 3d b9 2a f1 b7 e5 e5 e7 bd 9f 9e 32 bd
       0.100747734 -2.8749333e-05 -0.11323146 -0.043608304
0001c0 79 dc ce 3d 71 c6 d2 3d bf 5b 8a 3d 34 38 d9 bd
       0.101006456 0.10291756 0.067557804 -0.10606423
0001d0 fd c8 42 3d ef d5 46 3d 83 50 ab bd 89 a0 d1 bd
       0.04755496 0.048543867 -0.08364966 -0.10235698
0001e0 7a f1 84 3d 1c 4e 2e 3d 73 e8 38 3d 43 53 8f 3d
       0.064913705 0.04255496 0.045143556 0.06998303
0001f0 76 41 e9 3d 86 c2 b9 3d 50 f5 d8 3d a3 51 d3 bc
       0.11389439 0.090703055 0.10593665 -0.025795763
000200 28 a7 da bd 76 e0 83 3d ae 39 84 3d 1c 99 79 3d
       -0.10676414 0.06439297 0.06456314 0.060937032
000210 f9 65 bd bd 3a 89 ca 3d 94 00 10 bd 27 81 5a bc
       -0.09247965 0.09889455 -0.0351568 -0.013336456
000220 86 9c f5 3d 21 b3 aa 3d a8 d3 b8 bd ee 75 ce bd
       0.11992745 0.083349474 -0.09024745 -0.10081087
000230 bc 0d 4e 3d 31 da bb bc 84 c9 a5 3c de cf ea bc
       0.050306067 -0.02293119 0.020237692 -0.028663572
000240 cb f0 dc 39 68 8d 6a 3d 62 9a 00 be de 54 83 bc
       0.00042141075 0.05726376 -0.12558892 -0.016031679
000250 e3 e4 c5 3d b1 7d 85 bd e5 b8 52 bd b9 96 ab 3c
       0.09662797 -0.06518114 -0.05144586 0.020945894
000260 c4 4f fd 3b 51 48 f2 3d 99 d1 c9 bd 28 7c 8c 3d
       0.007730456 0.118301995 -0.09854431 0.068596184
000270 a9 a2 0e 3d 0c 2b 70 3d c1 27 02 bd 01 5e b4 bc
       0.034823094 0.058634803 -0.031776194 -0.02201748
000280 51 88 d8 bc 61 e4 9a 3d dd cc 2a 3d 6e b9 3b bd
       -0.026432188 0.07563091 0.04169928 -0.045831136
000290 2b e4 67 3d 3f 24 c4 bd 40 93 96 3d 68 1d 80 bd
       0.056614082 -0.09577226 0.073523045 -0.06255609
0002a0 0c f8 1c bd e3 67 a4 3d d7 45 73 3d db ad dd bd
       -0.038322493 0.08027627 0.059392776 -0.10824176
0002b0 ab e4 ed bc ed 1c 87 3a 57 c6 c8 bc 29 8b 53 bd
       -0.029039701 0.0010308303 -0.024508638 -0.051646385
0002c0 f8 b6 0f bd 86 42 8b 3d 6e 67 a1 3d 58 7b db bd
       -0.035086602 0.06799798 0.07881056 -0.10716885
0002d0 6c ed ed 3d 14 0b d0 bc d1 5b e2 bd ea d7 5a bb
       0.1161755 -0.025395907 -0.11052669 -0.0033392855
0002e0 56 7f a7 bd c4 d2 c0 3d 46 74 e1 3d cb 62 95 bd
       -0.08178584 0.094152 0.110085055 -0.07294234
0002f0 05 81 16 3d 86 f7 89 3c 57 69 99 bb 45 db 49 bd
       0.036744136 0.016841661 -0.004681747 -0.049281377
000300 f8 4b 04 bd 66 fb 96 bd 61 f4 e9 bc 75 8c e9 bd
       -0.032299012 -0.07372169 -0.028558912 -0.11403743
000310 5d 3c 0e bc 4d 11 7f 3c 61 96 91 bd 45 e2 c1 3b
       -0.008681384 0.01556809 -0.071087606 0.005916866
000320 2e b1 de 3d 6c 72 bc 3d 76 a3 4e bc fc 15 f7 bd
       0.10873638 0.09201512 -0.012612214 -0.1206474
000330 b4 3e c8 3c 5c 13 17 bd 97 46 06 be 0c 9c de bd
       0.024443962 -0.036883697 -0.13112865 -0.10869607
000340 4c 35 85 3c 06 03 7e bd a3 9b b2 bd a2 bc d5 3d
       0.016260765 -0.062014602 -0.087210916 0.104363695
000350 74 07 ae bb f4 c3 82 3d 0a f7 c7 3d eb 52 bb bd
       -0.005310947 0.06385031 0.09763916 -0.09146675
000360 5a b6 2e bc c1 f5 00 bd 48 72 e3 3d 50 92 d9 3d
       -0.010663593 -0.03148437 0.11105782 0.1062361
000370 6e f0 9b 3d 7a 5d db 3d b8 5b 87 bd 20 62 13 3d
       0.07614218 0.107111886 -0.06609291 0.03598225
000380 06 c6 a6 bd f0 21 62 3d 40 47 b8 3d 07 fe 46 bc
       -0.08143239 0.055208147 0.08997965 -0.012145526
000390 8b 39 9b bd d5 d7 c0 3d ec f4 04 bd 00 17 de 3c
       -0.07579335 0.09416167 -0.03246014 0.027110577
0003a0 56 0b 60 bd 03 f0 83 bd ed b9 67 3d e1 55 b8 bd
       -0.05469831 -0.06442263 0.056573797 -0.09000755
0003b0 cd 0b 87 3d 24 5b 8f bc fe 56 4a bd 14 7a d9 3c
       0.06594048 -0.017499514 -0.04939937 0.02654747
0003c0 3e 9a 41 3c 70 4f ac bd 40 3e 7d 3d 83 60 04 3c
       0.011816559 -0.08413589 0.061826944 0.008079651
0003d0 ec 25 61 3d c1 ad 08 bd 8f f1 9e bd a0 f7 d3 bd
       0.054967806 -0.03336883 -0.077609174 -0.10349965
0003e0 cc 07 42 3c 74 b3 2b bc 5a 89 c6 bd ff 10 18 3d
       0.011842679 -0.010479797 -0.096941665 0.037125584
0003f0 4b 19 a1 bd 13 d9 be bd 58 2c 2a 3c e4 12 db 3a
       -0.078661524 -0.09318747 0.010386549 0.0016714004
