Results/transformer/split_3/checkpoint.pt (torch, 832610 bytes, 46 tensors)

attn_layers.layers.0.0.0.weight f4 [74]
0	0x3f801496	1.0006282
1	0x3f812b26	1.0091293
2	0x3f80cf69	1.0063297
3	0x3f813de9	1.0097018
4	0x3f7fd228	0.9993005
5	0x3f80eb84	1.0071874
6	0x3f7dab8d	0.9908989
7	0x3f822df0	1.0170269
8	0x3f800c6a	1.0003788
9	0x3f816519	1.0108978
10	0x3f80abe1	1.0052453
11	0x3f80924a	1.0044644
12	0x3f802657	1.00117
13	0x3f7f879d	0.99816304
14	0x3f81ae66	1.0131347
15	0x3f80e1bd	1.006889
16	0x3f811c2b	1.0086721
17	0x3f807791	1.0036489
18	0x3f7dd1ff	0.99148554
19	0x3f7fa775	0.99864894
20	0x3f80f68b	1.0075239
21	0x3f811b5d	1.0086476
22	0x3f8059cd	1.0027405
23	0x3f808474	1.0040421
24	0x3f82097e	1.0159147
25	0x3f7f6ebc	0.9977834
26	0x3f83012a	1.023473
27	0x3f81bc38	1.0135565
28	0x3f80901b	1.0043977
29	0x3f8147e3	1.0100063
30	0x3f81c553	1.0138344
31	0x3f80a4e1	1.0050317
32	0x3f801a31	1.0007993
33	0x3f811564	1.0084653
34	0x3f80e14d	1.0068756
35	0x3f7f1133	0.9963562
36	0x3f806cc6	1.0033195
37	0x3f800d17	1.0003995
38	0x3f8021c6	1.0010307
39	0x3f7ddf2c	0.9916866
40	0x3f802c7b	1.0013574
41	0x3f7eef6d	0.99584085
42	0x3f80c81b	1.0061067
43	0x3f8029a9	1.0012714
44	0x3f806397	1.0030392
45	0x3f8124c4	1.0089345
46	0x3f7f9c7a	0.9984814
47	0x3f80c4b7	1.0060033
48	0x3f817a04	1.0115361
49	0x3f8062f1	1.0030195
50	0x3f7dad3b	0.99092454
51	0x3f80126e	1.0005624
52	0x3f805c5b	1.0028185
53	0x3f813c5d	1.0096546
54	0x3f7ebfc8	0.99511385
55	0x3f81c94a	1.0139554
56	0x3f80574f	1.0026644
57	0x3f80e500	1.0069885
58	0x3f7f51ee	0.9973439
59	0x3f7e8673	0.99423903
60	0x3f801855	1.0007426
61	0x3f7e7bf2	0.99407876
62	0x3f803ee1	1.0019189
63	0x3f80a9bc	1.0051799
64	0x3f7f5024	0.9973166
65	0x3f80b1da	1.0054276
66	0x3f7ff733	0.9998657
67	0x3f7ef3da	0.9959084
68	0x3f7ef391	0.995904
69	0x3f80229f	1.0010566
70	0x3f807bd7	1.0037793
71	0x3f8034d7	1.0016125
72	0x3f80fed4	1.0077767
73	0x3f7f1770	0.9964514

attn_layers.layers.0.0.0.bias f4 [74]
0	0x3b07b1a9	0.002070526
1	0x3af41b4b	0.0018623857
2	0xba7c8a3a	-0.00096336345
3	0x3a0cd232	0.0005371898
4	0xbb9e6d73	-0.0048348247
5	0x37ded2b9	2.6562588e-05
6	0x3bc4edd2	0.0060097957
7	0xb9c8edb5	-0.00038324078
8	0xb97cc763	-0.0002410687
9	0xba7cd6da	-0.00096450525
10	0x3b652580	0.0034964979
11	0x39a77253	0.000319379
12	0x398c38ad	0.00026745108
13	0x3c537083	0.012905243
14	0x3b961857	0.0045805383
15	0x39fc8224	0.00048162148
16	0x39f4a782	0.0004666411
17	0xbac928f8	-0.0015347293
18	0x3a3e6eae	0.00072644174
19	0xbbfd37a9	-0.0077275825
20	0xbb989441	-0.004656345
21	0x3a571578	0.0008204798
22	0x3b247cd6	0.0025098822
23	0xbc26f4a8	-0.0101901665
24	0xba477fe8	-0.0007610307
25	0xbb668a33	-0.0035177588
26	0xbc42e08b	-0.0118943555
27	0x3af08adc	0.001835193
28	0x3a9402bf	0.0011292322
29	0x3b21e8cd	0.002470541
30	0xbb4331b2	-0.002978426
31	0x3b2e62ee	0.002660926
32	0x3b9e4d2d	0.0048309774
33	0x3a24b55f	0.000628313
34	0xbc203424	-0.009778056
35	0x3c22769b	0.009915973
36	0x3b847801	0.004042626
37	0x3c225acb	0.009909342
38	0x3b314d08	0.002705397
39	0x3bfd0546	0.007721576
40	0x3b1ac100	0.0023613572
41	0xba677105	-0.0008828792
42	0xbc46a5b6	-0.0121244695
43	0xbab1df79	-0.0013570628
44	0xbb86a25e	-0.004108711
45	0xbab44ec5	-0.0013756385
46	0x3bbd7480	0.00578171
47	0x3c5546e2	0.013017388
48	0xba302419	-0.0006719246
49	0x3ab74aab	0.0013984045
50	0x3c38e28b	0.011284481
51	0xbb84914b	-0.0040456406
52	0x3af3ba41	0.0018594937
53	0xba11819e	-0.00055506255
54	0x3b2504ba	0.002517982
55	0xbb168c2f	-0.002297174
56	0xba19d1e1	-0.0005867761
57	0x3b956239	0.004558828
58	0x3a24fd55	0.0006293853
59	0xbbcae51b	-0.0061918623
60	0xb9487244	-0.00019116054
61	0xbc6906ba	-0.014222795
62	0xbad20a41	-0.0016024784
63	0x3a387393	0.0007036265
64	0xbb5cb7fb	-0.0033678997
65	0x3a873111	0.0010314306
66	0x3abd23da	0.001443024
67	0xbac905a3	-0.0015336763
68	0x3a9dd715	0.0012042249
69	0xbb42dd23	-0.0029733859
70	0xb89f6afe	-7.60164e-05
71	0xbb6bb4ee	-0.0035965997
72	0x3b787d30	0.0037916414
73	0xbbe3a35e	-0.006946965

attn_layers.layers.0.1.to_q.weight f4 [64, 74]
0	0x3c2523f6	0.010079375
1	0x3de69d06	0.112604186
2	0x3c506095	0.012718339
3	0x3d66f6cc	0.056387708
4	0xbde0fcd8	-0.10985726
5	0xbd7d56b5	-0.06185027
6	0xbe014d45	-0.12627132
7	0x3ddff3e0	0.10935187
8	0xbc88b889	-0.016689556
9	0xbd939363	-0.07205846
10	0x3ac2a697	0.0014850673
11	0xbd3ca41f	-0.046054956
12	0xbbb94f64	-0.005655216
13	0x3d63dc0d	0.05562978
14	0xbdbb5dd7	-0.09148758
15	0x3c9627fe	0.018329617
16	0x3da9c0a8	0.082886994
17	0x3cfc77ee	0.030818906
18	0x3d49c17b	0.049256783
19	0x3b653ecc	0.0034980057
20	0xbd6decd1	-0.058087174
21	0x3e015602	0.12630466
22	0xbd8ca2df	-0.06867003
23	0x3806e921	3.2165208e-05
24	0xbd53cfcf	-0.051711854
25	0x3d95fee3	0.073240064
26	0x3d97e6f5	0.074170984
27	0x3c0e3d74	0.008681644
28	0x3d3bf034	0.045883372
29	0xbde2bb1c	-0.110708445
30	0xbdd3d25b	-0.103428565
31	0x3d455587	0.04817727
32	0x3da40c34	0.0801014
33	0xbc86ec36	-0.016470056
34	0x3dde430c	0.10852632
35	0xbdcb6e43	-0.0993314
36	0xbd5cd148	-0.053910524
37	0x3da6e5ee	0.08149324
38	0x3cf54074	0.02993796
39	0x3d82a2af	0.06378686
40	0xbbfc6c73	-0.007703358
41	0x3d885445	0.06656698
42	0x3c3492f6	0.011021366
43	0xbd34bed0	-0.044127285
44	0xbce198f3	-0.027538752
45	0xbbc9f2c7	-0.0061629745
46	0xbe08d626	-0.13362941
47	0xbd41a9a5	-0.047280926
48	0x3cdecc0c	0.027196907
49	0x3d443405	0.047901172
50	0x3d6e3660	0.058157325
51	0xbcc2d56e	-0.023783412
52	0x3bb4111c	0.0054952037
53	0x3d1122c3	0.035433542
54	0xbd17da8e	-0.037073664
55	0xbdda7eb9	-0.10668702
56	0x3d3e9e53	0.04653771
57	0x3dcca9d7	0.09993332
58	0xbc3688af	-0.011140986
59	0xbdaa51d6	-0.0831639
60	0x3d33d313	0.043902468
61	0x3dcd5180	0.100253105
62	0x3d64e19c	0.05587922
63	0xbcf183d3	-0.029481804
64	0xbd5a8a5f	-0.053354617
65	0x3cda42a6	0.026643109
66	0x3df666be	0.12031315
67	0xbdc603f7	-0.09668725
68	0x3dfac426	0.122444436
69	0xba4ef289	-0.0007894417
70	0x3d1b7ada	0.037958957
71	0x3d96ec1b	0.07369252
72	0x3df7fc32	0.12108649
73	0xbd757bdb	-0.05993257
74	0x3dcef8fd	0.101060845
75	0x3d89993e	0.06718682
76	0x3d8916b6	0.06693785
77	0x3d839db3	0.06426563
78	0xbc7a24e8	-0.015267588
79	0xbb966404	-0.0045895595
80	0xbd8f6bed	-0.07003007
81	0xbcf1a03f	-0.029495357
82	0x3ccc43e3	0.024934715
83	0x3d8937b4	0.06700078
84	0xbdb49e45	-0.0881925
85	0xbdc40e75	-0.0957307
86	0xbd46e155	-0.048554737
87	0x3de5ef11	0.11227239
88	0xbd704625	-0.058660645
89	0xbd9b0cf8	-0.07570833
90	0x3d4c5657	0.049887028
91	0xbc390531	-0.011292742
92	0x3d4ef6a2	0.050528176
93	0x3c2e686b	0.010645012
94	0x3d95c9d6	0.07313888
95	0x3d9b4eb0	0.07583368
96	0xbd3ff559	-0.04686484
97	0x3dd67571	0.10471619
98	0xbde61a66	-0.11235504
99	0x3cfdae4a	0.030966897
100	0xbcf5a636	-0.029986482
101	0x3ca8e3dd	0.020616466
102	0x3c78c4a6	0.015183603
103	0x3dd09fc9	0.101867266
104	0x3daea7c1	0.0852809
105	0x3d9ad52b	0.0756019
106	0x3dc95f22	0.09832598
107	0x3def0361	0.11670566
108	0x3df1f845	0.11814932
109	0xbd2e545d	-0.042560924
110	0x3d864a98	0.065571964
111	0xbde1d419	-0.110267825
112	0xbd17414e	-0.036927514
113	0x3d607bac	0.054805443
114	0x3d79fc60	0.0610317
115	0x3cbbbe3a	0.022917856
116	0xbda93666	-0.08262329
117	0x3ceb8cdd	0.028753692
118	0x3e007347	0.12543975
119	0x3d8c5991	0.06853021
120	0x3d3481f7	0.044069257
121	0x3ddcb034	0.107757956
122	0xbbe453a7	-0.00696798
123	0x3b91481d	0.0044336454
124	0x3d89d9eb	0.06731018
125	0xbdbc73b3	-0.092017554
126	0x3de5892c	0.11207804
127	0x3bc3048d	0.00595147
128	0x3d53530c	0.05159287
129	0x3dcea77e	0.1009054
130	0xbda9d1a2	-0.082919374
131	0x3db81efd	0.089902855
132	0xbc81c415	-0.01584057
133	0x3d90bbea	0.07067092
134	0x3dab63de	0.083686575
135	0x39cdcb5b	0.0003925216
136	0xbdbc7307	-0.09201627
137	0xbd05fe8f	-0.03271347
138	0x3c86f351	0.016473444
139	0x3d89b31a	0.06723614
140	0xbdd2d512	-0.10294546
141	0xbda4c596	-0.08045499
142	0xbd0a5571	-0.03377289
143	0xbda16969	-0.078814335
144	0xbcd9b09b	-0.02657347
145	0xbcf5ea9f	-0.030019103
146	0x3d57d27d	0.05269097
147	0x3cef7859	0.02923219
148	0xbcd46986	-0.025929224
149	0x3c984097	0.018585486
150	0x3d4a2644	0.0493529
151	0xbc0f6442	-0.008751931
152	0xbd5b8b60	-0.053599715
153	0x3cf6158a	0.030039568
154	0x3c62f747	0.013852901
155	0xbd14665f	-0.03623044
156	0xbc039ec3	-0.008033457
157	0x3dbff853	0.09373536
158	0x3c8db308	0.017297283
159	0x3d048523	0.03235353
160	0x3d4569db	0.048196655
161	0x3d72aaf1	0.059245054
162	0xbce72e6a	-0.028220374
163	0x3ddb22da	0.10700007
164	0x3daebf43	0.08532574
165	0xbdc990ae	-0.098420486
166	0x3dd1a4d4	0.102365166
167	0x3cd1ce1d	0.025610978
168	0xbdc15751	-0.094404824
169	0x3dd69308	0.10477263
170	0x3d8e216f	0.06939971
171	0xbdd74e78	-0.105130136
172	0x3dc7b56c	0.097514
173	0xbe0021a7	-0.12512837
174	0xbd3d7fd8	-0.0462645
175	0x3cbc3e94	0.022979058
176	0x3ce84eb7	0.028357847
177	0x3dd358d5	0.10319678
178	0x3d855f35	0.065123
179	0xbddc274e	-0.10749684
180	0x3d81aec5	0.06332163
181	0x3d8ef1ed	0.069797374
182	0x3cf96330	0.030442804
183	0x3ca12fd0	0.01967612
184	0x3d6f7c20	0.058467984
185	0xbd73990b	-0.059472125
186	0xbddcc80c	-0.107803434
187	0x3d962ae9	0.07332403
188	0x3dc3e06f	0.09564292
189	0x3d0f9b88	0.035060436
190	0x3d36ed4a	0.04465989
191	0x3c111c47	0.0088568395
192	0x3db43a9d	0.08800242
193	0xbd846b74	-0.064658076
194	0x3d23bbdd	0.039974082
195	0x3d8f33d3	0.069923066
196	0xbd838185	-0.06421188
197	0xbdba0b1f	-0.090841524
198	0x3d265b15	0.040614206
199	0x3cb51928	0.022106722
200	0x3c61fca2	0.0137931425
201	0xbdc74361	-0.097296484
202	0x3c858e8e	0.016303327
203	0xbd7833f4	-0.06059642
204	0xbd167c5b	-0.03673969
205	0xbdadf12a	-0.08493264
206	0x3ddf7b7c	0.10912225
207	0x3da768c7	0.081742816
208	0x3de7c641	0.11317111
209	0x3d24586a	0.04012338
210	0xbc9639df	-0.018338142
211	0x3d0e0f74	0.034682706
212	0x3c9d761d	0.01922136
213	0x3dfe44ea	0.12415488
214	0x3dd0f1c4	0.10202363
215	0x3db66535	0.089060225
216	0x3dfc4fd4	0.123199135
217	0x3deead11	0.116541035
218	0x3d9c726c	0.07639012
219	0xbdae0e03	-0.08498766
220	0x3d256e1c	0.04038821
221	0x3d0ec2f6	0.034853898
222	0xbdaf44c7	-0.0855804
223	0xbd9d3841	-0.07676745
224	0xbdc2ce96	-0.095120594
225	0x3bad88e1	0.0052958583
226	0x3dcdf46c	0.100563854
227	0xbc92c6cf	-0.017917065
228	0xbd9db787	-0.07701021
229	0xbc848daf	-0.016180841
230	0xbde29834	-0.11064187
231	0x3cafd34a	0.021463055
232	0x3d0afbe6	0.033931635
233	0x3d82f320	0.06394029
234	0x3dddc8b3	0.10829296
235	0x3d8b6309	0.06805999
236	0xbd921324	-0.07132557
237	0xbd880c61	-0.06642986
238	0xbd4dbf1e	-0.05023109
239	0x3d906a20	0.07051492
240	0x3cc37174	0.02385781
241	0xbd4edd0d	-0.05050378
242	0x3d7bc68d	0.06146865
243	0xbc930917	-0.01794867
244	0xbc30d649	-0.010793277
245	0xbd8cec15	-0.068809666
246	0xbcfd38c1	-0.030910851
247	0x3dd01c8a	0.101616934
248	0x3c3fba52	0.011702137
249	0x3d1c64bc	0.038182005
250	0xbd8bcdee	-0.06826387
251	0x3b89ac07	0.0042014155
252	0x3cd045d3	0.02542392
253	0xba907f0d	-0.0011024192
254	0xbd599716	-0.053122602
255	0x3cc2cea5	0.023780176

attn_layers.layers.0.1.to_k.weight f4 [64, 74]
0	0xbc0c16af	-0.00855033
1	0x3dc110b4	0.09427014
2	0x3e018e9e	0.1265206
3	0x3d52c893	0.051460814
4	0x3c3b7a38	0.011442713
5	0x3d9b1e81	0.075741775
6	0xbd3659fa	-0.044519402
7	0xbd953672	-0.07285775
8	0xbc29b127	-0.010357178
9	0xbd1d8cbd	-0.038464297
10	0x3b33109b	0.002732313
11	0xbdc3c9ae	-0.09559952
12	0xbd403e53	-0.046934437
13	0xbd94e4aa	-0.07270177
14	0xbdbdb16a	-0.09262355
15	0x3d6d16bc	0.05788301
16	0xbdf9650f	-0.121774785
17	0x3d602384	0.05472137
18	0xbd8b90e1	-0.06814743
19	0x3da020ab	0.07818731
20	0x3c4f76f8	0.012662642
21	0x3c56a5fa	0.013101095
22	0xbd85215f	-0.06500506
23	0xbd69f8e4	-0.057122126
24	0x3dcca320	0.09992051
25	0x3c00f353	0.007870513
26	0x3d02063d	0.03174423
27	0xbabccd02	-0.0014404359
28	0xbd7f1eef	-0.06228536
29	0xbdda112c	-0.106478065
30	0xbd9257ba	-0.07145639
31	0x3dfa55c0	0.12223387
32	0xbd2833be	-0.04106497
33	0x3e083218	0.13300359
34	0xbdac528b	-0.08414181
35	0xbd1795e1	-0.03700817
36	0x3d12ad92	0.03581006
37	0xbbcfb470	-0.0063386485
38	0xbd13b6b6	-0.03606292
39	0xbd9f700e	-0.077850446
40	0xbd35c568	-0.044377714
41	0xbdd9750f	-0.1061803
42	0x3bc98a96	0.006150554
43	0x3daa5521	0.08317018
44	0xbdac2f2f	-0.08407437
45	0x3d36629d	0.04452764
46	0x3cc41a3b	0.023938289
47	0x3d24d31e	0.0402404
48	0xbdd67dd6	-0.1047322
49	0xbd846423	-0.06464412
50	0x3d67469b	0.05646382
51	0x3d7cfc09	0.061763797
52	0xbd9664b6	-0.07343428
53	0xbdcc9f0e	-0.09991275
54	0xbc92411a	-0.017853308
55	0x3ad09b57	0.0015915436
56	0xbd71d8e6	-0.05904474
57	0xbddeefdc	-0.10885593
58	0xbe0184f0	-0.12648368
59	0xbdcfe6d2	-0.10151447
60	0xbe030a15	-0.12796815
61	0xbd1e177b	-0.03859661
62	0xbdc043a1	-0.09387899
63	0xbc1d6528	-0.009606637
64	0x3da3a06d	0.07989583
65	0xbce2d52a	-0.027689535
66	0xbcf8bd17	-0.030363603
67	0xbdec6818	-0.11543292
68	0x3d402998	0.046914667
69	0x3da86239	0.082218595
70	0xbdcc9912	-0.09990133
71	0xbdd86fed	-0.10568223
72	0xbc98af34	-0.01863823
73	0x3dc4f06b	0.096161686
74	0xbd2dfb12	-0.042475767
75	0xbd3d023c	-0.04614471
76	0xbd076a8e	-0.033060603
77	0xbd44f0ef	-0.048081335
78	0xbd71f9c7	-0.059076097
79	0xbd9cb64b	-0.07651957
80	0x3ce2d4db	0.027689388
81	0xbd56f5c3	-0.05248047
82	0xbde14c9a	-0.11000939
83	0x3d46fc46	0.04858043
84	0x3daa73fc	0.083229035
85	0x3c6ebe93	0.014571804
86	0x3de8e8c5	0.11372522
87	0xbd38d77f	-0.045127388
88	0x3e0afc12	0.1357272
89	0x3dc372b1	0.0954336
90	0xbd283147	-0.04106262
91	0xbd354aef	-0.044260915
92	0x3d524d9e	0.051343553
93	0xbdec91b9	-0.11551232
94	0xbdeeaadf	-0.11653685
95	0x3cad1ee6	0.021132898
96	0xbdcf0fa2	-0.101104036
97	0xbd661937	-0.05617639
98	0x3d9bfae5	0.07616214
99	0x3d397ef6	0.045287095
100	0x3d81dde8	0.063411534
101	0xbdac6cae	-0.084191665
102	0xbc85dd9f	-0.016341029
103	0x3d0c1208	0.034196883
104	0xbd0c6129	-0.034272347
105	0x3d7fda91	0.0624643
106	0xbd475fcf	-0.048675355
107	0xbe068956	-0.13138327
108	0xbcbd9c32	-0.023145769
109	0x3db8a6f6	0.0901622
110	0x3c17d805	0.009267812
111	0x3d785a2b	0.060632866
112	0xbdaf9d3a	-0.085749105
113	0xbd86009b	-0.06543084
114	0xbccf7949	-0.025326388
115	0x3a90c69a	0.0011045516
116	0xbbbcee52	-0.0057657147
117	0x3d9636c6	0.07334666
118	0x3d2b4156	0.041810356
119	0xbd3a878e	-0.04553943
120	0x3d3e9a67	0.04653397
121	0xbdafa416	-0.08576219
122	0xbd4f51bb	-0.050615054
123	0x3de10388	0.10987002
124	0x3d33996c	0.043847486
125	0x3cf6faea	0.030148942
126	0x3da4d1c9	0.08047826
127	0x3e093447	0.13398848
128	0x3dceec94	0.101037174
129	0xbd928bd0	-0.07155573
130	0xbdcf2513	-0.10114493
131	0x3d3cc644	0.04608752
132	0xbdb7879c	-0.08961412
133	0xbd8ff4c6	-0.07029109
134	0xbd3dff20	-0.046385884
135	0xbdb2caf7	-0.08730119
136	0xbcef8b34	-0.029241182
137	0x3d795735	0.060874183
138	0xbdee41ff	-0.116336815
139	0xbdb80ef8	-0.0898723
140	0xbd41b368	-0.047290236
141	0xbdb418bf	-0.087937824
142	0x3bd2b1f4	0.006429905
143	0xbdfe4f97	-0.12417524
144	0xbd051b16	-0.032496534
145	0x3d97670b	0.07392701
146	0x3daf8586	0.085703894
147	0x3c16f32b	0.009213249
148	0xbd7c89f3	-0.061654996
149	0x3dbeca47	0.09315925
150	0x3e157f99	0.14599456
151	0xbb4a32d9	-0.0030853061
152	0xbd96aebf	-0.07357549
153	0xbb6dd800	-0.0036292076
154	0x3d2932b5	0.041308124
155	0x3dcf7489	0.10129649
156	0xbddf7443	-0.10910847
157	0xbcb19231	-0.021676155
158	0xbd19ad73	-0.03751893
159	0xbd83aebe	-0.06429814
160	0xbd63849d	-0.05554639
161	0xbd8f9c91	-0.070122845
162	0xbe024b6a	-0.1272408
163	0x3c5b4e53	0.013385373
164	0x3d258bea	0.040416636
165	0x3c92a345	0.017900119
166	0x3d67fefb	0.056639653
167	0xbccf88dd	-0.025333816
168	0x3d5a48e8	0.053292185
169	0xbd77c73d	-0.060492743
170	0x3dc00cf4	0.093774706
171	0xbd768654	-0.0601867
172	0x3da6b090	0.081391454
173	0x3bff04d8	0.00778256
174	0x3daa870f	0.08326542
175	0xbd7fd091	-0.062454764
176	0xbc575472	-0.013142692
177	0xbdc90757	-0.09815853
178	0x3d0d6f81	0.034530167
179	0xbdbd1a2a	-0.09233506
180	0xbdf281ef	-0.11841189
181	0x3dd31af4	0.10307875
182	0x3ddc5e8a	0.107602194
183	0xbd5bf2e0	-0.05369842
184	0xbdc1fe2c	-0.094723076
185	0x3c259162	0.010105463
186	0x3ddbf19a	0.10739441
187	0x3c7f1ca4	0.015570793
188	0x3d37c2bd	0.04486345
189	0x3dfaf94e	0.12254582
190	0x3c2e0381	0.010620953
191	0xbdb3c64c	-0.087780565
192	0xbcbbcb50	-0.022924095
193	0x39dda67c	0.00042276445
194	0x3d835dd4	0.06414381
195	0x3d85cfbc	0.06533763
196	0x3cd950de	0.026527818
197	0x3d830374	0.06397143
198	0xbd8ec496	-0.069710895
199	0x3dd802ac	0.105473846
200	0xbcd7e69f	-0.026355086
201	0xbc675f93	-0.014121908
202	0xbdbedb51	-0.09319175
203	0xbcc778e7	-0.024349643
204	0xbd0b62ac	-0.034029648
205	0x3cdf1d87	0.02723576
206	0xbdb919e7	-0.090381436
207	0x3d4b75c9	0.049672876
208	0xbdc2e428	-0.095161736
209	0xbdff0b29	-0.124533005
210	0xbd0b509a	-0.034012415
211	0xbdafe92d	-0.085893966
212	0x3d844fbd	0.06460521
213	0xbdf84ef9	-0.12124438
214	0xbc37dd57	-0.011222205
215	0x3db41470	0.08792961
216	0xbd3b860d	-0.045782138
217	0x3d3776bb	0.044790965
218	0xbbed4573	-0.007240945
219	0x3d32fe6f	0.043699678
220	0xbd9a25ae	-0.07526718
221	0xbd81bee9	-0.06335241
222	0xbcd9bec7	-0.026580228
223	0xbd01cdfe	-0.03169059
224	0xbb918ad9	-0.0044416008
225	0xbd0c2af9	-0.03422067
226	0x3de8aa76	0.11360638
227	0xbdb4d191	-0.08829034
228	0xbd1d9640	-0.038473368
229	0xbbac3ab1	-0.00525602
230	0x3d66f47e	0.05638551
231	0x3c9cd28b	0.019143363
232	0xbbfa75ef	-0.0076434533
233	0x3d974e15	0.0738794
234	0x3d621754	0.05519803
235	0x3df8a178	0.12140173
236	0x3d8fc7d0	0.07020533
237	0x3d610890	0.054939806
238	0xbdaaeb03	-0.08345606
239	0xbd2c0393	-0.041995596
240	0xbd8d28ac	-0.06892523
241	0x3dd4f15b	0.103975974
242	0x3dc78183	0.09741499
243	0xbddeb6fe	-0.10874747
244	0x3d23b5e2	0.03996838
245	0x3db1e692	0.08686556
246	0xbd90b04a	-0.070648745
247	0xbdeb5f94	-0.114928395
248	0x3c97c012	0.018524203
249	0xbcbb5d55	-0.022871653
250	0x3c88d3e0	0.016702592
251	0xbd348c49	-0.0440791
252	0xbd9a1743	-0.07523968
253	0xbdb99eca	-0.0906349
254	0xbc5e4f03	-0.013568643
255	0xbd1ced17	-0.038312044

attn_layers.layers.0.1.to_v.weight f4 [64, 74]
0	0xbc1db9b3	-0.009626794
1	0xbc293a00	-0.01032877
2	0x3dcb37fc	0.099227875
3	0x3d3c68cf	0.04599839
4	0x3c6e54a4	0.014546547
5	0x3d5a787c	0.05333756
6	0xbd1d952e	-0.038472347
7	0xbda9bfb7	-0.0828852
8	0xbd8130b8	-0.063081205
9	0xbd8e5ca8	-0.069512665
10	0x3dd6ac9d	0.10482142
11	0xbd86bfda	-0.065795615
12	0x3d6ba45b	0.05752979
13	0xbb04e351	-0.0020277093
14	0xbd76ed12	-0.06028468
15	0xbd90013a	-0.07031484
16	0x3c646c95	0.013941904
17	0x3da608b4	0.08107129
18	0x3cc3d136	0.02390347
19	0x3cbb184c	0.022838734
20	0xbdb5886e	-0.088639125
21	0xbd9ccb70	-0.0765599
22	0x3d94a51e	0.07258056
23	0xbdde0864	-0.10841444
24	0x3cd99a06	0.026562702
25	0x3ceb5d21	0.02873093
26	0x3dad39c5	0.08458284
27	0x3da04236	0.07825129
28	0x3d2e420f	0.042543467
29	0xbd2915f4	-0.0412807
30	0xbdd991b0	-0.10623491
31	0xbdeed9f2	-0.116626635
32	0xbdf225b0	-0.118235946
33	0x3d8451f9	0.064609475
34	0xbca18b7b	-0.01971983
35	0x3cbeba3a	0.02328216
36	0x3def31cf	0.11679422
37	0x3d0cbc3f	0.034359213
38	0x3d866b11	0.0656339
39	0x3d65fac9	0.05614737
40	0x3de8a6f0	0.11359966
41	0x3c4018bb	0.011724646
42	0xbd6aec04	-0.05735399
43	0x3ca89163	0.020577138
44	0x3c78ccc5	0.01518554
45	0xbd2baabd	-0.041910876
46	0xbd9ef408	-0.07761389
47	0xbbcfbd4b	-0.006339704
48	0xbd4d89a8	-0.050180107
49	0xbdd1aadc	-0.10237667
50	0xbd45d478	-0.04829833
51	0xbc397aa5	-0.011320745
52	0xbdbc4863	-0.09193494
53	0x3cc46a2d	0.02397641
54	0x3d232b8b	0.039836448
55	0x3d16f295	0.036852438
56	0x3cf6ded1	0.030135544
57	0x3dcaf8e6	0.09910755
58	0x3d8d52ea	0.0690058
59	0xbc35b91b	-0.011091496
60	0x3d56f721	0.052481774
61	0xbbc5340a	-0.0060181664
62	0x3da048ef	0.07826411
63	0xbbf9e4fa	-0.007626173
64	0xbca95750	-0.020671517
65	0x3d21fe89	0.039549384
66	0xbddfcdea	-0.10927947
67	0xbc9fdfe8	-0.019515947
68	0x3c86fd9f	0.016478358
69	0xbdc6bece	-0.09704362
70	0x3cee705b	0.02910631
71	0x3db512a3	0.08841445
72	0xbd5da086	-0.054108165
73	0x3d95da1f	0.07316994
74	0xbde3d7ab	-0.1112512
75	0xbd51cc0d	-0.05121999
76	0xbdebc88e	-0.11512862
77	0x3d284b49	0.041087423
78	0x3b98a2b9	0.00465807
79	0x3dcdc407	0.10047155
80	0xbdccb9ae	-0.09996353
81	0x3c258773	0.010103094
82	0x3b34de67	0.0027598382
83	0x3bb368b6	0.005475129
84	0x3d6d9cb8	0.058010787
85	0xbd90c833	-0.07069435
86	0xbd9486c1	-0.07252265
87	0xbd70f0aa	-0.058823265
88	0xbd29eb08	-0.04148391
89	0x3def52a9	0.11685688
90	0x3d0b03e6	0.033939265
91	0x3d61d19c	0.05513154
92	0xbda7d6c6	-0.08195262
93	0xbd4898f0	-0.048973978
94	0x3db29cd7	0.08721321
95	0x3b1b6e8e	0.0023717019
96	0x3db6380f	0.08897411
97	0xbc12094e	-0.008913351
98	0xbdecb6fe	-0.115583405
99	0x3de623aa	0.11237271
100	0xbd4e05d9	-0.050298546
101	0xbd5d3007	-0.05400088
102	0x3df6849f	0.12037014
103	0xbdfbb088	-0.1228953
104	0x3dc857ce	0.097823724
105	0x3dc17c26	0.094475076
106	0xbdccb429	-0.099953
107	0xbd7c041e	-0.061527364
108	0x3c6df358	0.01452335
109	0xbdd28ec2	-0.10281135
110	0xbdf2981a	-0.11845417
111	0x3d8af77c	0.06785485
112	0xbdcb8142	-0.09936763
113	0x3cd5e1d9	0.02610867
114	0x3d9a8bdb	0.075462066
115	0x3c78c853	0.01518448
116	0xbdcdbcd9	-0.100457855
117	0xbdca11f2	-0.09866704
118	0x3db7874f	0.08961355
119	0xbddf4899	-0.10902519
120	0x3be550ae	0.006998143
121	0xbdaf7327	-0.085668854
122	0x3dbeb38a	0.09311588
123	0x3dc41bfb	0.09575649
124	0x3d94f407	0.07273107
125	0x3ddd77f1	0.10813893
126	0x3df0723c	0.117405385
127	0x3b851864	0.0040617455
128	0x3c13574d	0.008992982
129	0x3ca0a758	0.019611046
130	0xbd3614c2	-0.04445339
131	0x3d31fcd4	0.043454006
132	0xbd1ac937	-0.03778955
133	0xbd93b675	-0.07212535
134	0xbdbbcd12	-0.091699734
135	0x3d524c28	0.05134216
136	0xbc123c4b	-0.008925508
137	0xbde4493f	-0.11146783
138	0x3d4cd12c	0.05000417
139	0x3dc582b1	0.09644068
140	0x3d04699d	0.032327283
141	0x3d634103	0.055481922
142	0xbba6beaf	-0.005088649
143	0x3dd244bc	0.10267016
144	0xbd8819ef	-0.066455714
145	0x3ded31d5	0.1158177
146	0x3c1e5df7	0.009665958
147	0xbd8d64f4	-0.06904021
148	0x3d0f96ee	0.035056047
149	0x3dfca27d	0.1233568
150	0xbdce6886	-0.1007853
151	0x3d3c51ba	0.045976378
152	0x3db90b84	0.090353996
153	0xbd839c84	-0.06426337
154	0x3bfc97ff	0.007708549
155	0x3c5b4ba1	0.013384731
156	0x3d253db1	0.040342037
157	0xbc442142	-0.01197082
158	0xbcef48f6	-0.029209595
159	0xbd945f8a	-0.07244785
160	0xbd89e79e	-0.067336306
161	0xbcc82f88	-0.024436727
162	0xbd86c9d3	-0.06581464
163	0xbc192c1b	-0.0093488945
164	0xbc357a7f	-0.011076569
165	0x3c80d845	0.015728125
166	0xbdb3c324	-0.087774545
167	0x3d90d289	0.070714064
168	0x3d88c2b5	0.066777624
169	0xbbc59d5e	-0.0060307225
170	0xbdbe4f32	-0.09292449
171	0xbda00042	-0.07812549
172	0xbdacffaa	-0.084472016
173	0x3d7d195a	0.061791755
174	0x3dc9f1e3	0.09860589
175	0xbdad602f	-0.08465611
176	0x3d877b6f	0.0661534
177	0x3e016adc	0.1263842
178	0x3b51f1c3	0.003203497
179	0x3dacc416	0.08435838
180	0x3c2accde	0.010424821
181	0xbd91c572	-0.07117738
182	0x3d7d7617	0.061880197
183	0x3dc420af	0.095765464
184	0xbbb28cb8	-0.005448904
185	0x3d6e3cb7	0.05816337
186	0x3d13ee4b	0.036115926
187	0xbc5cd789	-0.013479122
188	0xbd933be0	-0.071891546
189	0x3c8df7b6	0.017330032
190	0x3d8ee58c	0.06977376
191	0xbdcbf7be	-0.099593624
192	0xbde408f9	-0.11134524
193	0xbd4a33e3	-0.04936589
194	0xbd4bd7f3	-0.049766492
195	0xbd9f6df7	-0.07784646
196	0x3c10c572	0.008836137
197	0xbdc7b23c	-0.097507924
198	0x3db96955	0.090532936
199	0xbdcef925	-0.10106114
200	0xbdcc4da9	-0.0997575
201	0xbdd9f7c3	-0.1064296
202	0xbc487fc1	-0.01223749
203	0x3d848fd6	0.06472747
204	0x3c0d8eed	0.008640033
205	0xbdd30856	-0.10304324
206	0x3dca0135	0.098635115
207	0xbcf9f9e3	-0.030514663
208	0x3ddf8028	0.10913116
209	0xbd89a325	-0.067205705
210	0x3dddb03e	0.10824631
211	0x3d04ccb6	0.03242179
212	0x3da7114a	0.081575945
213	0xbd217722	-0.039420255
214	0xbbffdc55	-0.007808248
215	0x3d1846f1	0.03717703
216	0x3d80d307	0.0629025
217	0xbda997cb	-0.08280905
218	0xbddd787f	-0.108139984
219	0xbba97a0c	-0.00517202
220	0xbceae33d	-0.028672809
221	0xbd30cfc2	-0.043166883
222	0x3daa98dd	0.083299376
223	0x3c155c58	0.009116255
224	0x3db4bdaa	0.08825238
225	0x3d43e551	0.047826115
226	0x3d762cc0	0.06010127
227	0xbdb519e7	-0.08842831
228	0x3db53154	0.08847299
229	0xbc91f08d	-0.017814899
230	0xbc044a66	-0.008074379
231	0xbdc04658	-0.09388417
232	0xbd9d5dba	-0.076838925
233	0xbd1cd14a	-0.03828553
234	0xbd8cb8d2	-0.06871189
235	0x3dbd3b9d	0.09239886
236	0x3ce45669	0.027873235
237	0x3d31aa2e	0.043375187
238	0x3d0157d3	0.031577896
239	0xbde2f13c	-0.11081168
240	0x3dada4ee	0.084787235
241	0xbd007cf8	-0.03136918
242	0xbdb97c76	-0.09056942
243	0x3dd0a3f3	0.10187521
244	0x3cde7d32	0.027159307
245	0x3c1c75ef	0.009549602
246	0x3d1c1672	0.038107343
247	0x3d0c2e08	0.034223586
248	0x3de6f520	0.11277223
249	0x3d6c5ad1	0.057703797
250	0x3b286059	0.0025692193
251	0xbdbaa6d3	-0.091138504
252	0xbdfef049	-0.124481745
253	0xbd8828a0	-0.066483736
254	0x3d9d0fb2	0.07669009
255	0x3db9414d	0.09045658

attn_layers.layers.0.1.to_out.weight f4 [74, 64]
0	0xbc462229	-0.012093105
1	0xbde634f3	-0.11240568
2	0x3cf0d77d	0.029399628
3	0xbd88ffc5	-0.06689409
4	0xbd06c976	-0.032906972
5	0x3dce7fbb	0.100829564
6	0x3c58cdc0	0.013232648
7	0xbc30d88f	-0.010793819
8	0x3b34a4d0	0.0027564056
9	0x3d92a560	0.07160449
10	0x3d823e65	0.06359557
11	0xbdf5a074	-0.11993495
12	0x3c10a5c2	0.008828582
13	0x3d8c127b	0.06839462
14	0x3d21767b	0.039419632
15	0x3d0aa1e5	0.0338458
16	0xbda7fe88	-0.08202845
17	0x3b837f9a	0.004013014
18	0x3dedecdc	0.11617443
19	0x3de204ce	0.11036073
20	0xbcfa0041	-0.0305177
21	0xbdb1f310	-0.086889386
22	0xbca35427	-0.019937588
23	0xbd883037	-0.06649821
24	0x3d80f483	0.06296637
25	0xbdda692d	-0.10664592
26	0xbda8012e	-0.0820335
27	0x3d75d3c7	0.06001642
28	0x3bb215ae	0.0054347133
29	0x3df9cc22	0.12197138
30	0xbd97d123	-0.074129365
31	0xbde16d7e	-0.11007212
32	0x3d56bf38	0.052428454
33	0xbdacdbca	-0.08440359
34	0xbdf42458	-0.119209945
35	0xbddb4835	-0.10707132
36	0xbd46fe3d	-0.048582304
37	0xbcce07ba	-0.025150169
38	0xba773b18	-0.0009431108
39	0xbd844b78	-0.06459707
40	0xbd89bd3a	-0.06725545
41	0x3d215dc2	0.039396055
42	0x3c1438f5	0.009046783
43	0x3d937aac	0.07201132
44	0xbdfdaa99	-0.123860545
45	0xbd31cdfb	-0.04340933
46	0x3db88009	0.09008796
47	0xbdf438b5	-0.119248785
48	0x3db5b1c1	0.088717945
49	0x3d82770c	0.06370363
50	0xbd5c325f	-0.053758975
51	0xbd900637	-0.070324354
52	0x3c899274	0.016793467
53	0x3dc427d2	0.095779076
54	0xbcb0a49a	-0.021562863
55	0xbafaf667	-0.001914692
56	0xbd1eace4	-0.0387391
57	0x3cb5e6b8	0.022204742
58	0x3c5bfc27	0.013426817
59	0x3d6d6d35	0.057965476
60	0x3df6f70b	0.120588385
61	0x3d9511fe	0.07278822
62	0xbd642187	-0.055696037
63	0x3de7e7b7	0.11323493
64	0xbcfe5c75	-0.031049946
65	0x3d513425	0.05107512
66	0xbc8dc76a	-0.017307002
67	0xbd741e17	-0.05959901
68	0x3c15522a	0.009113828
69	0xbdda79ea	-0.106677845
70	0x3cb54c19	0.022131013
71	0xbde9bb34	-0.11412659
72	0x3d9c23a5	0.07623986
73	0x3d5568b3	0.052101802
74	0x3d220d20	0.0395633
75	0x3c0b3bb3	0.00849812
76	0x3dd67d8a	0.104731634
77	0x3cff2f82	0.031150583
78	0xbdd08f28	-0.10183555
79	0xbda3a98f	-0.07991325
80	0x3da89a28	0.08232528
81	0xbc9f0ce2	-0.019415323
82	0x3d82c3ff	0.063850395
83	0xba9975f8	-0.0011708131
84	0x3dbbb35d	0.0916507
85	0x3d21db62	0.03951586
86	0x3dcca437	0.09992259
87	0xbdf57d8a	-0.11986835
88	0xbda9faef	-0.08299815
89	0x3d614afa	0.055003144
90	0x3da9e24b	0.08295115
91	0xbbbef4b3	-0.0058275103
92	0xbd2accf4	-0.041699365
93	0xbd2126e7	-0.03934374
94	0xbc03f3b9	-0.0080537135
95	0x3d2cf19f	0.042222615
96	0x3c810072	0.015747283
97	0xbcf644ab	-0.03006204
98	0x3cfaf1e3	0.030632919
99	0xbdd8b2e1	-0.105809934
100	0xbda65ec0	-0.08123541
101	0x3d7046a2	0.05866111
102	0x3d989941	0.07451106
103	0x3d491cf3	0.049099874
104	0xbdba4cce	-0.090966806
105	0x3d358810	0.044319212
106	0xbcd3d3e4	-0.025857873
107	0xbdacc849	-0.08436639
108	0xbd659c9b	-0.056057554
109	0x3db34b00	0.087545395
110	0xbde6e6cd	-0.112744905
111	0xbdeb2dfb	-0.114833795
112	0x3ddfc57b	0.10926338
113	0x3dc331f4	0.09531012
114	0xbd142f86	-0.036178134
115	0x3da3b98c	0.07994375
116	0xbd70c165	-0.058778185
117	0xbbcdc505	-0.00627959
118	0xbdec95dc	-0.11552021
119	0xbd38aa66	-0.04508438
120	0x3d9f0b43	0.0776582
121	0xbdcaef12	-0.0990888
122	0xbcc8cdb0	-0.024512142
123	0xbc9bd870	-0.019024104
124	0xbd8a1f2b	-0.06744226
125	0xbcb7e3cb	-0.022447487
126	0x3bf6d65e	0.007532879
127	0xbd9f4a21	-0.07777811
128	0xbcbd0cae	-0.023077335
129	0x3ceef83b	0.0291711
130	0x3cd164b3	0.025560712
131	0x3d67a8fd	0.056557644
132	0x3db2597b	0.08708473
133	0xbcc58b7e	-0.024114367
134	0xbd6149b0	-0.055001915
135	0x3dfff56f	0.124979846
136	0x3d815591	0.063151486
137	0x3da30122	0.079592004
138	0x3d0e1897	0.03469142
139	0x3da42405	0.08014683
140	0x3cb4c9f7	0.02206896
141	0x3d98856b	0.074473225
142	0x3d9af8d6	0.07566993
143	0xb8dd8b14	-0.000105640065
144	0xbbdd6350	-0.0067562237
145	0xbdcbe3cf	-0.099555604
146	0xbdc53693	-0.0962955
147	0x3dd685f5	0.10474769
148	0x3d749f64	0.05972232
149	0xbdd82b73	-0.10555162
150	0xbcee52ee	-0.029092278
151	0xbdf776c9	-0.12083203
152	0x3de7941c	0.113075465
153	0x3cb0f46c	0.021600924
154	0xbc9a4099	-0.01882963
155	0xbd75bdcd	-0.05999546
156	0x3db24175	0.08703891
157	0x3c20c70e	0.009813083
158	0xbd9769a9	-0.073932
159	0xbd4aeddd	-0.04954325
160	0x3dad375a	0.08457823
161	0x3db70e6d	0.089382984
162	0xbd15e59f	-0.036595937
163	0xbdf47640	-0.11936617
164	0xbda2b116	-0.07943933
165	0xbd07c1a4	-0.033143654
166	0x3c228eb9	0.009921723
167	0x3dbffd13	0.09374442
168	0x3d821e2b	0.0635341
169	0x3dee9d6b	0.11651119
170	0x3df4e7ea	0.119582966
171	0xbdbf7eb3	-0.09350338
172	0xbdbaa0cf	-0.09112703
173	0xbd6e1834	-0.05812855
174	0x3d6492a8	0.055803925
175	0xbd44f2bb	-0.04808305
176	0x3c49c566	0.01231513
177	0xbde620da	-0.11236735
178	0xbdb4ab7e	-0.08821772
179	0xbdbb1565	-0.0913494
180	0xbde92b9c	-0.11385271
181	0xbd159b0d	-0.03652482
182	0xbd8aad21	-0.06771303
183	0xbd699094	-0.057022646
184	0x3bb24785	0.0054406547
185	0x3d6c3622	0.057668813
186	0xbd322c85	-0.04349949
187	0x3dab55e2	0.0836599
188	0xbda08246	-0.07837348
189	0xbd427314	-0.04747303
190	0x3d92eab0	0.07173669
191	0x3da44549	0.080210276
192	0xbdeac04c	-0.11462459
193	0xbdd6d521	-0.1048987
194	0x3c715afc	0.014731165
195	0xbd5b823d	-0.053591
196	0x3dd5952d	0.10428844
197	0x3b7e232d	0.003877829
198	0x3e0627aa	0.13101068
199	0xbdb0bc2b	-0.0862964
200	0xbdb91b4d	-0.0903841
201	0xbc979437	-0.018503292
202	0xbc1e3fa8	-0.0096587315
203	0x3d84b9c7	0.06480747
204	0xbdf844e2	-0.12122513
205	0x3d619bb6	0.05508014
206	0x3c690105	0.0142214345
207	0xbdc4cbdd	-0.09609196
208	0x3c6b0209	0.014343747
209	0x3cd5ed32	0.02611408
210	0xbdfbf18e	-0.12301932
211	0x3d09d2ba	0.03364823
212	0xbccea036	-0.025222879
213	0x3d17c324	0.037051335
214	0x3d803c68	0.062615216
215	0x3d1a25e4	0.03763379
216	0xbdf164a9	-0.117867775
217	0xbd0bfc9d	-0.034176458
218	0xbdd24449	-0.102669306
219	0x3df49421	0.11942316
220	0x3dda5bab	0.106620155
221	0x3ce0bfa9	0.02743514
222	0xbd08f061	-0.03343237
223	0x3dad4f42	0.08462383
224	0x3b5f43f4	0.0034067603
225	0x3dd59f70	0.10430801
226	0xbe013016	-0.12616
227	0xbc3389f9	-0.010958188
228	0x3d896666	0.06708984
229	0x3cc339a7	0.023831202
230	0x3df6ae0c	0.120449156
231	0x3cfc0d3b	0.030768028
232	0x3d7fa459	0.062412594
233	0x3dd31e90	0.10308564
234	0x3b703c73	0.0036657124
235	0x3ca99b0d	0.020703817
236	0x3c980ef6	0.018561821
237	0x3e01ef1a	0.12688866
238	0xbde4ec7b	-0.111779176
239	0x3bffb794	0.0078038666
240	0xbddd7592	-0.108134404
241	0x3c419550	0.011815384
242	0xbdbce415	-0.09223191
243	0xbce1d567	-0.027567578
244	0xbb03c966	-0.0020109056
245	0xbd535dee	-0.05160325
246	0x3dccb7c7	0.0999599
247	0xbd86564a	-0.06559427
248	0x3d25fe43	0.040525686
249	0x3da21829	0.079147644
250	0x3d053e51	0.032530133
251	0xbdab89ba	-0.08375879
252	0x3de43a33	0.11143913
253	0x3da57214	0.08078399
254	0x3d952ab4	0.072835356
255	0x3b2128f6	0.0024591065

attn_layers.layers.1.0.0.weight f4 [74]
0	0x3f80b623	1.0055584
1	0x3f7e1890	0.9925623
2	0x3f7e8edf	0.99436754
3	0x3f8072f1	1.0035077
4	0x3f7e8916	0.99427927
5	0x3f7e5a8e	0.99356925
6	0x3f7f32b7	0.9968676
7	0x3f7e789d	0.9940279
8	0x3f8041cf	1.0020083
9	0x3f7fcef0	0.99925137
10	0x3f7d4b04	0.9894259
11	0x3f804705	1.0021673
12	0x3f7ea309	0.9946752
13	0x3f7edf15	0.99559146
14	0x3f800be7	1.0003632
15	0x3f7f49d4	0.9972203
16	0x3f822be6	1.0169647
17	0x3f803a4f	1.0017794
18	0x3f7f2df0	0.9967947
19	0x3f7ecbe8	0.99529886
20	0x3f80c23a	1.0059273
21	0x3f802464	1.0011106
22	0x3f7d1f2b	0.98875684
23	0x3f811666	1.008496
24	0x3f7e4133	0.99318236
25	0x3f80f619	1.0075103
26	0x3f800110	1.0000324
27	0x3f8147ce	1.0100038
28	0x3f80bf6e	1.005842
29	0x3f814832	1.0100157
30	0x3f817523	1.0113872
31	0x3f7d33ae	0.9890698
32	0x3f80b51e	1.0055273
33	0x3f82d0a2	1.021992
34	0x3f807aa5	1.0037428
35	0x3f7faadc	0.99870086
36	0x3f819519	1.0123626
37	0x3f7fc989	0.99916893
38	0x3f7df8a7	0.9920754
39	0x3f7eb0f3	0.99488753
40	0x3f7f0fa1	0.9963322
41	0x3f7f14da	0.9964119
42	0x3f7acf2e	0.9797238
43	0x3f8044fd	1.0021054
44	0x3f808d2c	1.0043082
45	0x3f7feef3	0.9997398
46	0x3f7f0680	0.99619293
47	0x3f7f78f7	0.9979395
48	0x3f7e11f4	0.99246144
49	0x3f7e5047	0.99341244
50	0x3f7fdf10	0.9994974
51	0x3f7ea75c	0.9947412
52	0x3f7e5a66	0.9935669
53	0x3f8051e6	1.0024993
54	0x3f7f6b69	0.9977327
55	0x3f802974	1.001265
56	0x3f809bb3	1.0047516
57	0x3f7ed9d4	0.9955113
58	0x3f7f1528	0.99641657
59	0x3f81ff13	1.0155967
60	0x3f80aa0b	1.0051893
61	0x3f813640	1.0094681
62	0x3f7e0396	0.9922422
63	0x3f7d59f1	0.98965365
64	0x3f7f1d3f	0.99654
65	0x3f7f1bc9	0.9965177
66	0x3f7ca617	0.98690933
67	0x3f7f054d	0.99617463
68	0x3f800ed5	1.0004526
69	0x3f7dfe16	0.9921583
70	0x3f7ebc6d	0.99506265
71	0x3f8216de	1.0163229
72	0x3f8033ff	1.0015868
73	0x3f80527b	1.0025171

attn_layers.layers.1.0.0.bias f4 [74]
0	0xbbb588ff	-0.005540013
1	0x3bd8ae8c	0.0066126045
2	0x3b7675c4	0.0037606815
3	0xba969df0	-0.0011491161
4	0xbb9fc6f5	-0.0048760124
5	0x3ae17bc1	0.0017203019
6	0xbab996a2	-0.0014159272
7	0x3a2bb54f	0.00065501494
8	0x38d826fb	0.00010306943
9	0x3b1e2735	0.0024132256
10	0xba11a60c	-0.0005556054
11	0x3a75a902	0.00093711924
12	0x3b81bfdd	0.0039596395
13	0xbb2aa25c	-0.0026036715
14	0x3b86ee9b	0.0041177995
15	0xbbbaaed2	-0.0056971097
16	0xba865347	-0.0010248207
17	0xba08e48c	-0.00052220444
18	0xba6ebbf4	-0.00091069867
19	0xbbe59b3d	-0.0070070312
20	0xbc0a8f0e	-0.008456958
21	0xbb5ac4de	-0.0033381502
22	0xbc9604cb	-0.018312832
23	0xbb59bee1	-0.0033225345
24	0x3c120230	0.008911654
25	0xbb9de292	-0.004818269
26	0x3c3afbeb	0.011412601
27	0x3a6d6128	0.000905531
28	0xbb4506c7	-0.0030063854
29	0x3ba85a2a	0.0051377015
30	0xbab4eea7	-0.0013804034
31	0x3c067d23	0.008208546
32	0x3ab36486	0.0013686575
33	0x3ab04c17	0.0013450411
34	0xba03a92c	-0.0005022462
35	0x3b62a092	0.003458057
36	0x393be5de	0.00017919342
37	0xbb67c4c2	-0.003536508
38	0x3b785320	0.0037891343
39	0x3bbb53ae	0.0057167625
40	0x3b17e2a8	0.002317587
41	0xbb22abc4	-0.0024821619
42	0x3b97b919	0.0046302197
43	0xba9d9178	-0.0012021502
44	0x39020e45	0.00012403082
45	0x39b3f6bd	0.00034325375
46	0x3c1daad6	0.00962325
47	0x3b3d9cdd	0.002893261
48	0x39d044cb	0.00039724106
49	0x3ba0960b	0.004900699
50	0xbaa9bffa	-0.001295089
51	0x3bbac01a	0.00569917
52	0x3c0d7b6c	0.008635383
53	0xbb5aa2b0	-0.003336113
54	0x3b03d73f	0.002011731
55	0xbb9b3a95	-0.004737208
56	0xbbbf2fe3	-0.005834566
57	0xbc0b8f93	-0.0085181175
58	0xbb35ff78	-0.002777068
59	0xba7b79ed	-0.00095930585
60	0xbb63d6e6	-0.003476554
61	0x3b24b86f	0.0025134345
62	0xbc2f766d	-0.010709387
63	0xbbabb693	-0.0052402704
64	0xbc01f09d	-0.007930902
65	0xbba45e11	-0.0050160964
66	0xbc3866ac	-0.011254948
67	0xbb302b7f	-0.0026881394
68	0xbba03910	-0.004889615
69	0xbbfc2eba	-0.007696
70	0xbc079fd6	-0.008277854
71	0xbb07548f	-0.0020649766
72	0xbaef6882	-0.0018265399
73	0xbab8e236	-0.0014105502

attn_layers.layers.1.1.ff.0.0.weight f4 [296, 74]
0	0xbcab20b6	-0.020889621
1	0xbc454924	-0.012041364
2	0x3d6cfa45	0.057855863
3	0x3da9c5e1	0.082896955
4	0xbd9ecda8	-0.077540696
5	0x3dce0707	0.10059934
6	0x3d9587c8	0.07301289
7	0xbdb45b95	-0.088065304
8	0x3ba1bb69	0.004935671
9	0x3de25ddb	0.11053058
10	0x3d91a7fc	0.071121186
11	0xbd00ec65	-0.031475443
12	0x3b4e5c94	0.0031488286
13	0xbd97f8ac	-0.07420477
14	0xbd1d8e44	-0.038465753
15	0x3d9a4783	0.07533171
16	0xbdc09235	-0.09402887
17	0xbd26ee51	-0.04075462
18	0x3d64dcea	0.055874743
19	0x3d899e65	0.067196645
20	0xbd9b03b0	-0.07569063
21	0xbd1b51f0	-0.03791994
22	0x3d629cc8	0.0553253
23	0x3b632a74	0.0034662755
24	0x3a83f419	0.0010067254
25	0x3d4937c3	0.049125444
26	0xbdd77f76	-0.10522358
27	0x3dc88a6a	0.097920254
28	0x3de4d12d	0.111727096
29	0x3db2f3f3	0.08737936
30	0xbce6498c	-0.028111242
31	0xbd29291f	-0.04129898
32	0x3d4f5cb7	0.05062553
33	0x3d4da149	0.05020264
34	0x3d874621	0.06605173
35	0x3dcc5469	0.099770375
36	0xbdeb8dae	-0.11501633
37	0x3db10bcb	0.086448275
38	0x3d4b21cf	0.04959279
39	0xbdd5d71c	-0.104414195
40	0x3d1465ae	0.03622978
41	0x3d281256	0.04103311
42	0x3da2e801	0.079544075
43	0x3cfb81f2	0.030701611
44	0x3dadb4e0	0.08481765
45	0x3dc3cadd	0.095601775
46	0x3dbad6eb	0.091230236
47	0x3dbdfbc5	0.09276537
48	0x3dc49cc1	0.09600211
49	0x3d97a6d6	0.07404868
50	0x3dc63e4b	0.0967985
51	0x3e002076	0.12512383
52	0x3cb7e4db	0.022447994
53	0xbd848f2a	-0.06472619
54	0x3df26b38	0.118368566
55	0xbdb4a50c	-0.08820543
56	0xbdafaf33	-0.085783385
57	0xbcb9ff24	-0.022704668
58	0xbd99342b	-0.074806534
59	0xbdf0ad49	-0.117518015
60	0xbdf09222	-0.117466226
61	0xbde7230a	-0.1128598
62	0x3d68ec76	0.05686613
63	0xbded9fde	-0.11602758
64	0xbdaae536	-0.083445
65	0x3c645df5	0.013938417
66	0xbcac680f	-0.021045713
67	0xbd456b47	-0.04819801
68	0xbd1afd78	-0.037839383
69	0xbdb6f83f	-0.08934068
70	0x3d8a0092	0.0673839
71	0x3de1f054	0.11032167
72	0x3dc0c542	0.09412624
73	0x3da9fde4	0.08300379
74	0xbdd29472	-0.1028222
75	0xbb0e9cc2	-0.0021760915
76	0x3cf49891	0.029857906
77	0x3d978bc5	0.07399706
78	0xbd983f79	-0.074339814
79	0xbd11ba9d	-0.03557836
80	0xbd236da2	-0.039899476
81	0x3d49b14b	0.049241345
82	0x376204f4	1.3471803e-05
83	0x3d9a9f2c	0.07549891
84	0xbceeb042	-0.02913678
85	0xbd383851	-0.044975583
86	0xbdeafb01	-0.114736564
87	0x3d9f65b2	0.07783069
88	0x3c0bc0cf	0.008529856
89	0x3dd8aa4e	0.10579358
90	0x3ca64fbd	0.020301694
91	0x3dfc01d3	0.123050354
92	0xbd705684	-0.058676258
93	0xbdc56ec1	-0.09640265
94	0xbde17b9a	-0.11009903
95	0x3dd29ac5	0.10283426
96	0x3d714383	0.058902275
97	0xbc8f385d	-0.01748293
98	0x3c08b612	0.00834419
99	0xbd1c9b86	-0.038234256
100	0x3d459c9b	0.048245054
101	0xbd23ee2d	-0.040022064
102	0xbd9529cf	-0.07283365
103	0xbd20e422	-0.039280064
104	0xbd072e3b	-0.033003073
105	0x3d6a437b	0.05719326
106	0x3c0cb996	0.008589169
107	0x3cb926d1	0.022601517
108	0xbdc34c24	-0.09536007
109	0x3de486ef	0.11158549
110	0x3d826a69	0.063679524
111	0xbd18ad12	-0.037274428
112	0xbdb6fe9d	-0.089352824
113	0xbd62bcfd	-0.055356015
114	0x3dd22ee5	0.10262851
115	0x3ddc1017	0.107452564
116	0xbda39aa5	-0.079884805
117	0x3b8ed453	0.004358807
118	0xbdb9370b	-0.09043702
119	0xbcd9a937	-0.026569946
120	0x3cbb1008	0.022834793
121	0xbdd9b772	-0.106306925
122	0xbd6d2769	-0.057898913
123	0x3dd23a60	0.102650404
124	0x3d73f30a	0.059557952
125	0xbd890fff	-0.06692504
126	0xbc649b89	-0.013953098
127	0xbdfdc79f	-0.1239159
128	0xbd832d22	-0.06405093
129	0x3d21bba7	0.0394856
130	0xbda65f0a	-0.08123596
131	0x3de34ba9	0.110984154
132	0x3dd95e64	0.10613707
133	0xbd2b9c99	-0.04189739
134	0xbca1acce	-0.01973572
135	0x3d5c3c39	0.05376837
136	0xbdb3abb0	-0.08772981
137	0xbc0f6b7a	-0.008753652
138	0xbda03950	-0.078234315
139	0x3da0cbbf	0.078513615
140	0xbd92d209	-0.07168967
141	0xbdb1ff2b	-0.086912476
142	0x3bc143da	0.005897981
143	0x3de7622c	0.11298022
144	0xbd1a4885	-0.037666816
145	0x3ab5fe40	0.0013884977
146	0xbd7f5823	-0.062339913
147	0xbd7eced6	-0.062208973
148	0xbd86700b	-0.06564339
149	0x3c1f3d70	0.009719238
150	0xbc84698d	-0.016163612
151	0x3d33bf9a	0.043883897
152	0x3ccfdac7	0.025372876
153	0x3dcb4c1b	0.09926625
154	0xbbae14e3	-0.0053125485
155	0xbdabf593	-0.08396449
156	0x3da0aa6f	0.07845008
157	0x3dcee096	0.1010143
158	0x3aadb2c3	0.0013252128
159	0xbd94b4c3	-0.0726104
160	0xbdac5e25	-0.08416394
161	0x3dd72b25	0.10506276
162	0xbc7ec675	-0.0155502455
163	0xbdc7583a	-0.09733625
164	0x3deac217	0.11462801
165	0x3c1a55c2	0.00941986
166	0xbb7c8740	-0.0038532764
167	0x3d718224	0.058962002
168	0x3d98ad95	0.07454983
169	0xbb9f6260	-0.004864022
170	0x3d572d05	0.05253317
171	0x3dae801c	0.08520529
172	0xbddd7c60	-0.10814738
173	0xbcc4ac06	-0.024007808
174	0x3dceca3a	0.100971654
175	0xbdd22091	-0.10260118
176	0x3deb7dc1	0.11498595
177	0xbb3418b8	-0.0027480554
178	0xbda76e2c	-0.081753105
179	0x3df33c57	0.11876743
180	0xbc980e8d	-0.018561626
181	0xbda1e7f3	-0.07905569
182	0xbdba1e89	-0.09087855
183	0x3d4c97ad	0.049949337
184	0xbde5a5c3	-0.11213257
185	0xbd782eeb	-0.06059162
186	0xbd48e79b	-0.049049
187	0x3da22e03	0.07918932
188	0x3dcf43aa	0.10120328
189	0x3db4d08f	0.08828842
190	0x3d7a6876	0.061134778
191	0xbdb2d148	-0.087313235
192	0x3dcbf1c9	0.09958226
193	0x3d91c5e6	0.07117824
194	0x3cc168e1	0.02360958
195	0xbd309b94	-0.04311712
196	0x39f9eddb	0.00047670197
197	0xbda71e72	-0.08160104
198	0xbca12da3	-0.019675082
199	0xbbf049ed	-0.0073330314
200	0xbd54c53b	-0.051945906
201	0xbd8c77b4	-0.06858769
202	0xbcf5abaf	-0.029989092
203	0xbd207d91	-0.03918225
204	0x3da99be6	0.082816884
205	0xbda574ae	-0.080788955
206	0xbd95149a	-0.0727932
207	0x3c8674f8	0.016413197
208	0xbdeb5996	-0.114916965
209	0xbcdccd3c	-0.026953332
210	0x3db5e23d	0.08881042
211	0x3c391253	0.011295873
212	0x3c750b5b	0.014956321
213	0xbd9d9662	-0.07694699
214	0x3d9eb565	0.07749442
215	0xbdea51d6	-0.1144139
216	0xbce166bf	-0.027514813
217	0xbde76323	-0.11298206
218	0xbd99b139	-0.07504506
219	0x3d0638c7	0.03276899
220	0xbd3d0107	-0.046143558
221	0x3d9186a3	0.07105758
222	0x3d8e65b7	0.06952994
223	0xbd5c7aa7	-0.053827908
224	0x3d823306	0.06357388
225	0xbdc379cf	-0.095447175
226	0x3cabd56d	0.020975793
227	0xbd699571	-0.057027284
228	0xbc46e42f	-0.012139364
229	0xbcc4804a	-0.023986954
230	0x3d33955c	0.043843612
231	0x3daa2a2c	0.08308825
232	0xbd1403e6	-0.03613653
233	0xbb09edeb	-0.0021046351
234	0x3cb4c4e5	0.022066543
235	0x3cc1a640	0.023638844
236	0xbdbf2b13	-0.09334388
237	0x3dbf69b1	0.09346331
238	0x3dea2e59	0.11434621
239	0x3ce7b769	0.028285699
240	0xbcf1fc44	-0.029539235
241	0xbca790eb	-0.020454844
242	0x3dd40903	0.10353281
243	0xbdb64d6a	-0.08901484
244	0x3de08c04	0.10964206
245	0xbddb76d9	-0.10716028
246	0xbd90378c	-0.07041845
247	0x3dcfecb1	0.10152567
248	0x3d329095	0.043594915
249	0x3cda8283	0.026673561
250	0x3de6b905	0.112657584
251	0x3d03633c	0.03207706
252	0xbca3d3a5	-0.01999838
253	0x3cb47d4c	0.022032402
254	0xbd337f69	-0.04382268
255	0xbd7ac7db	-0.061225753

attn_layers.layers.1.1.ff.0.0.bias f4 [296]
0	0x3cc237ef	0.023708312
1	0xbdb35545	-0.08756498
2	0x3d8db6aa	0.06919606
3	0xbd24462a	-0.040105976
4	0x3d593dd8	0.053037494
5	0x3d990b39	0.07472844
6	0xbc297740	-0.010343373
7	0xbd02553a	-0.03181956
8	0x3d1aca20	0.037790418
9	0xbdd576e0	-0.10423064
10	0x3d6e56da	0.058188297
11	0x3de9abd3	0.11409726
12	0xbcde15eb	-0.02711006
13	0x3d37a8c7	0.044838693
14	0xbc7e6125	-0.015526091
15	0xbd669ee3	-0.05630387
16	0x3d8a1e81	0.067440994
17	0xbdd4ca3e	-0.10390137
18	0x3cd5d143	0.02610076
19	0xbcab95fe	-0.020945545
20	0x3d8232ab	0.063573204
21	0x3cf65a24	0.03007228
22	0xbcab899d	-0.020939643
23	0x3d25082d	0.040291
24	0x3d84e439	0.064888425
25	0x3b67aba1	0.0035350102
26	0x3d68f21b	0.056871515
27	0x3d5692eb	0.052386206
28	0x3cd9ed60	0.026602447
29	0xbda86862	-0.082230344
30	0x3d1d41fd	0.03839301
31	0xbd36d716	-0.044638716
32	0xbd8d659f	-0.06904148
33	0xbd545fad	-0.051849056
34	0x3d3c8bc6	0.046031736
35	0x3d1af747	0.03783348
36	0x3af88baf	0.0018962527
37	0xbd9686f2	-0.073499575
38	0xbd88b003	-0.066741966
39	0xbc07922c	-0.008274596
40	0xbd731524	-0.059346333
41	0xbda452f2	-0.08023633
42	0xbd650943	-0.055917036
43	0xbd8cc595	-0.06873623
44	0x3d2ea5fe	0.04263877
45	0x3d725379	0.059161637
46	0xbd82473c	-0.06361243
47	0xbc9e4c0b	-0.01932337
48	0xbdb33382	-0.08750059
49	0xbd24e9dd	-0.040262092
50	0x3cde71cc	0.027153872
51	0xbc30df58	-0.010795437
52	0x3c337235	0.010952522
53	0x3d6b9c68	0.057522207
54	0x3ccc09fe	0.024907108
55	0x3d6c3566	0.057668112
56	0xbc2041c3	-0.009781304
57	0xbd198644	-0.03748156
58	0x3da91616	0.08256166
59	0x3dbf3f18	0.09338206
60	0x3d58aff9	0.052902196
61	0xbdaede83	-0.085385345
62	0xbc2a70ec	-0.010402899
63	0x3d8fcc4b	0.07021388
64	0x3d0fab7a	0.035075642
65	0xbce57a92	-0.028012548
66	0xbdd9e94b	-0.106402
67	0xbcc2ab4d	-0.023763323
68	0xbd650515	-0.05591305
69	0xbdbd293a	-0.09236379
70	0x3b0d9939	0.002160622
71	0x3dc6145e	0.096718535
72	0x3da435e4	0.08018091
73	0xbcb8e510	-0.022570163
74	0x3db75004	0.08950809
75	0x3dd00518	0.101572216
76	0x3def35db	0.11680194
77	0xbdd4ae36	-0.103847906
78	0x3d61f82b	0.055168312
79	0x3c55ab4f	0.013041331
80	0x3d4ea61a	0.050451376
81	0xbdb255b0	-0.0870775
82	0x3d4c36d3	0.049856972
83	0xbb80e738	-0.0039338134
84	0xbd179f1d	-0.037016977
85	0xbd04562e	-0.03230875
86	0x3dc9e273	0.09857645
87	0x3b230f75	0.002488104
88	0x3c2bb0a9	0.010479131
89	0xbdaf4579	-0.08558173
90	0x3cf5bb15	0.029996434
91	0x3d3c32ee	0.045947008
92	0x3c263d36	0.01014643
93	0x3dcc852f	0.0998634
94	0x3d76ff5f	0.060302135
95	0x3db77fdf	0.08959936
96	0x3dcd6aaa	0.1003011
97	0x3dec8543	0.11548855
98	0x3d89962a	0.06718095
99	0xbb88649a	-0.0041623833
100	0x3de1503e	0.11001633
101	0x3d1bb67e	0.038015835
102	0x3d394486	0.045231365
103	0x3d9c5cb7	0.076348715
104	0xbd9fcce7	-0.07802754
105	0xbc682863	-0.014169785
106	0x3d7546db	0.059882026
107	0x3cab5fa4	0.020919628
108	0xbd8b0070	-0.06787193
109	0xbd01fde3	-0.031736266
110	0xbd0fe386	-0.035129093
111	0xbdefcefe	-0.117094025
112	0x3de5522c	0.11197314
113	0xbd7b3377	-0.061328378
114	0x3cd66604	0.026171692
115	0x3dd12bb2	0.10213412
116	0xbdaa4a45	-0.08314947
117	0x3d079be8	0.03310767
118	0x3d6299bf	0.055322405
119	0xbdc1ebb4	-0.09468785
120	0xbcb58e29	-0.022162514
121	0xbbf4f9bf	-0.007476061
122	0x3dce273a	0.100660756
123	0xbce7e6d0	-0.028308302
124	0xbd87c0d9	-0.0662858
125	0xbdb5a98c	-0.08870229
126	0xbd73be2f	-0.059507545
127	0x3d0bacc6	0.034100316
128	0xbd818f18	-0.06326121
129	0x3ddcb399	0.10776443
130	0xbce3fb87	-0.027829899
131	0xbdb50460	-0.08838725
132	0xbd5ca5a8	-0.05386892
133	0x3d799c5b	0.060940128
134	0x3dc89e44	0.09795812
135	0xba88c36c	-0.0010434217
136	0xbdbb4094	-0.09143177
137	0x3d58c7be	0.052924864
138	0x3d0fd05b	0.035110813
139	0xbdc212c4	-0.094762355
140	0x3c605850	0.01369293
141	0xbd8f516b	-0.06997951
142	0x3da88c04	0.08229831
143	0x3db666e4	0.089063436
144	0x3cd57c6f	0.026060311
145	0x3d810aa4	0.06300858
146	0x3dc6c055	0.09704653
147	0x3d9169a6	0.07100229
148	0x3d371d4c	0.044705674
149	0x3cdc1752	0.026866589
150	0x3db50f69	0.0884083
151	0x3d85f607	0.065410666
152	0x3d4242e4	0.047427073
153	0x3d8211b4	0.06351033
154	0xbcd30fed	-0.02576443
155	0x3db43b8b	0.088004194
156	0x3d16b4c8	0.0367935
157	0xbd418efb	-0.047255497
158	0x3cbb9946	0.022900235
159	0x3da3ddd9	0.080012985
160	0x3da8ffbf	0.08251905
161	0xbd04388a	-0.032280482
162	0x3db6b23d	0.08920715
163	0xbde867c0	-0.11347914
164	0xbc451c79	-0.012030714
165	0x3da2b4ea	0.07944663
166	0xbcbe712f	-0.02324733
167	0xbc8fa509	-0.01753475
168	0x3b3dea2f	0.0028978696
169	0xbd9b8262	-0.07593228
170	0x3da209cd	0.079120256
171	0x3d5da3b0	0.054111183
172	0xbd997090	-0.07492173
173	0x3dc8209c	0.09771845
174	0xbd0fb931	-0.03508872
175	0x3dd71ec6	0.105039164
176	0xbd726780	-0.059180737
177	0xbdde0110	-0.108400464
178	0xbc034275	-0.00801145
179	0xbc940ce7	-0.018072559
180	0xbdb15f86	-0.08660798
181	0x3d207a2e	0.03917902
182	0x3d89b668	0.06724244
183	0xbd14fb36	-0.036372386
184	0xbdaa4b16	-0.08315103
185	0x3dc9332f	0.098242156
186	0x3dcc6e90	0.099820256
187	0xbdcd08bc	-0.100114316
188	0xbd85f5ea	-0.06541045
189	0xbc84585a	-0.01615541
190	0x3c5e51c9	0.013569304
191	0x3dd78d24	0.10524967
192	0xbcc8920d	-0.024483705
193	0xbdc5851d	-0.0964453
194	0xbdb8df06	-0.09026913
195	0xbd7024e9	-0.05862895
196	0xbdc98c80	-0.098412514
197	0x3d8032fb	0.06259724
198	0xbce8de96	-0.02842645
199	0x3de6bc1f	0.1126635
200	0x3db5a771	0.088698275
201	0x3c9ae92c	0.018910013
202	0xbdbf9e68	-0.093563855
203	0xbdc66ead	-0.096890785
204	0xbd4fa5e0	-0.0506953
205	0xbdcfc100	-0.10144234
206	0xbcb7d150	-0.022438675
207	0x3d73e4fd	0.059544552
208	0xbd93d4e2	-0.072183385
209	0xbddaf973	-0.1069211
210	0x3dc16d02	0.0944462
211	0x3ddb5547	0.10709625
212	0xbd9deecc	-0.077115625
213	0xbde6e8f8	-0.11274904
214	0x3d95bb0d	0.07311068
215	0x3deab1fd	0.1145973
216	0xbb986f2b	-0.004651924
217	0xbdcb33cc	-0.09921989
218	0x3da55f27	0.080747895
219	0x3c3e5827	0.011617697
220	0x3c55cfeb	0.01305006
221	0x3d0db9e9	0.034601126
222	0x3814bce8	3.5461882e-05
223	0xbd21aad8	-0.03946957
224	0xbc0a086d	-0.00842486
225	0xbda5c769	-0.08094675
226	0xbdace821	-0.084427126
227	0xbde26c4c	-0.11055812
228	0x3d92648a	0.071480826
229	0x3dd83b69	0.105582066
230	0x3b6562ac	0.003500144
231	0xbd823d93	-0.063594006
232	0x3dc3353d	0.09531639
233	0xbd84c0d6	-0.06482093
234	0x3d9fb4fa	0.077981904
235	0xbdbd5b0c	-0.092458814
236	0xbd14a7c0	-0.03629279
237	0x3d2aba16	0.04168137
238	0xbdaf5cca	-0.0856262
239	0xbd17dedc	-0.03707777
240	0x3d7870b7	0.06065437
241	0xbdb879f8	-0.09007639
242	0xbc2520d5	-0.010078629
243	0x3de1dd31	0.11028517
244	0x3cd4c09a	0.025970746
245	0xbde3032a	-0.11084588
246	0xbd33c134	-0.043885425
247	0xbd9b90d9	-0.07595987
248	0x3c37df78	0.011222713
249	0xbda37bd7	-0.07982605
250	0xbdb8d77d	-0.09025476
251	0x3a277aae	0.0006388825
252	0x3dddaf7a	0.10824485
253	0x3d89c331	0.06726683
254	0x3c03dc79	0.00804817
255	0xbc5537fc	-0.013013836
