Results/transformer/split_4/checkpoint.pt (torch, 832610 bytes, 46 tensors)

attn_layers.layers.0.0.0.weight f4 [74]
0	0x3f80b79e	1.0056036
1	0x3f7eea38	0.9957614
2	0x3f8062d3	1.0030159
3	0x3f7f4a34	0.997226
4	0x3f7fc480	0.9990921
5	0x3f805aec	1.0027747
6	0x3f7ea201	0.9946595
7	0x3f81041d	1.007938
8	0x3f80328d	1.0015427
9	0x3f81d7ab	1.0143942
10	0x3f80795b	1.0037035
11	0x3f801dbe	1.0009077
12	0x3f7ece30	0.9953337
13	0x3f80aff9	1.0053703
14	0x3f7f1a19	0.99649197
15	0x3f7df555	0.9920247
16	0x3f7e3133	0.9929382
17	0x3f811f8b	1.0087751
18	0x3f80bbac	1.0057273
19	0x3f7db3ba	0.99102366
20	0x3f801a1e	1.000797
21	0x3f80e609	1.0070201
22	0x3f7efdc5	0.9960597
23	0x3f7f35bb	0.9969136
24	0x3f80d6e5	1.0065581
25	0x3f7f4124	0.9970877
26	0x3f808425	1.0040327
27	0x3f8125ed	1.0089699
28	0x3f80beb9	1.0058204
29	0x3f7e9e71	0.9946051
30	0x3f80a237	1.0049504
31	0x3f801f0c	1.0009475
32	0x3f804699	1.0021545
33	0x3f8103af	1.0079249
34	0x3f7eb9ed	0.9950245
35	0x3f8138d8	1.0095472
36	0x3f818649	1.0119106
37	0x3f7cfd05	0.9882358
38	0x3f805f34	1.0029054
39	0x3f80b44f	1.0055026
40	0x3f7da8d7	0.99085754
41	0x3f7f546f	0.9973821
42	0x3f80e7bf	1.0070723
43	0x3f806829	1.0031787
44	0x3f7eb95c	0.99501586
45	0x3f8013e5	1.0006071
46	0x3f7f31fd	0.9968565
47	0x3f80ffb9	1.007804
48	0x3f80f453	1.0074562
49	0x3f808cb2	1.0042937
50	0x3f7f9634	0.99838567
51	0x3f7e7de4	0.99410844
52	0x3f7bed5b	0.9840905
53	0x3f804bd6	1.0023143
54	0x3f80f007	1.007325
55	0x3f820d13	1.016024
56	0x3f8153d8	1.0103712
57	0x3f814a4a	1.0100796
58	0x3f7fb4dc	0.99885345
59	0x3f7f15f9	0.996429
60	0x3f800367	1.0001038
61	0x3f7fee26	0.9997276
62	0x3f7df5f2	0.9920341
63	0x3f7fa022	0.9985372
64	0x3f80c262	1.0059321
65	0x3f806dcb	1.0033506
66	0x3f80d9cf	1.006647
67	0x3f80b6a8	1.0055742
68	0x3f7f39fd	0.9969786
69	0x3f7fc951	0.9991656
70	0x3f7f89d5	0.9981969
71	0x3f805e91	1.0028859
72	0x3f801ca4	1.000874
73	0x3f8009a3	1.0002941

attn_layers.layers.0.0.0.bias f4 [74]
0	0x3b439327	0.0029842348
1	0xbb731625	-0.0037092057
2	0xbb161f93	-0.0022907003
3	0x3a5e01c6	0.0008468892
4	0xbae5adc5	-0.0017523101
5	0x3aa48073	0.0012550488
6	0xbb4590e4	-0.0030146176
7	0xb6fabcea	-7.472573e-06
8	0x3b9981f4	0.004684681
9	0xbb70a1d7	-0.0036717558
10	0x3b60e458	0.003431579
11	0xbb307fd0	-0.002693165
12	0x3bd7c0c8	0.0065842606
13	0xbb16fa14	-0.0023037242
14	0x3a03c100	0.00050260127
15	0xbbeeb702	-0.007285
16	0xbbb46899	-0.005505633
17	0x3989827b	0.00026227892
18	0x3b016a9f	0.001974739
19	0xbc7ff860	-0.015623182
20	0xbb80ce5e	-0.003930851
21	0x3bb81b5e	0.005618497
22	0x397b6a4a	0.00023976821
23	0xbbcd6b95	-0.0062689283
24	0xbab53328	-0.001382445
25	0xb9868ba1	-0.00025662503
26	0xba746adf	-0.00093237864
27	0x390f1db9	0.00013648615
28	0x3b5fb421	0.0034134465
29	0x3b176dc7	0.0023106204
30	0xbb0b0c64	-0.0021217102
31	0x3af1162e	0.0018393451
32	0xbb351a0a	-0.0027633929
33	0x3ab1c3d1	0.0013562386
34	0x3b9ff3dd	0.0048813657
35	0x3b57c430	0.0032923333
36	0xbc108223	-0.0088200895
37	0x3b99247c	0.0046735387
38	0xbac66ede	-0.0015139242
39	0xbacdcbba	-0.0015700974
40	0x3c59d550	0.013295487
41	0x3a8a23b9	0.0010539211
42	0xbba1e6d4	-0.004940847
43	0x3a0ba49a	0.0005326957
44	0x3b1ec251	0.0024224708
45	0x3a6a0051	0.0008926439
46	0x3c2bff20	0.010497838
47	0xba990c82	-0.0011676701
48	0x3b07d7fb	0.00207281
49	0xbaa3627d	-0.0012465265
50	0x3b38ada8	0.002817968
51	0x3c0bccca	0.008532712
52	0x3bf85626	0.007578629
53	0x3b3b254a	0.0028556162
54	0xba6c6383	-0.0009017514
55	0xbb3d0cc2	-0.0028846716
56	0x3c0e4582	0.008683564
57	0xbb499e84	-0.0030764649
58	0x3ae55ced	0.0017499008
59	0xbbc98fd5	-0.0061511793
60	0xbb2e84f0	-0.002662953
61	0x3a9b822a	0.0011864353
62	0xbbe07422	-0.0068497816
63	0xbaf587c4	-0.0018732478
64	0x3afeb85e	0.0019433608
65	0xba6ed50e	-0.0009110727
66	0x3a1bd5a8	0.0005944618
67	0x3bf2dfea	0.0074119465
68	0xbaf252d4	-0.001848782
69	0xbb71afef	-0.0036878546
70	0xbafcbb3c	-0.0019281874
71	0x3ac52199	0.001503992
72	0xbb9ab1c4	-0.0047208983
73	0xbab55385	-0.0013834095

attn_layers.layers.0.1.to_q.weight f4 [64, 74]
0	0xbce70921	-0.028202595
1	0xbdd0d1a4	-0.10196236
2	0x3dd02859	0.10163946
3	0x3cd7bfa2	0.026336495
4	0x3db2761f	0.08713936
5	0xbddc6f16	-0.107633755
6	0x3dd00cfc	0.101587266
7	0xbdd02350	-0.10162985
8	0x3d378602	0.044805534
9	0x3cbc46b1	0.022982927
10	0xbcb99bda	-0.022657324
11	0x3d5097f9	0.050926182
12	0x3ca8c3b5	0.020601133
13	0x3d3a7ab8	0.04552719
14	0x3d875473	0.06607904
15	0x3d4866eb	0.048926275
16	0x3dee2a56	0.11629169
17	0x3c836670	0.016040057
18	0x3c211ad7	0.009833059
19	0x3c205d09	0.009787806
20	0x3d59ecfc	0.05320452
21	0xbd84c931	-0.06483687
22	0xbd70eab7	-0.05881759
23	0x3d896d5c	0.06710312
24	0xbd3814ee	-0.044941835
25	0x3d6ab49d	0.057301152
26	0x3c749725	0.014928614
27	0xbad6517c	-0.0016351189
28	0xbd883f5c	-0.0665271
29	0x3d6f729e	0.058458917
30	0x3c6aec43	0.014338556
31	0x3c96e0af	0.018417684
32	0xbbe878e0	-0.0070944875
33	0xbd7c4555	-0.061589558
34	0xbd9c311b	-0.076265536
35	0x3dcdee46	0.10055213
36	0x3dd8bfb4	0.105834395
37	0x3d1ea222	0.03872884
38	0xbdbd9463	-0.09256818
39	0xbbb83fd7	-0.0056228447
40	0x3d9ffac7	0.07811504
41	0xbdccc267	-0.09998017
42	0x3d5a3bbb	0.05327962
43	0x3dbb6e35	0.0915188
44	0x3dda1572	0.106486216
45	0x3b4c5c97	0.0031183118
46	0xbdda5dcb	-0.10662421
47	0xbdf8dc5c	-0.12151405
48	0x3c755d4d	0.014975858
49	0xbdc4518a	-0.09585865
50	0x3d2cb23c	0.042162165
51	0xbc2ca4cc	-0.0105373375
52	0x3d5b02e9	0.053469572
53	0x3b91270d	0.004429704
54	0xbdf4f924	-0.11961582
55	0x3a9e154f	0.0012060794
56	0x3d458b98	0.04822883
57	0xbdbeb43b	-0.0931172
58	0x3d63431f	0.055483934
59	0xbbe3e8db	-0.006955249
60	0x3dde018b	0.10840138
61	0xbdc3737f	-0.095435135
62	0x3dd74771	0.10511673
63	0xbd80140e	-0.06253825
64	0x3d8a4834	0.06752053
65	0x3d71c7e2	0.059028514
66	0x3d1d257e	0.038365833
67	0x3d1f2b0c	0.038859412
68	0x3d142509	0.036168132
69	0xbd581482	-0.052753933
70	0xbded76d4	-0.1159493
71	0x3ddd9c9e	0.10820888
72	0xbacaae5f	-0.0015463344
73	0xbdd84377	-0.10559743
74	0x3dbeee0a	0.09322746
75	0xbd8689f2	-0.0656928
76	0xbdee7612	-0.11643614
77	0xbdc944bb	-0.098275624
78	0xbc1dae49	-0.009624072
79	0xba0c6292	-0.00053552643
80	0xbdbbeab6	-0.09175627
81	0x3bee3dea	0.0072705643
82	0xbdaefc81	-0.08544255
83	0xbdb0a263	-0.08624723
84	0x3dc958f1	0.09831417
85	0xbd17f94d	-0.037102986
86	0xbbfc3d5f	-0.0076977457
87	0xbd1665ba	-0.036718108
88	0xbddcb942	-0.107775226
89	0x3dd0ecb7	0.102014
90	0xbd2da308	-0.042391807
91	0x3dbf0c36	0.09328501
92	0x3de7efaa	0.11325009
93	0xbc42890d	-0.011873496
94	0xbc748cab	-0.014926116
95	0xbce8e648	-0.02843012
96	0x3c14d295	0.00908341
97	0x3db51560	0.088419676
98	0xbdcf7b3e	-0.101309285
99	0x3d575ae4	0.052576914
100	0xbd3f11ec	-0.04664795
101	0x3d837a5d	0.06419823
102	0x3d528388	0.05139497
103	0xbd0a9e02	-0.033842094
104	0xbdd689bd	-0.1047549
105	0x3d8d178d	0.068892576
106	0xbd4ea28e	-0.050447993
107	0xbd5a65d9	-0.053319786
108	0xbd9a7ce1	-0.0754335
109	0x3d264245	0.040590543
110	0x3dd2e183	0.10296919
111	0x3dab8eb8	0.08376831
112	0xbc8f818f	-0.017517833
113	0x3a8c7db5	0.0010718616
114	0x3d03dbb5	0.03219195
115	0xbdab69c3	-0.08369782
116	0x3d7ccb86	0.061717533
117	0xbbae2bac	-0.0053152647
118	0xbd132c12	-0.0359307
119	0x3d950715	0.072767414
120	0xbc7d30d5	-0.015453537
121	0xbd9ca54e	-0.07648717
122	0xbc027373	-0.007962096
123	0xbdfcecf6	-0.12349884
124	0x3da9645c	0.08271095
125	0xbc2d9442	-0.010594429
126	0xbddeac8e	-0.10872756
127	0x3d226a13	0.03965194
128	0x3c8fe4c6	0.017565142
129	0x3d47de32	0.048795886
130	0x3dd6b94d	0.10484562
131	0x3daea510	0.08527577
132	0xbcddf0d1	-0.02709237
133	0x3cf470e9	0.029838996
134	0xbdabe9ce	-0.08394204
135	0xbd4ce6c9	-0.05002478
136	0x3dd9f303	0.10642054
137	0xbcc3fb8e	-0.023923662
138	0x3deab016	0.11459367
139	0x3df52fd9	0.11972017
140	0xbdb47a80	-0.088124275
141	0x3c593916	0.013258239
142	0x3db4c6f6	0.08827011
143	0x3c46147a	0.012089843
144	0x3d50de5c	0.05099331
145	0xbd6387ea	-0.05554954
146	0xbd4398e0	-0.047753215
147	0xbd564eef	-0.05232137
148	0xbc2980cf	-0.010345652
149	0x3c9faccc	0.019491576
150	0xbe0026ed	-0.12514849
151	0x3d00f196	0.031480394
152	0xbd09d4d3	-0.03365023
153	0x3d8aea91	0.06783021
154	0x3dd4e4cc	0.10395202
155	0x3b845046	0.0040378897
156	0x3d95f2b7	0.07321685
157	0xbd8e8f42	-0.06960918
158	0xbc31d949	-0.0108550275
159	0xbdfaabc0	-0.1223979
160	0xbc0341cc	-0.008011293
161	0x3a9c10f3	0.0011906907
162	0xbdd9b2b7	-0.1062979
163	0x3df9df84	0.12200835
164	0xbcfff757	-0.03124587
165	0xbdade6fe	-0.08491324
166	0x3d99c286	0.075078055
167	0xbd1f0dd9	-0.038831566
168	0x3dda1572	0.106486216
169	0xbd94b1db	-0.07260486
170	0xbccd796e	-0.025082316
171	0xbdbdc528	-0.0926612
172	0x3d595e2e	0.053068332
173	0x3dacd66a	0.08439334
174	0x3c2a6291	0.010399477
175	0x3d827e32	0.06371726
176	0xbcea6df4	-0.028616883
177	0xbd323425	-0.04350676
178	0xbdaf17a9	-0.08549435
179	0x3d0ad717	0.033896532
180	0x3d37238e	0.044711642
181	0xbd02ee20	-0.031965375
182	0x3d646c18	0.05576715
183	0x3d31d113	0.04341228
184	0xbe104515	-0.14088853
185	0x3d70c13a	0.058778025
186	0xbe00da2d	-0.12583227
187	0x3d119417	0.03554162
188	0xbd5e023f	-0.05420136
189	0x3b943566	0.004522967
190	0x3d8cc1d0	0.06872904
191	0xbb83c10f	-0.004020817
192	0xbd588388	-0.052859813
193	0x3d15f90a	0.036614455
194	0x3d1e4d18	0.03864774
195	0xbd7649b0	-0.060128868
196	0xbd86acce	-0.06575929
197	0xbdb732b8	-0.08945221
198	0xbdcbb310	-0.09946263
199	0xbd6c968a	-0.057760753
200	0x3d387ef1	0.045042936
201	0xbdf5f80c	-0.12010202
202	0x3dd63353	0.10459008
203	0x3d45a5e1	0.048253898
204	0x3d07b093	0.03312738
205	0x3db25506	0.08707623
206	0xbb703824	-0.0036654556
207	0x3d61f9e9	0.055169974
208	0x3de90813	0.11378493
209	0x3deef993	0.11668696
210	0xbd022777	-0.031775918
211	0x3d9602d3	0.073247574
212	0x3e00cebc	0.12578863
213	0xbd97dfcf	-0.07415735
214	0x3e018f74	0.1265238
215	0xbb0aa78c	-0.0021156995
216	0x3c4aa9c3	0.012369576
217	0xbd106254	-0.035250023
218	0xbd88c68a	-0.06678493
219	0x3deebc63	0.11657026
220	0xbcf8238a	-0.030290384
221	0x3cc9fda2	0.024657074
222	0x3ddc1c04	0.10747531
223	0xbde0b44e	-0.109718904
224	0xbd7748a2	-0.060372002
225	0xbcab131c	-0.020883135
226	0xbd4db2ad	-0.050219227
227	0x3da6a315	0.08136574
228	0x3da5eb29	0.08101494
229	0x3d297796	0.04137381
230	0xbc164469	-0.009171584
231	0xbb93f5e7	-0.004515398
232	0xbda42d34	-0.08016434
233	0x3d40fe5b	0.047117572
234	0xbd177abe	-0.03698229
235	0xbdf30b82	-0.11867429
236	0xbdfe4f9a	-0.124175265
237	0xbbe744f5	-0.007057781
238	0xbba96e8e	-0.00517065
239	0x3d4ef325	0.05052485
240	0xbd7a80f0	-0.06115812
241	0x3dc3a4a6	0.095528886
242	0xbcd3890f	-0.02582219
243	0x3dd02f67	0.10165291
244	0x3d25816a	0.040406622
245	0x3d46c758	0.048529953
246	0x3d042d84	0.03226997
247	0x3da23061	0.07919384
248	0x3da0070a	0.078138426
249	0xbdce8390	-0.10083687
250	0x3db9cff5	0.09072868
251	0x3d30aca9	0.04313341
252	0xbd38cba8	-0.045116097
253	0x3c16f4ea	0.0092136655
254	0xbe00bcd7	-0.12572037
255	0xbd946568	-0.07245904

attn_layers.layers.0.1.to_k.weight f4 [64, 74]
0	0xbdd920f8	-0.106019914
1	0x3c6d1476	0.01447021
2	0x3bf7c336	0.0075611128
3	0xbd859275	-0.06522075
4	0x3d4f5b4c	0.050624177
5	0x3d980a53	0.07423844
6	0x3d747cb3	0.059689235
7	0x3d33bb55	0.043879826
8	0x3c5b6af7	0.013392202
9	0x3dacc4c9	0.08435971
10	0x3d91d961	0.0712154
11	0xbdb4d9ec	-0.08830628
12	0x3db0ecd2	0.0863892
13	0x3d12b537	0.03581735
14	0x3da77f42	0.081785694
15	0xbd471a75	-0.048609216
16	0x3daddb13	0.08489051
17	0xbd1090f1	-0.035294477
18	0x3d14cbfb	0.036327343
19	0xbd36f724	-0.044669285
20	0xbdde717f	-0.108614914
21	0xbd155b87	-0.03646424
22	0x3c5812de	0.013188092
23	0x3dbf56df	0.09342741
24	0x3c5d6469	0.013512709
25	0x3c178196	0.009247204
26	0xbc66e4c9	-0.014092633
27	0x3d471c68	0.048611075
28	0xbd81ba8e	-0.063344106
29	0x3d594058	0.05303988
30	0x3dc5fb19	0.09667034
31	0x3d9492e2	0.07254578
32	0xbdbf6994	-0.09346309
33	0xbdd99874	-0.10624781
34	0xbc7624cf	-0.015023424
35	0xbdacb969	-0.08433802
36	0xbc65f6be	-0.014035879
37	0xbca1b683	-0.019740349
38	0x3d0f9937	0.035058226
39	0x3d8dcd8b	0.0692397
40	0xbdcfba53	-0.101429604
41	0xbcc01323	-0.023446625
42	0x3cf70505	0.03015376
43	0x3da6fe30	0.08153951
44	0xbd021224	-0.03175558
45	0xbd75cee6	-0.060011767
46	0x3de752dc	0.11295101
47	0x3cbd46e7	0.023105098
48	0xbcc13831	-0.023586364
49	0x3d65c3dd	0.056094993
50	0xbc9c2968	-0.019062713
51	0x3da630ab	0.081147514
52	0x3dc41504	0.09574321
53	0x3dd2af11	0.102872975
54	0xbce3f24a	-0.027825493
55	0xbdd27491	-0.102761395
56	0x3d617ae3	0.055048835
57	0xbddabd63	-0.10680654
58	0xbcc72174	-0.024307944
59	0x39a9f8ef	0.00032419662
60	0xbdb133d1	-0.08652461
61	0x3daecbe0	0.0853498
62	0xbd8235dc	-0.06357929
63	0x3d80084c	0.062515825
64	0xbe112c5f	-0.14177082
65	0xbd75a0de	-0.059967868
66	0xb85bccda	-5.240445e-05
67	0x3ca700f6	0.0203862
68	0xbda68dd3	-0.081325196
69	0x3cedda22	0.029034678
70	0x3d943fa1	0.07238699
71	0x3dd2fbb3	0.10301914
72	0x3e1f3df5	0.15550978
73	0xbdba17c0	-0.09086561
74	0xbdc5d266	-0.09659271
75	0xbd55c901	-0.052193645
76	0x3db93bbb	0.09044596
77	0x3caa7d24	0.020811625
78	0xbdee8251	-0.1164595
79	0xbdd22af6	-0.102621004
80	0x3d811631	0.06303061
81	0x3d2c2204	0.042024627
82	0xbd710998	-0.05884704
83	0xbcf68aa3	-0.030095404
84	0xbde5b354	-0.11215845
85	0xbd820bfe	-0.063499436
86	0x3da325f3	0.079662226
87	0xbd609d7a	-0.05483768
88	0x3d1df0c4	0.03855969
89	0xbcae190a	-0.021252174
90	0x3d484659	0.048895214
91	0xbdbcf1e4	-0.092258245
92	0x3d3a509d	0.045487035
93	0x3ca59a21	0.020215096
94	0x3de5cbb8	0.11220497
95	0xbd331382	-0.043719776
96	0x3d5f0f7e	0.054458134
97	0xbcf1e0d5	-0.029526154
98	0x3d383c13	0.044979166
99	0xbd625aa3	-0.05526222
100	0xbda739db	-0.08165332
101	0x3debeb7c	0.115195245
102	0xbd2580c8	-0.04040602
103	0xbd9906b5	-0.074719824
104	0xbdbe8c6d	-0.09304128
105	0x3bfda553	0.0077406554
106	0xbd862512	-0.06550039
107	0x3dc62ec9	0.09676892
108	0x3d80e5c4	0.06293824
109	0x3dd5f6ac	0.104474396
110	0x3da1593f	0.078783505
111	0x3c8791ec	0.016549073
112	0xbceb78da	-0.02874415
113	0x3b7c2beb	0.0038478326
114	0xbd56d6a3	-0.052450787
115	0xbd9044b9	-0.07044358
116	0x3cd2263f	0.025653003
117	0xbdeade9e	-0.11468242
118	0x3ccf64d9	0.025316643
119	0xbcd5801d	-0.026062066
120	0xbcf3cea3	-0.029761618
121	0xbd445ee9	-0.047942076
122	0x3c652c1c	0.013987567
123	0x39cc283a	0.00038939883
124	0xbd1e4083	-0.038635742
125	0xbcdad3ae	-0.026712265
126	0x3d73c8d1	0.059517685
127	0x3dd03508	0.10166365
128	0x3d141788	0.036155254
129	0xbdb9465a	-0.090466216
130	0x3d006ab5	0.031351764
131	0xbd9afb30	-0.075674415
132	0x3da724cb	0.081613146
133	0xbd8caad6	-0.06868522
134	0xbd4c76dd	-0.049918044
135	0xbb373e47	-0.0027960704
136	0xbd1640f7	-0.03668305
137	0x3ceccf90	0.028907567
138	0xbd2d78e1	-0.042351607
139	0x3e0dc76e	0.13845608
140	0x3ddd441c	0.108040065
141	0xbc137491	-0.00899996
142	0xbd91b13f	-0.07113885
143	0xbda034b2	-0.07822551
144	0x3cee2834	0.029071905
145	0xbdf17718	-0.117902935
146	0xbdfdc3dc	-0.12390873
147	0x3d4e4d77	0.050366845
148	0x3d36e591	0.044652525
149	0x3d29e29b	0.041475873
150	0xbda3c942	-0.07997371
151	0x3de2194d	0.11039982
152	0x3d11f321	0.035632256
153	0x3d5cd3fd	0.053913105
154	0x3d03d5de	0.03218638
155	0xbd9f3db5	-0.077754416
156	0x3cb5ce2b	0.022193035
157	0x3d854d97	0.0650894
158	0x3c28b818	0.010297798
159	0xbdd4fa47	-0.10399299
160	0xbdaf9be5	-0.085746564
161	0xbdb53699	-0.08848304
162	0x3dd7a936	0.10530321
163	0x3d47fd57	0.048825588
164	0x3da1ad93	0.07894435
165	0x3d080218	0.03320512
166	0xbd2fa69a	-0.042883493
167	0x3cff638c	0.031175397
168	0xbdce20aa	-0.10064824
169	0x3db5723b	0.08859678
170	0x3d3917d8	0.045188755
171	0x3ce52ea3	0.02797634
172	0xbdcc5088	-0.099762976
173	0x3b0fb7ae	0.002192955
174	0x3cbdcdf6	0.023169499
175	0x3dda3b96	0.10655896
176	0xbdb61138	-0.08890003
177	0xbca8298d	-0.020527625
178	0xbd49af27	-0.049239304
179	0x3d3e6f9f	0.04649317
180	0xbd9d4e33	-0.07680931
181	0x3cb3058b	0.021853229
182	0xbd9e08c2	-0.07716514
183	0x3dfa01c1	0.12207366
184	0xbda2b76d	-0.07945142
185	0xbdddc269	-0.108280964
186	0x3d34b982	0.044122227
187	0x3db7eb38	0.08980411
188	0xbd0f1030	-0.034927547
189	0x3c7bb192	0.01536216
190	0xbdc0ae32	-0.09408225
191	0xbddbfcf6	-0.10741608
192	0x3daf59ab	0.08562025
193	0xbdef2402	-0.1167679
194	0xbc49c710	-0.012315527
195	0x3db9e42f	0.09076726
196	0x3dc108f6	0.09425537
197	0xbc27fad3	-0.010252672
198	0x3dc74c29	0.09731323
199	0xbd7e0a47	-0.06202152
200	0x3d4506f8	0.04810235
201	0xbd3d49bc	-0.046212897
202	0x3d2210a3	0.039566647
203	0xbcb5f249	-0.022210257
204	0x3d9aa204	0.07550433
205	0xbd1682b3	-0.03674574
206	0xbd10db65	-0.03536548
207	0x3cc1b967	0.023647977
208	0xbd325597	-0.043538656
209	0x3db7c02c	0.08972201
210	0x3d8ac677	0.067761354
211	0xbcad37f2	-0.02114484
212	0xbcb225fe	-0.021746632
213	0xbd57e5d9	-0.052709434
214	0xbd96b5e3	-0.07358911
215	0xbddf7220	-0.109104395
216	0xbdcf78cc	-0.10130462
217	0x3d355804	0.04427339
218	0x3e096103	0.13415913
219	0x3d3b59f7	0.045740094
220	0x3ce2586c	0.027630053
221	0x3d6d5a70	0.057947576
222	0xbdb61105	-0.08889965
223	0x3df3fc6f	0.11913382
224	0x3d916011	0.07098401
225	0x3cd1acda	0.025595117
226	0xbd217c62	-0.03942526
227	0xbc1875cc	-0.009305429
228	0x3de3cdf7	0.11123269
229	0x3deb954c	0.115030855
230	0xbd897da7	-0.067134194
231	0x3cf6f7fa	0.030147541
232	0xbd9805ee	-0.07423006
233	0xbd968be1	-0.073508985
234	0xbcc05beb	-0.02348133
235	0x3d6238eb	0.055230062
236	0x3d7eda26	0.06221976
237	0xbc85518a	-0.016274232
238	0x3dac681c	0.08418295
239	0xbcd03c88	-0.025419489
240	0x3dc7474b	0.09730395
241	0x3de1e676	0.11030285
242	0x3da2832b	0.079351746
243	0xbd972e26	-0.07381849
244	0xbda06ba2	-0.07833029
245	0x3cead25a	0.028664757
246	0x3d1f87f7	0.038948026
247	0xbdc0c8d9	-0.09413309
248	0x3dddc8b2	0.10829295
249	0xbc1238c0	-0.008924663
250	0x3dcbbed4	0.09948507
251	0x3de0fc17	0.10985582
252	0x3d4e4ba0	0.05036509
253	0x3c983cd8	0.0185837
254	0xbda4e69c	-0.08051798
255	0xbda41a23	-0.08012798

attn_layers.layers.0.1.to_v.weight f4 [64, 74]
0	0xbb8f5b5f	-0.004374906
1	0x3dbdb9ce	0.09263955
2	0xbdb9fe43	-0.090817
3	0xbc87e30a	-0.016587753
4	0xbde81a03	-0.11333086
5	0xbdb91932	-0.09038009
6	0x3dc72145	0.097231425
7	0xbd372203	-0.04471017
8	0x3db9ef1e	0.09078811
9	0x3d851e85	0.06499962
10	0x3dda9161	0.1067226
11	0xbd395ed3	-0.045256447
12	0xbda82f54	-0.08212152
13	0x3c873129	0.016502934
14	0x3b843c60	0.0040355176
15	0xbd1f7be3	-0.038936507
16	0xbdd1992e	-0.10234295
17	0x3d959b83	0.07305052
18	0xbd956c19	-0.072960086
19	0xbda199d5	-0.07890669
20	0x3d8a9219	0.06766147
21	0xbd47e9ca	-0.048806943
22	0x3d465c16	0.048427664
23	0x3dc43f8a	0.095824316
24	0xbd875dda	-0.06609698
25	0xbde715e1	-0.1128347
26	0x3dd6e1d1	0.1049229
27	0xbc284e6d	-0.010272604
28	0xbd34f907	-0.044182803
29	0x3d9882c3	0.07446816
30	0x3d4d81c8	0.050172597
31	0xbd55c78f	-0.052192267
32	0xbce03261	-0.027367773
33	0xbda20581	-0.07911206
34	0xbd7bff0a	-0.06152252
35	0xbc5780e3	-0.013153288
36	0x3cdb20fc	0.026749127
37	0x3c118528	0.008881845
38	0xbd9ef0ce	-0.077607736
39	0x3d30e164	0.0431837
40	0xbd7fd064	-0.062454596
41	0xbdabd194	-0.08389583
42	0x3d8d014b	0.06885012
43	0x3b9862d6	0.004650454
44	0x3db2a23b	0.08722349
45	0x3d3a447c	0.045475468
46	0xbd0e8b38	-0.034800738
47	0xbdd10166	-0.10205345
48	0xbd49f62a	-0.049307026
49	0x3dc6a6de	0.09699796
50	0xbd27a594	-0.040929392
51	0xbdaecf88	-0.08535677
52	0xbcfbc0f7	-0.030731661
53	0xbc828ebb	-0.0159372
54	0x3d01571c	0.031577215
55	0x3cffc23c	0.031220548
56	0x3d98d277	0.07462018
57	0xbdba930f	-0.091100805
58	0xbdaaaa37	-0.08333247
59	0xbd683e64	-0.056700125
60	0xbda468d1	-0.08027805
61	0xbcb381b4	-0.021912433
62	0x3d20616a	0.0391554
63	0x3d2bde47	0.041960027
64	0x3c645158	0.0139354095
65	0x3d3e16bc	0.0464084
66	0xbdc483c0	-0.09595442
67	0xbdb94b24	-0.09047535
68	0xbb2e96c9	-0.0026640168
69	0xbdc4d677	-0.096112184
70	0xbbe33f22	-0.0069350163
71	0x3d4cedf0	0.050031602
72	0x3bbe4848	0.0058069564
73	0x3d196a7e	0.037455074
74	0xbcd36707	-0.025805963
75	0xbd141936	-0.036156856
76	0xbc2ba11b	-0.010475422
77	0xbdd69667	-0.10477906
78	0xbdbc60f0	-0.09198177
79	0x3dbd7ff5	0.092529215
80	0xbbed76ca	-0.007246827
81	0x3ddff5bf	0.10935544
82	0x3cefbc53	0.029264605
83	0xbd19f05e	-0.037582748
84	0x3c8232c1	0.015893342
85	0x3d2ab528	0.04167667
86	0x3db12ba6	0.086509034
87	0x3ddada6a	0.106861904
88	0x3da065b7	0.078319006
89	0x3db2e6b4	0.087354094
90	0xbd82eb66	-0.06392555
91	0xbd7b3fc2	-0.0613401
92	0xbd2e9c01	-0.042629246
93	0xbddc4d7e	-0.10756968
94	0xbd7a67a5	-0.061134
95	0x3d91382f	0.07090794
96	0xbd9d6aea	-0.07686408
97	0x3df0ab7d	0.11751459
98	0xbcfa9cc6	-0.030592334
99	0x3d20f96b	0.039300364
100	0xbd0c3de1	-0.0342387
101	0xbdbf9d9e	-0.09356235
102	0x3c1c8f82	0.009555699
103	0xbdb7589d	-0.089524485
104	0xbd83aa23	-0.064289354
105	0xbde71596	-0.11283414
106	0xbd8974ca	-0.06711729
107	0x3d324b34	0.04352875
108	0xbcf91e16	-0.030409854
109	0xbd3b4819	-0.045723055
110	0xbd8649da	-0.06557055
111	0xbd987c97	-0.074456386
112	0x3d405b63	0.046962153
113	0xbd64df35	-0.05587693
114	0xbdd14ec9	-0.10220105
115	0x3dc0a511	0.09406484
116	0x3d9cbee0	0.07653594
117	0x3d79711a	0.060898878
118	0xbdbf9ca9	-0.093560524
119	0x3da3956e	0.07987486
120	0xbd308c3e	-0.043102495
121	0x3dc6fdcb	0.09716376
122	0x3c3cf978	0.011534087
123	0x3dfba788	0.122878134
124	0x3d5b7079	0.05357406
125	0xbd111257	-0.03541788
126	0x3d260cac	0.04053943
127	0x3d14f33e	0.036364786
128	0x3d88cde0	0.066798925
129	0xbda3ea4c	-0.08003673
130	0xbd9147f7	-0.07093804
131	0xbdc3a65b	-0.09553214
132	0x3d6702cf	0.056399163
133	0xbdb3738c	-0.08762273
134	0xbbebb6c7	-0.0071934196
135	0xbc7aa644	-0.01529843
136	0x3c643b08	0.01393009
137	0x3cdb7947	0.026791228
138	0x3d8bbf99	0.06823654
139	0x3c17c797	0.0092638945
140	0x3dbc6688	0.09199244
141	0xbd135b7e	-0.035975926
142	0xbca4eae3	-0.020131534
143	0x3cfb8da6	0.030707192
144	0xbdb29eb0	-0.087216735
145	0x3c755876	0.014974704
146	0x3d3a31fa	0.045457818
147	0x3d789f98	0.060699075
148	0xbdb1025a	-0.08643027
149	0xbd58ff42	-0.052977808
150	0x3da500e8	0.080568135
151	0x3ddf082e	0.10890232
152	0x3dd2d3ac	0.102942795
153	0x3d3f3147	0.046677854
154	0xbd06b9d8	-0.03289208
155	0x3cb58ee5	0.022162864
156	0x3c9f3dba	0.019438613
157	0x3cd96877	0.02653907
158	0xbd69e44e	-0.057102494
159	0xbcd53cff	-0.026030062
160	0x3dea5865	0.11442641
161	0x3dc22ab2	0.094808
162	0x3d9d525d	0.07681725
163	0xbdf0d38a	-0.11759098
164	0x3d161972	0.03664536
165	0xbc816446	-0.015794884
166	0x3c2b53be	0.010456977
167	0xbd9d199a	-0.07670899
168	0x3cebd7d1	0.028789433
169	0x3ddb9d91	0.10723413
170	0x3c887361	0.01665658
171	0x3dd0cd00	0.10195351
172	0xbc42d429	-0.011891403
173	0x3dc76e41	0.09737826
174	0x3d15524e	0.036455445
175	0x3dc0fa56	0.09422748
176	0xbc86b49c	-0.016443543
177	0x3db2286b	0.08699115
178	0x3cf05342	0.029336575
179	0xbdde4860	-0.10853648
180	0x3daba1df	0.08380484
181	0xbdacdc64	-0.08440474
182	0x3d44d990	0.048059046
183	0x3d6eafb8	0.058273047
184	0x3d776b37	0.060404982
185	0x3da8685d	0.08223031
186	0x3d1036dc	0.035208568
187	0xbd92b5c4	-0.07163575
188	0x3d2b9e42	0.041898973
189	0xbd0f6b34	-0.035014346
190	0x3d616363	0.055026423
191	0xbcb393d5	-0.021921078
192	0xbd6f7fa3	-0.058471333
193	0x3da8f67a	0.08250137
194	0xbd8b167f	-0.067914
195	0x3dd6cd9c	0.104884356
196	0x3d7dcc42	0.061962374
197	0xbd936829	-0.07197601
198	0x3ddfe350	0.10932028
199	0xbc43b06e	-0.01194392
200	0x3d33d77a	0.043906666
201	0x3da99c98	0.08281821
202	0x3cc6eded	0.024283374
203	0x3dabeb4e	0.0839449
204	0x3d9ad8a6	0.07560854
205	0xbd3ac1de	-0.045595042
206	0x3dab1001	0.08352662
207	0x3d63c129	0.055604134
208	0x3dbb0d78	0.09133428
209	0x3cc166e0	0.023608625
210	0x3dc69453	0.09696259
211	0xbbc95659	-0.0061443266
212	0xbd43f6c9	-0.047842775
213	0x3c6ac0ab	0.014328162
214	0xbd0022e3	-0.03128327
215	0x3d92b561	0.071635015
216	0x3d62a776	0.055335484
217	0x3c91bb10	0.017789394
218	0x3cd78d2c	0.026312433
219	0x3d511f3d	0.05105518
220	0xbbf0fec2	-0.0073545882
221	0x3d85c974	0.06532565
222	0x3d088970	0.033334196
223	0x3c0dd5c2	0.008656921
224	0x3c172589	0.009225258
225	0x3d89e054	0.0673224
226	0xbda113e6	-0.078651235
227	0xbc3d105c	-0.011539545
228	0xbd995af7	-0.07488053
229	0xbd6edf94	-0.05831869
230	0xbd235817	-0.03987893
231	0xbdd79a56	-0.10527484
232	0xbdc90a44	-0.09816411
233	0x3d90d3eb	0.0707167
234	0xbd0ebc23	-0.03484739
235	0x3dcce9f5	0.10005561
236	0xbda8d388	-0.082434714
237	0x3dc5b51b	0.09653684
238	0xbde9c8c1	-0.11415244
239	0xbdd78f8e	-0.10525428
240	0x3cc19131	0.023628803
241	0x3cdac660	0.02670592
242	0x3c63c861	0.0139027545
243	0xbd21dfdd	-0.039520133
244	0xbdd8ed5c	-0.10592148
245	0x3d025349	0.03181771
246	0x3d54987e	0.05190324
247	0xbcbe0996	-0.02319793
248	0x3d393edc	0.045225963
249	0x3dcfe79d	0.101515986
250	0x3d6fc507	0.05853751
251	0xbd27d580	-0.040975094
252	0xbc8e3ff9	-0.017364489
253	0xbb904c8b	-0.004403656
254	0xbd30daea	-0.043177523
255	0x3c8e72db	0.017388752

attn_layers.layers.0.1.to_out.weight f4 [74, 64]
0	0x3d92ba83	0.071644805
1	0xbde3fadf	-0.11131834
2	0x3bac2565	0.005253481
3	0xbdb786d5	-0.08961264
4	0xbdac99ae	-0.084277496
5	0xbdf4ef47	-0.11959701
6	0xbdd4e139	-0.1039452
7	0x3d95d7b1	0.073165305
8	0x3de94bc6	0.11391406
9	0x3d4213c9	0.04738215
10	0xbd343397	-0.043994512
11	0xbd92a2ae	-0.07159935
12	0x3d74fe14	0.05981262
13	0xbdb7c3ce	-0.08972894
14	0x3d224ae4	0.039622203
15	0x3dccdba1	0.100028284
16	0xbd0ecaa6	-0.03486123
17	0x3db928f6	0.09041016
18	0xbd2880da	-0.041138507
19	0xbdbf4da4	-0.09340981
20	0x3d8f7930	0.070055366
21	0xbcae3fc2	-0.021270636
22	0xbdaf34bb	-0.085549794
23	0x3cb06bda	0.021535803
24	0x3d626f0d	0.055281688
25	0x3d58fcce	0.05297547
26	0x3d835001	0.06411744
27	0xbbacfa17	-0.0052788365
28	0x3d21bf65	0.03948917
29	0xbd7722d5	-0.060335953
30	0x3d6f4a86	0.05842068
31	0xbdf63bd0	-0.12023127
32	0x3de82e1d	0.113369204
33	0x3de0a39b	0.10968705
34	0xbd695d11	-0.05697352
35	0x3e0d9c0c	0.13829058
36	0xbd66f3e0	-0.05638492
37	0x3e035eb7	0.128291
38	0xbde4715e	-0.111544356
39	0x3bbe20e9	0.005802263
40	0x3d9a9436	0.075478
41	0x3dcfb221	0.10141397
42	0xbd470143	-0.048585188
43	0xbd4524d2	-0.048130818
44	0xbdd8166e	-0.10551153
45	0xbd4c8e57	-0.049940433
46	0x3baf8e8b	0.0053575686
47	0xbc243560	-0.010022491
48	0xbde066d2	-0.109571114
49	0x3b88eb2b	0.004178425
50	0xbde8b4b6	-0.11362593
51	0x3da3555c	0.079752654
52	0xbdbe985c	-0.09306404
53	0x3dc49663	0.095989965
54	0x3d6414ee	0.055684023
55	0xbb68ff66	-0.003555262
56	0x3d8aca7b	0.06776901
57	0x3d9b4286	0.07581048
58	0x3dcf7cff	0.10131263
59	0x3df4281d	0.119217135
60	0xbd94cb67	-0.072653584
61	0xbce12b1f	-0.027486382
62	0x3cd8039c	0.026368909
63	0xbc0893f0	-0.008336052
64	0xbd8015f1	-0.06254185
65	0x3d6040ea	0.054749407
66	0x3b89f092	0.0042095864
67	0xbce66a02	-0.02812672
68	0xbdef7b7f	-0.11693477
69	0x3d9ff4ac	0.07810339
70	0x3d1d67a7	0.03842893
71	0xbd5d12e1	-0.053973082
72	0x3b675629	0.0035299158
73	0xbd7be7f9	-0.061500523
74	0x3d815f1a	0.06316967
75	0xbcaeafd3	-0.021324074
76	0xbc9f38e7	-0.019436313
77	0x3d9d7591	0.0768844
78	0x3dc92a81	0.0982256
79	0x3d92f635	0.071758665
80	0x3dc744b5	0.09729902
81	0xbd054ee6	-0.032545947
82	0x3d21a703	0.039465915
83	0xbde686fa	-0.112562135
84	0x39ed505a	0.0004526403
85	0xbaa925c4	-0.0012904932
86	0xbc84d0fb	-0.01621293
87	0xbb9bbfee	-0.0047531044
88	0x3d8783de	0.066169485
89	0xbbf23f86	-0.0073928265
90	0x3ce34665	0.027743528
91	0xbde67153	-0.11252084
92	0x3dcddf12	0.10052313
93	0x3d72327c	0.059130177
94	0x3d87a23e	0.06622742
95	0xbd37f196	-0.04490813
96	0x3d240f2e	0.04005354
97	0xbc06a050	-0.008216932
98	0x3cc313b0	0.023813099
99	0xbdae0c51	-0.08498443
100	0xbc6bb2f0	-0.014385924
101	0x3d7672a1	0.060167912
102	0xbdcab0b9	-0.098969884
103	0xbcd598d9	-0.02607386
104	0x3c9b5be5	0.018964717
105	0xbd54441f	-0.051822778
106	0x3db96718	0.09052867
107	0xbcc305c5	-0.023806462
108	0xbd7e987e	-0.062157147
109	0xbd45a77d	-0.048255432
110	0xbd70e45c	-0.05881153
111	0xbcba9db6	-0.02278028
112	0x3d8dc88c	0.06923017
113	0x3d7bf12d	0.0615093
114	0x3d2269a5	0.03965153
115	0x3ca55eb5	0.020186761
116	0x3c2d8993	0.010591882
117	0x3d451dfe	0.048124306
118	0xbd09f616	-0.03368195
119	0xbced30c7	-0.028953923
120	0xbdcd15e1	-0.10013939
121	0x3d94d9cd	0.07268105
122	0xbd3c202f	-0.04592913
123	0x3ddafb30	0.106924415
124	0xbd822cf6	-0.06356232
125	0x3dcf541f	0.10123467
126	0xbdc3da60	-0.09563136
127	0xbbf11fdc	-0.0073585343
128	0xbd02c576	-0.031926595
129	0xbdb92831	-0.09040869
130	0xbdd94c3d	-0.106102444
131	0xbdb45123	-0.08804538
132	0xbda4f70f	-0.08054935
133	0x3d2c0e95	0.042006094
134	0x3d96d831	0.07365454
135	0x3bce04ed	0.0062872083
136	0xbd2265cc	-0.039647862
137	0xbdaba46b	-0.083809696
138	0xbdaf6d2d	-0.085657455
139	0x3dec6d2d	0.11544261
140	0x3c9e2557	0.019304914
141	0xbd4e1eea	-0.05032245
142	0x3dd1f2da	0.102513984
143	0xbdcacda6	-0.099025056
144	0x3d998368	0.07495767
145	0x3c74846f	0.014924153
146	0xbdc622a8	-0.09674579
147	0xbd8bdc0b	-0.06829079
148	0x3dd296d2	0.10282673
149	0x3d3c5026	0.045974873
150	0xbd8c682a	-0.06855805
151	0xbd9b9a76	-0.075978205
152	0xbddbaa5e	-0.10725854
153	0x3d2f558e	0.0428062
154	0x3d9768bb	0.073930226
155	0x3de15173	0.11001863
156	0x3d799ee8	0.06094256
157	0x3db6e5a2	0.08930518
158	0xbccbdeed	-0.024886573
159	0x3bd8442e	0.0065999245
160	0xbdf006d8	-0.11720055
161	0xbca6446b	-0.020296296
162	0x3dda0a47	0.106464915
163	0x3bf5c79c	0.007500602
164	0xbde819e5	-0.11333064
165	0x3b88d0a8	0.0041752644
166	0xbd483bdd	-0.048885215
167	0x3c20e8d9	0.00982114
168	0x3d6e92c3	0.05824543
169	0xbe070f03	-0.1318932
170	0x3d8df9f1	0.06932438
171	0xbc70978d	-0.01468457
172	0x3d5e2ee0	0.054243922
173	0xbd13f98d	-0.036126662
174	0xbdc8bfe9	-0.09802229
175	0x3da3dd21	0.08001161
176	0xbd52fc30	-0.051510036
177	0xbd92dcb1	-0.07171
178	0x3d8479f3	0.064685725
179	0xbdeb51cb	-0.1149021
180	0x3d3c02bd	0.04590105
181	0x3dd29ab3	0.10283413
182	0x3cdeec4a	0.02721228
183	0x3d268357	0.0406526
184	0x3dae3d2c	0.08507761
185	0x3a2d9d32	0.000662285
186	0x3ce76b09	0.02824928
187	0x3cfbd113	0.030739343
188	0xbdde3f2d	-0.108518936
189	0x3da7b5ec	0.08188996
190	0x3deb138b	0.11478337
191	0xbba3e5c4	-0.0050017554
192	0xbda6887b	-0.081315
193	0x3d5aad39	0.053387854
194	0xbdb907c4	-0.09034684
195	0xbc3c87a5	-0.01150695
196	0xbdc7c121	-0.09753633
197	0x3d967c45	0.07347921
198	0xbdd4f7cd	-0.10398827
199	0x3dbc00f2	0.09179868
200	0xbce8189a	-0.028332043
201	0x3cc53489	0.024072902
202	0xbd997346	-0.0749269
203	0xbba5904b	-0.0050526015
204	0x3e08e8ba	0.13370028
205	0xbd4fe541	-0.050755743
206	0xbd934386	-0.071906134
207	0x3dab0f20	0.08352494
208	0x3bc56e89	0.0060251397
209	0x3cb824a2	0.022478405
210	0x3e02ab27	0.12760602
211	0x3d9b7f6d	0.07592664
212	0xbda04744	-0.07826093
213	0xbdd1850e	-0.10230456
214	0xbc2c0948	-0.01050026
215	0xbda4139b	-0.08011552
216	0x3de7aa6c	0.11311802
217	0x3ceb3101	0.02870989
218	0xbd854472	-0.065071955
219	0xb9cc6ca1	-0.00038990847
220	0x3c8c086b	0.017093858
221	0x3d68b7cc	0.056815907
222	0xbdad813f	-0.08471917
223	0x3d905049	0.07046563
224	0xbd7b86ad	-0.061407734
225	0x3c9480b9	0.018127786
226	0x3dd6086c	0.10450825
227	0xbca0e9b8	-0.019642696
228	0x3d8232b9	0.06357331
229	0xbdb26e34	-0.08712426
230	0x3de12554	0.10993448
231	0x3c9363d8	0.017991945
232	0xbddbe016	-0.107361004
233	0xbd8bf4f0	-0.068338275
234	0x3d4b85c3	0.049688112
235	0x3cc07c4a	0.023496766
236	0xbd7ae100	-0.061249733
237	0x3da2731f	0.07932114
238	0x3d2f04a7	0.042729046
239	0x3d4d1e68	0.050077826
240	0x3bedfaf1	0.0072625806
241	0x3d98cf28	0.07461387
242	0xbdef507d	-0.11685274
243	0xbdbcb716	-0.09214608
244	0x3e03ddc7	0.1287757
245	0xbc9e362b	-0.019312939
246	0x3cd04199	0.025421904
247	0x3c37d7cf	0.011220886
248	0xbd1ab753	-0.037772488
249	0xbdc8a5cf	-0.097972505
250	0xbdc4029b	-0.095708095
251	0xbde72034	-0.11285439
252	0xbdc3ce1e	-0.09560798
253	0xbce6a257	-0.028153582
254	0xbd9185ce	-0.07105599
255	0xbd1ec6d9	-0.038763855

attn_layers.layers.1.0.0.weight f4 [74]
0	0x3f7f8fa5	0.9982856
1	0x3f7f16d4	0.9964421
2	0x3f802b27	1.0013169
3	0x3f7ee8e0	0.9957409
4	0x3f7d4b07	0.9894261
5	0x3f80ca44	1.0061727
6	0x3f7e415a	0.9931847
7	0x3f7f0af6	0.996261
8	0x3f7a8d5e	0.9787196
9	0x3f7c5fa1	0.9858342
10	0x3f7cef12	0.9880229
11	0x3f7dbfad	0.991206
12	0x3f804f70	1.0024242
13	0x3f7f2db7	0.9967913
14	0x3f8196b8	1.0124121
15	0x3f807526	1.0035751
16	0x3f80f804	1.0075688
17	0x3f7f8c86	0.99823797
18	0x3f7f4a85	0.9972308
19	0x3f7d136b	0.98857754
20	0x3f7f7380	0.99785614
21	0x3f81830b	1.0118116
22	0x3f82d5d8	1.022151
23	0x3f80434e	1.002054
24	0x3f8161c4	1.0107961
25	0x3f801a4e	1.0008028
26	0x3f81a27e	1.0127714
27	0x3f82f65c	1.0231433
28	0x3f811f0a	1.0087597
29	0x3f7f4e33	0.997287
30	0x3f810c77	1.0081929
31	0x3f805bb2	1.0027983
32	0x3f8261cc	1.0186095
33	0x3f808b8c	1.0042586
34	0x3f7f37b6	0.99694383
35	0x3f810999	1.0081054
36	0x3f81b6a0	1.0133858
37	0x3f7dc300	0.9912567
38	0x3f7db456	0.99103296
39	0x3f7acd4d	0.97969514
40	0x3f7cf00a	0.9880377
41	0x3f7a286b	0.9771792
42	0x3f7ea56e	0.99471176
43	0x3f7b4137	0.98146385
44	0x3f7dd4f7	0.99153084
45	0x3f810d46	1.0082176
46	0x3f7a6f81	0.9782639
47	0x3f80b237	1.0054387
48	0x3f7cbb95	0.9872373
49	0x3f809dd3	1.0048164
50	0x3f808c0a	1.0042737
51	0x3f80710f	1.0034503
52	0x3f800d8c	1.0004134
53	0x3f7f2613	0.9966747
54	0x3f7d7206	0.9900211
55	0x3f81e996	1.014941
56	0x3f80b080	1.0053864
57	0x3f80b9f7	1.0056752
58	0x3f801cd6	1.00088
59	0x3f8008d6	1.0002697
60	0x3f7e35db	0.99300927
61	0x3f80e8ef	1.0071086
62	0x3f8068f9	1.0032035
63	0x3f7f3781	0.9969407
64	0x3f80e7e9	1.0070773
65	0x3f80c356	1.0059612
66	0x3f80f801	1.0075685
67	0x3f80b5c0	1.0055466
68	0x3f810973	1.0081009
69	0x3f8043b4	1.0020661
70	0x3f7d890d	0.9903725
71	0x3f814011	1.0097677
72	0x3f80fdea	1.0077488
73	0x3f806fcc	1.0034118

attn_layers.layers.1.0.0.bias f4 [74]
0	0xbb459a2a	-0.0030151703
1	0xbb16e476	-0.0023024357
2	0x3a34599f	0.00068798097
3	0x3b413d9a	0.002948618
4	0x3c51f0ea	0.012813786
5	0x3c05ad90	0.008159056
6	0x3c662eb5	0.014049222
7	0x3c31df56	0.01085647
8	0xbb4cd3f5	-0.0031254266
9	0xb7de1447	-2.6473905e-05
10	0xbbba6308	-0.005688075
11	0x3b87c523	0.0041433736
12	0x3a9f56eb	0.0012156641
13	0x3b20d785	0.0024542522
14	0x3b4720cd	0.003038454
15	0xbbe5c45f	-0.0070119346
16	0x393398b9	0.00017127664
17	0xbb2b888f	-0.0026173925
18	0xbb955b02	-0.004557968
19	0xbb3f9d60	-0.002923809
20	0x3b262d0b	0.0025356438
21	0xbb4024ec	-0.0029318882
22	0x3ab29c4c	0.0013626902
23	0xbbef8b14	-0.0073102806
24	0x3c059ea9	0.008155503
25	0xbaf89552	-0.0018965399
26	0xbb85145b	-0.0040612645
27	0x3b89e9a5	0.004208761
28	0xbac51f4e	-0.0015039237
29	0x3c332d3b	0.010936077
30	0x3afd5add	0.0019329448
31	0x3b4318bb	0.002976938
32	0xb7c2a2e5	-2.3202456e-05
33	0x3c1257d1	0.00893207
34	0x3b752825	0.0037407961
35	0xb999a77c	-0.0002930722
36	0x3b8d478f	0.004311509
37	0xbb3e6fcd	-0.0029058338
38	0x3ac26c89	0.0014833371
39	0x3bdd9173	0.0067617237
40	0x3b8197eb	0.0039548776
41	0x3b8c6981	0.004285038
42	0x39d02b1e	0.00039704976
43	0x3c8c56f9	0.017131316
44	0x3abeb51a	0.0014549822
45	0x3c03c41a	0.00804236
46	0x3beb4f32	0.0071810717
47	0x3bfdaeec	0.0077417996
48	0x3c4a7912	0.012357967
49	0xb9a235dc	-0.00030939176
50	0x3b42e08b	0.0029735889
51	0x3ba521d2	0.005039432
52	0x3ac90d59	0.0015339061
53	0x3b8c4999	0.0042812345
54	0xba996e86	-0.0011705912
55	0xba86a707	-0.0010273167
56	0x3aab1ea9	0.0013055402
57	0xbac2fceb	-0.0014876401
58	0x3aea6302	0.001788229
59	0xbb49fa83	-0.0030819483
60	0xbc452c49	-0.012034484
61	0xbb33ec70	-0.002745416
62	0xbbad4ec7	-0.005288932
63	0xbca6e41a	-0.02037244
64	0xbb486877	-0.0030579844
65	0xbb0ca9d6	-0.0021463535
66	0xbb30b89f	-0.0026965511
67	0xbc13f57d	-0.009030697
68	0xbb6d06e6	-0.0036167442
69	0xbc232317	-0.009957097
70	0xbc85c27e	-0.016328093
71	0xbb38155b	-0.00280889
72	0xbbaba8ed	-0.0052386434
73	0xbb843380	-0.0040344596

attn_layers.layers.1.1.ff.0.0.weight f4 [296, 74]
0	0xbd4a91bb	-0.049455386
1	0x3d1405be	0.03613829
2	0xbde137bb	-0.10996958
3	0x3bbcedb8	0.005765643
4	0x3d26875b	0.04065643
5	0xbc845ad9	-0.0161566
6	0x3d815422	0.06314875
7	0x3cae1bc1	0.021253468
8	0x3cec1de3	0.028822845
9	0xbd1023b9	-0.035190318
10	0x3d0a294c	0.03373079
11	0x3dd05b01	0.101736076
12	0xbad26d4a	-0.0016054299
13	0x3b7dc4f6	0.0038722134
14	0xbdc3b7f6	-0.09556572
15	0x3dcffc01	0.10155488
16	0x3dcfe9c7	0.10152011
17	0x3dd51c39	0.10405774
18	0x3dd76818	0.10517901
19	0xbdaecca7	-0.08535128
20	0x3d99b27c	0.07504746
21	0x3d781289	0.06056455
22	0xbcbd21d7	-0.023087425
23	0xbbf679a2	-0.007521824
24	0xbddc9dc7	-0.10772281
25	0xbd265ec0	-0.040617704
26	0x3b7d0075	0.0038605009
27	0x3d978da3	0.07400062
28	0x3db5a142	0.08868648
29	0xbce73b42	-0.028226499
30	0xbd22dd9f	-0.039762136
31	0x3dcce437	0.10004466
32	0xbc0fd45e	-0.00877866
33	0xbddceaf5	-0.10787002
34	0xbcba000b	-0.022705099
35	0xbdbd610c	-0.09247026
36	0xbd301559	-0.04298911
37	0x3c01e095	0.00792708
38	0x3ddd3b32	0.10802306
39	0xbdd9be45	-0.10631994
40	0xbdde4561	-0.10853077
41	0xbdb128f8	-0.08650392
42	0x3d1ef76a	0.03881017
43	0xbd58c621	-0.052923325
44	0x3d8741c2	0.06604339
45	0xbd74aa8e	-0.059732966
46	0x3c839291	0.0160611
47	0x3c94b83b	0.018154254
48	0x3d57b814	0.052665785
49	0x3dcbd93b	0.09953543
50	0x3d5d0ab3	0.05396528
51	0x3cde64bc	0.027147643
52	0xbdca902b	-0.09890779
53	0x3c63d4e6	0.013905739
54	0x3c12a2be	0.008949934
55	0x3c871b5d	0.01649254
56	0x3d9824e6	0.07428913
57	0x3b30853b	0.002693488
58	0x3da7bbf6	0.081901476
59	0x3de86860	0.11348033
60	0x3c9f4233	0.019440746
61	0x3db3f83c	0.08787581
62	0xbd01daf8	-0.031702965
63	0x3de186ca	0.11012037
64	0xbd9453ea	-0.07242568
65	0xbdc074f2	-0.093973055
66	0x3dd80555	0.10547892
67	0x3cee00fd	0.029053206
68	0xbdbd6189	-0.09247119
69	0x3d90b07c	0.07064912
70	0xbc4af28f	-0.012386932
71	0xbd584170	-0.05279678
72	0xbdc8b4eb	-0.09800132
73	0x3d83267d	0.064038254
74	0xbd681873	-0.05666394
75	0xbd4b8ed8	-0.049696773
76	0xbd6e0de5	-0.05811872
77	0x3dc7bef1	0.09753216
78	0x3d1b84f8	0.037968606
79	0x3db82029	0.08990509
80	0xbdd47209	-0.10373313
81	0xbd112a13	-0.035440516
82	0xbddc135e	-0.107458815
83	0xbd56074c	-0.052253053
84	0xbda54d31	-0.08071364
85	0xbb851a70	-0.0040619895
86	0xbdf66d95	-0.1203262
87	0xbd7199b1	-0.058984462
88	0xbcc86dd9	-0.024466442
89	0x3b6c2fa9	0.003603915
90	0x3d75ad99	0.05998001
91	0xbc94bdf2	-0.01815698
92	0x3d4ef058	0.05052218
93	0xbd8b50a6	-0.06802492
94	0x3caf4017	0.021392865
95	0x3c4876ac	0.012235325
96	0x3d231010	0.03981024
97	0x3de5b4c5	0.1121612
98	0x3bcb250f	0.006199486
99	0xbdc27b07	-0.09496122
100	0xbd7ce890	-0.061745226
101	0x3cf66b00	0.030080318
102	0x3de4af95	0.11166302
103	0x3caaf18d	0.020867134
104	0xbde296ac	-0.11063895
105	0x3def2d88	0.11678606
106	0x3d2e16c5	0.042502183
107	0xbdba6357	-0.09100979
108	0x3cfb0afa	0.030644882
109	0x3d98a853	0.0745398
110	0xbdacd1f8	-0.08438486
111	0xbd843ad8	-0.06456536
112	0x3cd84da4	0.02640421
113	0x3c298954	0.010347683
114	0x3cffb287	0.031213058
115	0xbd7c0fa1	-0.061538342
116	0xbd48db44	-0.049037233
117	0xbbae3168	-0.0053159483
118	0x3d1afb9b	0.037837606
119	0xbd494c89	-0.049145255
120	0xbd700d26	-0.05860629
121	0x3d9b17bd	0.07572887
122	0xbdaec9d0	-0.085345864
123	0xbc77ec8a	-0.015132079
124	0xbde09c8e	-0.109673604
125	0xbdaf4ba2	-0.08559348
126	0x3cba8811	0.02276996
127	0x3c5ac3ab	0.013352315
128	0x3dc74b3e	0.09731148
129	0x3ddddad0	0.10832751
130	0x3d92d7aa	0.07170041
131	0x3deb45c9	0.1148792
132	0xbc6a40e7	-0.0142977005
133	0x3c3a3eaf	0.011367484
134	0x3d6a85fa	0.057256676
135	0x3c729788	0.014806636
136	0x3d81907a	0.06326385
137	0x3d40a4ee	0.04703229
138	0x3c22ae6f	0.0099292835
139	0xbd9ae65c	-0.07563469
140	0xbd06b20d	-0.032884646
141	0x3c0c2067	0.008552647
142	0xbd65628d	-0.05600219
143	0x3df7a23d	0.12091491
144	0xbdaac460	-0.08338237
145	0xbd142734	-0.0361702
146	0x3dea7085	0.11447243
147	0xbdcfdfbf	-0.10150098
148	0xbdde0370	-0.108404994
149	0x3d69955e	0.057027213
150	0x3bc286d8	0.005936485
151	0x3d224367	0.03961506
152	0x3da61a2a	0.08110459
153	0x3daac73c	0.08338782
154	0xbc32dc49	-0.010916778
155	0x3dc9e69d	0.09858439
156	0x3db21370	0.08695114
157	0x3dbce420	0.09223199
158	0xbd2628c2	-0.040566213
159	0x3cbd343b	0.023096194
160	0xbdd259ae	-0.10271011
161	0xbc9b7518	-0.018976733
162	0xbd286cc7	-0.041119363
163	0x3b5c1c3e	0.003358617
164	0xbd989b37	-0.0745148
165	0x3de20ac1	0.110372074
166	0xbccf75f4	-0.0253248
167	0xbccf83ca	-0.025331397
168	0x3dbd6ddc	0.0924947
169	0x3d6d1eda	0.05789075
170	0x3d95b119	0.07309169
171	0x3da698e5	0.08134631
172	0xbc3463a0	-0.011010081
173	0x3db68b49	0.08913285
174	0x3c2e18a2	0.01062599
175	0xba00dbf5	-0.00049155887
176	0x3d66094f	0.05616122
177	0x3d876aff	0.06612205
178	0xbd19f28d	-0.03758483
179	0xbbe512ec	-0.006990781
180	0xbd97e145	-0.07416014
181	0x3daf22d0	0.08551562
182	0x3c51b3f0	0.012799248
183	0x3d82202c	0.063537925
184	0x3dfed414	0.124427944
185	0xbcbe760c	-0.023249649
186	0xbc57b77d	-0.013166306
187	0xbd425735	-0.04744645
188	0x3d64cad1	0.055857483
189	0xbc8780cb	-0.016540905
190	0x3dbfb124	0.09359959
191	0x3af27a7c	0.0018499638
192	0x3d2f71be	0.042833082
193	0xbdb7f544	-0.089823276
194	0xbd91604e	-0.07098447
195	0xbd1a9999	-0.03774414
196	0xbd44f963	-0.048089396
197	0x3de6e34d	0.11273823
198	0x3cd11efd	0.025527472
199	0xbd7e11da	-0.062028743
200	0xbc51fbb8	-0.012816362
201	0x3c317157	0.010830245
202	0x3cf98895	0.030460635
203	0x3d421798	0.047385782
204	0x3daf794c	0.085680574
205	0x3c888f40	0.01666987
206	0xbc98a2be	-0.018632289
207	0x3c3b2b77	0.011423937
208	0x3dbf3f00	0.09338188
209	0xbce04bf0	-0.02737996
210	0x3cb5b352	0.022180233
211	0x3d491b5b	0.049098354
212	0x3d0198f4	0.031640008
213	0xbd0aaa06	-0.033853553
214	0xbd700265	-0.058596034
215	0x3d458af0	0.048228204
216	0xbe074e10	-0.13213372
217	0xbdda7bb5	-0.106681265
218	0x3d1e3c81	0.03863192
219	0x3dbe15eb	0.09281524
220	0x3d482fa0	0.048873544
221	0xbd9203ea	-0.07129653
222	0x3d1cdf9e	0.038299195
223	0x3cdcedae	0.026968803
224	0xbd974ce6	-0.07387714
225	0xbd32b6e1	-0.04363144
226	0xbdd50a54	-0.104023606
227	0xbcfae5c7	-0.030627145
228	0xbdb4fbb3	-0.0883707
229	0xbda8aacf	-0.08235704
230	0xbcf90ab4	-0.030400611
231	0xbc6e65f4	-0.014550675
232	0x3c3e77a5	0.011625205
233	0x3b81e2da	0.0039638104
234	0xbc97e07a	-0.018539656
235	0x3dbb39e7	0.09141903
236	0x3dafc99a	0.08583374
237	0x3dc57fc2	0.096435085
238	0xbd98e4b9	-0.074655004
239	0x3ded5c1f	0.11589836
240	0x3d8aafea	0.06771834
241	0x3c9bd370	0.01902172
242	0xbc36f781	-0.011167408
243	0x3d880bd9	0.06642885
244	0xbc597cd7	-0.013274393
245	0x3dcbc23e	0.09949158
246	0xbde2de24	-0.11077526
247	0xbdbf2967	-0.09334069
248	0x3def21f5	0.11676399
249	0x3df7f143	0.12106564
250	0x3d160f1f	0.036635514
251	0x3dd094e8	0.101846516
252	0x3c87c57a	0.016573656
253	0xbdce952c	-0.10087046
254	0xbd3889ca	-0.04505328
255	0x3b0f6e53	0.0021885827

attn_layers.layers.1.1.ff.0.0.bias f4 [296]
0	0xbda7567d	-0.08170793
1	0xbd8da0a8	-0.069154084
2	0x3d8d80e1	0.06909347
3	0xbd7a1e85	-0.061064262
4	0x3cc41fa7	0.023940874
5	0xbd5ef866	-0.05443611
6	0x3ba60613	0.005066642
7	0x3dcc09bb	0.099627934
8	0xbd040b91	-0.032237593
9	0x3c60da09	0.013723859
10	0x3dcf0854	0.1010901
11	0x3b9f4301	0.0048602824
12	0xbe030b03	-0.1279717
13	0xbdc53f0e	-0.09631167
14	0xbd674726	-0.056464337
15	0xbcb29d8d	-0.021803642
16	0xbaf6c9bc	-0.0018828432
17	0x3cd6dd8f	0.026228694
18	0xbd7e6738	-0.062110156
19	0xbcb274dc	-0.021784239
20	0xbdcc621f	-0.099796526
21	0xbd8da8a0	-0.06916928
22	0x3d8f5e1e	0.07000373
23	0xbd28ae7a	-0.04118202
24	0x3db7edaa	0.08980878
25	0xbd1dea34	-0.03855343
26	0xbda586f7	-0.08082383
27	0x3d35c151	0.044373814
28	0xbdeb8038	-0.11499065
29	0x3d74e4c7	0.05978849
30	0xbb93c02a	-0.0045089917
31	0x3c7f27b5	0.015573432
32	0xbdab9ad3	-0.0837914
33	0x3bf4b294	0.0074675772
34	0x3dbf0644	0.09327367
35	0xbd94b3ef	-0.07260882
36	0xbb8f9e1c	-0.004382862
37	0xbdc8b00d	-0.09799204
38	0x3d54df29	0.051970635
39	0x3d926cdb	0.07149669
40	0x3bdf7467	0.006819296
41	0x3d47c2b5	0.04876967
42	0x3d1cac50	0.038250268
43	0x3d736f9d	0.059432615
44	0xbde6e052	-0.112732545
45	0xbdd976d0	-0.10618365
46	0x3dbde877	0.09272855
47	0x3d3f0eaa	0.046644844
48	0x3d55adbe	0.052167647
49	0xbd083c11	-0.03326041
50	0x3d8883a2	0.06665732
51	0x3d416b69	0.047221575
52	0x3ca410c9	0.020027535
53	0xbddfaa67	-0.109211735
54	0xbdd4b7bb	-0.10386606
55	0x3c3a16c4	0.011357967
56	0x3d629221	0.05531514
57	0x3c2525dd	0.010079828
58	0xbcc10ed0	-0.023566633
59	0x3dbc9a6c	0.09209141
60	0xbcd1fea6	-0.025634121
61	0x3d6db26f	0.058031496
62	0xbbcaf349	-0.0061935526
63	0x3cd32d60	0.025778472
64	0xbc4c5ab2	-0.012472795
65	0xbc8a95ed	-0.016917193
66	0xbc4c64d4	-0.012475211
67	0x3b5d2777	0.0033745447
68	0x3d32e607	0.043676402
69	0xbdb09781	-0.08622647
70	0x3d6b309d	0.057419408
71	0x3d3bfa24	0.04589285
72	0xbc8712b3	-0.016488409
73	0xbdc2abb0	-0.09505403
74	0xbd5a43b4	-0.053287223
75	0xbde1cdcf	-0.11025583
76	0xbc8d44cc	-0.017244719
77	0x3cb7366e	0.022364821
78	0xbcd3dcc2	-0.025862101
79	0xbd5a31ad	-0.05327003
80	0xbda2f195	-0.07956234
81	0xbd9494dd	-0.07254956
82	0x3d1eeafe	0.038798325
83	0x3db7009d	0.08935664
84	0x3dc03fac	0.093871444
85	0xbddeee42	-0.10885288
86	0xbd3d1c2c	-0.046169445
87	0x3dbb97d8	0.09159821
88	0xbd6e1df2	-0.058134027
89	0x3d9ab67b	0.07554337
90	0x3cda3d1f	0.026640473
91	0xbd896d5b	-0.06710311
92	0x3be98139	0.0071260002
93	0x3da44373	0.080206774
94	0xbde4a44e	-0.11164151
95	0xbceef8aa	-0.029171307
96	0xbd2a48b4	-0.04157324
97	0x3ccb483a	0.024814714
98	0x3cb6e230	0.022324651
99	0xbdc1d171	-0.09463776
100	0x3cf82976	0.030293208
101	0x3b9d5f70	0.004802637
102	0xbd37e673	-0.044897508
103	0x3dafa73c	0.08576819
104	0x3adc0aee	0.0016787925
105	0x3d5a68db	0.053322654
106	0xbdbfa13f	-0.09356927
107	0xbd909a72	-0.07060708
108	0x3dc5d01d	0.09658835
109	0xbc3bc590	-0.011460677
110	0x3dd84664	0.10560301
111	0x3de45654	0.11149278
112	0x3d1e54e1	0.038655166
113	0x3dba9bbe	0.09111737
114	0xbd3191e7	-0.043352034
115	0xbd158106	-0.0365
116	0xbdaa7a25	-0.083240785
117	0xbd16c0e8	-0.036805063
118	0x3d920c9e	0.07131313
119	0x3d11ed69	0.035626803
120	0x3cbfa02e	0.02339181
121	0xbd1294ef	-0.035786565
122	0xbdeed5de	-0.11661886
123	0xbdc72c4c	-0.09725246
124	0xbd7fd3bd	-0.06245779
125	0xbd2fb4b3	-0.042896938
126	0xbd75c345	-0.060000677
127	0x3ce32935	0.02772961
128	0x3d87ad59	0.0662486
129	0x3d9a505a	0.07534857
130	0xbcf1c6e3	-0.029513782
131	0xbda6e23a	-0.08148618
132	0x3d9b02e0	0.07568908
133	0x3cfb3ffc	0.030670159
134	0x3c079b42	0.008276762
135	0xbc0818c1	-0.008306683
136	0xbdc661ca	-0.096866205
137	0x3d20e73a	0.039283015
138	0xbde1bff4	-0.1102294
139	0x3d04737d	0.0323367
140	0x3db11cd8	0.0864808
141	0xbd10105f	-0.035171863
142	0x3dd6fdfa	0.10497661
143	0xbdbead98	-0.09310454
144	0xbddeb840	-0.10874987
145	0x3dc2a048	0.095032275
146	0xbcafbc43	-0.021452075
147	0xbd10908d	-0.035294104
148	0x3d5d44d9	0.054020736
149	0x3d5f030f	0.054446276
150	0xbdd5bd00	-0.104364395
151	0xbdb735a8	-0.08945781
152	0xba7331ab	-0.00092771155
153	0xbddc232d	-0.10748897
154	0x3d14a65e	0.036291473
155	0xbd890434	-0.06690255
156	0x3de17afc	0.110097855
157	0xbdaa1423	-0.08304622
158	0xbd730b4f	-0.059336957
159	0xbd116d86	-0.03550484
160	0x3dd8328a	0.105565146
161	0xbd95fcd9	-0.073236175
162	0xbce2a4eb	-0.02766653
163	0x3db5bee1	0.08874298
164	0xbd601088	-0.054703265
165	0xbd650fdc	-0.055923328
166	0x3afe22d2	0.0019389039
167	0xbd676888	-0.056496173
168	0x3db7dbf0	0.089774966
169	0x3d58b3f2	0.052905984
170	0x3ca32565	0.019915292
171	0x3daaa0e4	0.08331469
172	0x3c81ea94	0.015858926
173	0xbd877a0e	-0.06615077
174	0x3dd22dc9	0.10262639
175	0x3d3d0772	0.04614968
176	0xbddf7aaa	-0.10912068
177	0xbddccc38	-0.10781139
178	0x3d106bdf	0.035259124
179	0xbde97fa7	-0.11401301
180	0xbd6751a3	-0.05647434
181	0xbdd7ed39	-0.105432935
182	0xbd528816	-0.051399313
183	0xbc9614cb	-0.018320462
184	0xbcd5ff69	-0.026122766
185	0xbda360e6	-0.07977466
186	0xbb82e45f	-0.003994509
187	0xbc78e475	-0.015191187
188	0xbbea4b28	-0.0071500726
189	0xbd8ba10b	-0.06817826
190	0x3d949a07	0.07255941
191	0x3daca471	0.08429802
192	0xbdbf9241	-0.093540676
193	0x3d7c93f4	0.061664537
194	0x3dd38c17	0.103294544
195	0x3dc21dee	0.09478365
196	0x3dac0713	0.08399787
197	0xbd12e369	-0.035861406
198	0x3bb7138a	0.005587046
199	0x3d87e8fc	0.06636235
200	0xbda3efed	-0.080047466
201	0xbd08b787	-0.03337815
202	0x3dc07058	0.09396428
203	0x3c8110f2	0.01575515
204	0xbd4a526d	-0.049395014
205	0x3dc7cfb7	0.09756415
206	0x3dad3bcb	0.0845867
207	0x3d2c285d	0.04203068
208	0x3cd7fdb3	0.02636609
209	0x3d742020	0.05960095
210	0xbdf2c223	-0.11853435
211	0x3cb017ee	0.021495786
212	0xbdc8b6f3	-0.0980052
213	0xbdddad23	-0.10824039
214	0xbd250f04	-0.040297523
215	0x3d87c4d1	0.066293366
216	0xbd9df983	-0.07713606
217	0x3d82b21c	0.06381628
218	0xbc4f3799	-0.012647533
219	0xbc2abb39	-0.010420614
220	0xbdd2b71e	-0.10288833
221	0xbc8de2a6	-0.017319988
222	0x3d5f6ac6	0.054545186
223	0xbdc43596	-0.09580533
224	0x3daff742	0.085920826
225	0x3d98ec8a	0.07466991
226	0x3cbd6f2a	0.023124296
227	0xbdec94c3	-0.115518115
228	0x3de54715	0.111951984
229	0x3c14b687	0.009076721
230	0xbc076200	-0.008263111
231	0x3c7a4152	0.015274363
232	0xbdb136aa	-0.086530045
233	0x3d87fee1	0.06640411
234	0x3d9f7cb4	0.07787457
235	0x3dd5dbc8	0.104423106
236	0xbd6db2e9	-0.05803195
237	0x3d638463	0.055546176
238	0xbdb3d02d	-0.08779941
239	0x3dc8a510	0.09797108
240	0xbd8d5619	-0.069011874
241	0x3d9a5816	0.07536332
242	0xbd9714e1	-0.07377029
243	0x3d704d7c	0.058667645
244	0xbda43a15	-0.08018891
245	0x3cb50d66	0.022101115
246	0x3d5347f4	0.05158229
247	0xbdd3c8cd	-0.10341034
248	0x3c8479e3	0.016171401
249	0xbd5af312	-0.053454466
250	0x3d4638b4	0.04839392
251	0x3da3a91e	0.07991241
252	0x3d01b42b	0.031665962
253	0x3d5c5b72	0.053798147
254	0x3c69f036	0.014278462
255	0x3dd21db8	0.10259575
